backup_critic2.pth (torch, 354007 bytes, 11 tensors)

cnn_layers.cnnblock_0.conv.weight f4 [8, 1, 3, 3]
-0.1355573 -0.29846752 0.18800932 -0.2770744 0.06350841 0.20916902 0.2817929 0.16168052
0.20813759 -0.069259055 -0.31641513 0.29907113 -0.21185881 0.06494213 0.25066257 0.22639263
0.2007961 -0.20582838 0.27574193 0.2475323 0.347278 0.25931123 -0.2831332 -0.12064473
0.10770824 0.2590135 0.035814926 0.14278796 -0.14594294 0.21973152 -0.14032681 0.15544583
-0.31460533 -0.17597084 0.121600665 -0.08309761 -0.2316731 0.009678475 -0.07796411 -0.30764857
0.30714947 0.18469216 -0.26834396 -0.16314973 0.07012044 -0.30110753 -0.11763745 0.21801949
0.14306325 0.071752995 -0.3249411 0.10707558 -0.22219874 -0.30306464 0.13797848 -0.26622477
0.07255445 -0.2561124 -0.14434002 0.1817309 0.22702855 -0.11745251 -0.0844751 0.24258482
0.071928546 -0.22635046 0.060270417 0.30725175 0.3070392 0.071838774 -0.15039776 -0.25774303
00000000: 88cf 0abe bcd0 98be 8485 403e b2dc 8dbe
00000010: b210 823d 6730 563e 2947 903e 948f 253e
00000020: 0522 553e b1d7 8dbd 2a01 a2be da1f 993e
00000030: 84f1 58be 6100 853d d856 803e 78d3 673e
00000040: 7e9d 4d3e adc4 52be 0c2e 8d3e 1b79 7d3e
00000050: 6cce b13e 71c4 843e d6f6 90be 9614 f7bd
00000060: 2396 dc3d 6b9d 843e acb2 123d 0237 123e
00000070: 1172 15be 4d01 613e d5b1 0fbe 312d 1f3e
00000080: f313 a1be b331 34be c509 f93d 142f aabd
00000090: b73b 6dbe 7792 1e3c a6ab 9fbd 1d84 9dbe
000000a0: b242 9d3e f11f 3d3e 6164 89be b910 27be
000000b0: 4e9b 8f3d c42a 9abe e7eb f0bd 8040 5f3e
000000c0: 2c7f 123e 3cf3 923d ae5e a6be 714a db3d
000000d0: 1188 63be 4a2b 9bbe 3b4a 0d3e 9d4e 88be
000000e0: 6d97 943d 2a21 83be dfcd 13be aa17 3a3e
000000f0: 2c7a 683e f18a f0bd 4801 adbd 2868 783e
00000100: 464f 933d 6ac8 67be 1dde 763d 1a50 9d3e
00000110: 3e34 9d3e 3520 933d df01 1abe e5f6 83be

cnn_layers.cnnblock_0.conv.bias f4 [8]
0.07704586 -0.2984937 -0.13672124 -0.33051077 -0.21646582 -0.21681704 -0.0065457104 -0.15225773
00000000: 38ca 9d3d 2bd4 98be a700 0cbe b538 a9be
00000010: 37a9 5dbe 4905 5ebe 667d d6bb 73e9 1bbe

cnn_layers.cnnblock_1.conv.weight f4 [32, 8, 3, 3]
-0.12019334 -0.0069553535 -0.08674199 0.047639683 0.10013786 -0.098985516 -0.10088378 -0.12713823
-0.095455706 0.014454059 -0.056626517 -0.011474432 0.095550366 0.038064115 0.0155997705 -0.026378473
-0.09009696 0.08052267 -0.10130001 0.08443351 -0.08304826 0.05849493 -0.03572848 0.07577325
0.07804199 -0.037354864 -0.05463442 -0.0093687 -0.1071804 -0.046782684 0.0394831 -0.07689359
-0.010677181 0.07370161 0.10157677 -0.09497448 -0.08918661 -0.104138695 -0.017007662 -0.0880442
-0.11120604 0.101044126 0.013155774 -0.040935926 -0.09925888 0.08088456 -0.0116807725 0.068028666
-0.07768035 0.071373105 -0.018037034 -0.06505265 0.034305226 0.07839378 -0.105270416 0.02525683
-0.08405891 0.05210831 0.07768529 -0.028216477 -0.09954694 -0.104204215 0.01538007 -0.026274368
-0.07470355 -0.06927614 0.04097741 -0.0038548182 -0.00082268403 0.06189945 -0.12951812 -0.09181633
-0.021814045 -0.080651484 0.09849645 0.10042267 0.018807882 0.015159839 -0.057197083 -0.11360974
-0.022206755 -0.031329475 -0.0891806 0.07461869 -0.055416483 0.08534005 -0.07344367 -0.03183925
-0.04518953 -0.020196535 -0.029897306 -0.03181496 -0.117437296 0.020102475 -0.033884514 -0.11996757
0.046124496 -0.023460776 0.02527694 0.003688005 -0.064757586 0.062200468 -0.015733175 0.058048815
0.10811649 -0.009822719 -0.046915926 0.106452025 0.060791045 0.054326244 -0.030093512 -0.019340795
0.032749686 0.074982546 -0.09294809 0.05934099 -0.050432835 -0.06959697 -0.10253958 -0.011582383
-0.010594181 0.009849203 -0.047852296 0.043178175 0.04481787 -0.07297201 0.00012232142 0.004280757
-0.08627025 -0.09715943 -0.10706367 -0.09185886 -0.018752376 0.11832498 0.06053722 -0.025306735
0.016961567 -0.08726329 0.04393375 -0.12062258 0.08028931 0.044265624 0.056791253 0.017660784
-0.07869438 -0.0010195244 0.10334435 -0.04396976 -0.08193107 0.096909 -0.034898352 0.020918496
-0.06444053 0.022621859 0.038590897 -0.06988821 -0.010433573 0.025497131 0.09232114 -0.04363716
0.085653745 -0.068427525 0.072182156 0.08009839 -0.102964595 0.06871831 -0.07952296 -0.14031315
-0.07330776 -0.022018624 0.06830535 0.07763397 -0.088262826 -0.045898825 0.043197602 0.06456926
0.013133305 -0.110989735 -0.07346894 0.0009032183 -0.067450814 0.08517566 0.11167501 -0.08274705
0.025641643 -0.055028975 0.085806444 -0.10556044 0.038160026 0.015350917 -0.025143944 -0.106569365
0.101005755 -0.09805717 -0.10559036 -0.045550544 -0.08595613 -0.111095056 -0.084293514 0.040900145
-0.0077655 -0.09036956 0.0055680415 0.006839677 0.08338138 0.024400787 0.08398329 0.031688225
-0.13410997 0.084892556 0.038607888 0.10080496 -0.09881526 0.07674424 0.072689325 -0.10851929
-0.0020551083 -0.09870729 0.063578874 0.07073143 -0.035226755 0.05844791 -0.025182609 0.03586685
0.014883523 0.07472697 0.087642364 -0.04899056 0.08250101 0.037951265 -0.040734407 0.07000256
-0.052967604 -0.14234684 0.020117614 -0.0015593437 -0.1553364 -0.112981595 -0.014635093 0.01086024
-0.14775825 -0.124715805 0.042691767 -0.09174643 0.007994982 -0.11535593 0.015814655 0.07419894
-0.07736229 0.030483233 -0.09562954 0.09836605 -0.04570109 0.017807545 -0.10563224 -0.008302305
00000000: ed27 f6bd bce9 e3bb c9a5 b1bd d421 433d
00000010: 1415 cd3d ebb8 cabd 289c cebd 8630 02be
00000020: 487e c3bd b8d0 6c3c 35f1 67bd 42ff 3bbc
00000030: e9af c33d 1ee9 1b3d 2e96 7f3c ab17 d8bc
00000040: c184 b8bd 12e9 a43d 6176 cfbd 7aeb ac3d
00000050: 3515 aabd 6198 6f3d 0758 12bd 012f 9b3d
00000060: 7bd4 9f3d 6a01 19bd 57c8 5fbd 2d7f 19bc
00000070: 6681 dbbd 339f 3fbd 08b9 213d 637a 9dbd
00000080: 58ef 2ebc dff0 963d 7b07 d03d fb81 c2bd
00000090: 78a7 b6bd ab46 d5bd a753 8bbc 8450 b4bd
000000a0: febf e3bd 39f0 ce3d 518b 573c 6eac 27bd
000000b0: 3d48 cbbd cea6 a53d b660 3fbc 9d52 8b3d
000000c0: e016 9fbd 102c 923d 67c2 93bc 533a 85bd
000000d0: a383 0c3d eb8c a03d 0498 d7bd 69e7 ce3c
000000e0: 1427 acbd 866f 553d 7719 9f3d 3e26 e7bc
000000f0: 44df cbbd 0569 d5bd b0fc 7b3c 583d d7bc
00000100: 2dfe 98bd a6e0 8dbd eed7 273d 1ea1 7cbb
00000110: 64a9 57ba 478a 7d3d 66a0 04be 330a bcbd
00000120: 5eb3 b2bc 9b2c a5bd 82b8 c93d 67aa cd3d
00000130: fd12 9a3c f960 783c 7d47 6abd 39ac e8bd
00000140: f1ea b5bc 5653 00bd 52a4 b6bd afd1 983d
00000150: 65fc 62bd c4c6 ae3d a369 96bd e069 02bd
00000160: a818 39bd 3473 a5bc 32eb f4bc 6750 02bd
00000170: f782 f0bd f2ad a43c 7dca 0abd 8fb1 f5bd
00000180: 0aed 3c3d d030 c0bc 9611 cf3c 75b2 713b
00000190: a09f 84bd ebc5 7e3d dce2 80bc 98c4 6d3d
000001a0: 2e6c dd3d 78ef 20bc ea2a 40bd 8503 da3d
000001b0: 0800 793d 3285 5e3d ab86 f6bc 9670 9ebc
000001c0: 8924 063d 7390 993d 915b bebd 8a0f 733d
000001d0: a992 4ebd db88 8ebd 4500 d2bd 09c4 3dbc
000001e0: 3793 2dbc 8d5e 213c c500 44bd 99db 303d
000001f0: f192 373d 5972 95bd 6843 0039 9845 8c3b
00000200: 75ae b0bd 86fb c6bd 3344 dbbd 7f20 bcbd
00000210: 959e 99bc 5e54 f23d e0f5 773d 1250 cfbc
00000220: fcf2 8a3c 19b7 b2bd e0f3 333d f908 f7bd
00000230: b96e a43d df4f 353d f29d 683d 59ad 903c
00000240: 852a a1bd 90a1 85ba 34a6 d33d a319 34bd
00000250: 7acb a7bd 3a78 c63d 93f1 0ebd 445d ab3c
00000260: 66f9 83bd 7a51 b93c 7d11 1e3d 8d21 8fbd
00000270: 94f1 2abc 5cdf d03c de12 bd3d e1bc 32bd
00000280: 3b6b af3d bb23 8cbd 3dd4 933d a00a a43d
00000290: 1adf d2bd 2fbc 8c3d efdc a2bd 40ae 0fbe
000002a0: 6122 96bd 6760 b4bc ade3 8b3d 8ffe 9e3d
000002b0: 24c3 b4bd 6800 3cbd f8ef 303d e33c 843d
000002c0: 132d 573c 964e e3bd e276 96bd f4c5 6c3a
000002d0: a723 8abd 9470 ae3d deb5 e43d 4977 a9bd
000002e0: 6c0e d23c 1066 61bd 4abb af3d 1230 d8bd
000002f0: b04d 1c3d 6a82 7b3c acfa cdbc 0a41 dabd
00000300: 1bdc ce3d 33d2 c8bd c23f d8bd 3593 3abd
00000310: c409 b0bd ce85 e3bd 14a2 acbd e986 273d
00000320: bc75 febb ad13 b9bd 1e74 b63b 5f1f e03b
00000330: dbc3 aa3d 29e4 c73c 6eff ab3d 83cb 013d
00000340: 2054 09be 26dc ad3d 4e23 1e3d d572 ce3d
00000350: a85f cabd 162c 9d3d 24de 943d 5d3f debd
00000360: ffae 06bb 0c27 cabd a435 823d a4db 903d
00000370: ee49 10bd 1367 6f3d c24b cebc 1ee9 123d
00000380: 05da 733c 740a 993d d77d b33d 53aa 48bd
00000390: 4af6 a83d c972 1b3d 1fd9 26bd 815d 8f3d
000003a0: 8ff4 58bd 5fc3 11be b2cd a43c e462 ccba
000003b0: 8110 1fbe e562 e7bd 07c8 6fbc 26ef 313c
000003c0: f04d 17be 006b ffbd 90dd 2e3d 8de5 bbbd
000003d0: 63fd 023c bb3f ecbd bc8d 813c 9df5 973d
000003e0: 1f70 9ebd f9b7 f93c 6cd9 c3bd 2474 c93d
000003f0: 1131 3bbd 21e1 913c b755 d8bd 6406 08bc

cnn_layers.cnnblock_1.conv.bias f4 [32]
0.03809305 0.07056215 -0.076583944 -0.13273132 0.09565643 -0.010243166 0.00025082324 0.011654777
-0.11260468 0.044371907 -0.030529246 -0.07887694 -0.028582575 -0.061622057 0.05406514 -0.04888562
0.10519001 -0.07286079 0.030744126 0.0913568 0.026969498 0.02957244 -0.075515434 0.020471051
-0.019301133 -0.08381787 -0.082552984 0.0014259549 -0.12784491 0.104276106 0.009401714 0.05256547
00000000: 7507 1c3d e382 903d 0bd8 9cbd b8ea 07be
00000010: 85e7 c33d f4d2 27bc ed80 8339 aef3 3e3c
00000020: 489d e6bd 51bf 353d 7818 fabc 3c8a a1bd
00000030: 0126 eabc 6967 7cbd 6973 5d3d 4a3c 48bd
00000040: dc6d d73d 0a38 95bd 1bdb fb3c 4619 bb3d
00000050: 23ef dc3c e741 f23c d6a7 9abd e8b2 a73c
00000060: 691d 9ebc b4a8 abbd 8a11 a9bd 1be7 ba3a
00000070: c7e9 02be b68e d53d a609 1a3c e44e 573d

cnn_layers.cnnblock_2.conv.weight f4 [48, 32, 5, 5]
-0.0021929527 -0.029812396 -0.0029095262 -0.0018221246 0.0219981 -0.04494734 -0.007856988 -0.0075032054
0.0016816953 -0.025906296 0.0051426403 0.0296838 -0.019190507 -0.035477478 0.0030473315 -0.03401703
0.026222361 0.0023242442 -0.036624685 -0.021225965 0.009961219 0.0064646215 -0.03050713 -0.033430174
-0.002869038 0.021833397 -0.03614877 -0.008658521 -0.028358553 0.00057113165 -0.03971329 0.000731419
-0.013953756 -0.029267773 -0.01692118 0.02266782 -0.042376436 -0.041046694 -0.059320718 0.0088458685
0.009846775 -0.019697824 -0.009790949 0.015750727 0.01474863 0.027333984 -0.033169888 -0.0045666783
-0.03171222 0.003709999 0.015025545 0.0050909584 0.0070816223 0.0029221617 -0.010381186 0.022418164
-0.028283125 -0.055730008 -0.017710103 -0.003477658 -0.023328329 -0.040014986 -0.049082477 0.020904055
-0.047403354 0.01274502 -0.028482387 -0.03007661 -0.04234048 0.014447155 -0.07236342 0.022997927
-0.04849989 -0.008611272 -0.0018709888 0.0057600527 0.027710058 -0.008781291 -0.015647724 -0.02123391
-0.015132025 -0.011336332 -0.011730304 -0.02834524 0.017709227 0.017339103 -0.014969437 -0.032114815
-0.034873124 0.023413718 -0.004830114 0.031501558 -0.0022625588 -0.025581269 -0.0015749488 -0.031564962
-0.019795068 -0.0032526546 0.002579392 -0.0061772256 0.005124461 0.02125696 -0.02496175 -0.008790334
-0.009028878 -0.011140514 -0.005926214 -0.006146824 -0.022267373 0.021957891 0.0022627134 -0.04093834
-0.0019894978 -0.012350945 -0.04331038 -0.044259816 0.0198553 0.004154582 0.006351906 -0.027633414
-0.023624634 -0.035143036 -0.03390402 0.024779504 0.013297761 -0.052360903 -0.011360971 -0.026879838
-0.010487724 -0.040288232 0.027525246 -0.005619033 0.0044034333 -0.03619829 0.016900426 -0.030438943
0.021296212 -0.019884134 -0.030431962 0.03006329 -0.048782006 0.027051728 -0.027781961 -0.023432037
0.0056590727 0.011870157 0.0032259063 -0.0020532652 -0.026884949 0.023406474 -0.025423523 -0.009028846
-0.0024622441 -0.04075378 -0.013535615 -0.022799069 -0.014994454 -0.015108132 -0.016342962 -0.045867175
-0.029087618 -0.023062242 0.01679958 -0.05796636 -0.022439193 0.0051766876 0.011923635 -0.015661139
0.0002044336 -0.017384963 -0.021116177 -0.02509613 -0.009169287 0.012784011 -0.031784866 0.02485015
0.006447293 0.008951041 -0.038297813 -0.029385028 -0.036634177 0.02229091 -0.0082581015 -0.047486074
0.0019484591 -0.009827776 -0.007178579 -0.059878655 0.03042914 -0.0172012 -0.0417194 0.016504059
-0.02480637 -0.020504586 -0.025648706 0.013186446 -0.011315272 -0.028614344 0.0046570823 -0.050321918
-0.014130956 -0.03550162 -0.008570768 -0.004331135 0.025037665 0.0054546287 -0.020379486 0.027330525
0.028310688 -0.011752987 0.018992223 -0.0033833855 -0.04877784 -0.038345154 0.006410986 -0.045598652
-0.05663583 -0.04005603 0.009607152 -9.7508615e-05 -0.053675838 -0.04055419 -0.007859035 0.010278551
-0.03363708 -0.031065207 -0.014782465 -0.020043176 0.021301778 0.014383405 -0.024564875 -0.027089177
-0.035873283 0.009823598 -0.034733623 0.022362208 -0.020019064 0.005419467 0.015127057 0.016337529
-0.007737334 -0.02002028 -0.010633425 -0.04669357 -0.018936563 -0.016975459 -0.013040912 -0.020533474
-0.049677245 0.014332933 -0.035904296 -0.0332356 0.0026075137 0.026170092 -0.046161342 0.023861652
00000000: a4b7 0fbb 2039 f4bc c0ad 3ebb 5bd4 eeba
00000010: 5c35 b43c b41a 38bd 99ba 00bc 73dd f5bb
00000020: 556c dc3a 7139 d4bc 9883 a83b 712b f33c
00000030: 6935 9dbc d550 11bd bdb5 473b 7155 0bbd
00000040: 47d0 d63c 5952 183b c403 16bd 13e2 adbc
00000050: 6134 233c 2dd5 d33b 17ea f9bc 14ee 08bd
00000060: 7806 3cbb f4db b23c bc10 14bd 78dc 0dbc
00000070: 3250 e8bc ffb7 153a 67aa 22bd b3bc 3f3a
00000080: 4b9e 64bc f8c2 efbc 499e 8abc ddb1 b93c
00000090: ea92 2dbd 9420 28bd 48fa 72bd 43ee 103c
000000a0: 5e54 213c 555d a1bc 376a 20bc ab07 813c
000000b0: 3da4 713c 85eb df3c 26dd 07bd 13a4 95bb
000000c0: ace4 01bd 7423 733b b42d 763c 0ed2 a63b
000000d0: f40c e83b bd81 3f3b da15 2abc 4ca6 b73c
000000e0: 03b2 e7bc 2645 64bd c714 91bc 6be9 63bb
000000f0: 0d1b bfbc c1e6 23bd b50a 49bd fb3e ab3c
00000100: 052a 42bd 7dd0 503c e553 e9bc 3963 f6bc
00000110: 366d 2dbd c3b3 6c3c 4633 94bd 2666 bc3c
00000120: d2a7 46bd 4b16 0dbc f73b f5ba d3be bc3b
00000130: 3400 e33c 67df 0fbc a82f 80bc bdf2 adbc
00000140: 50ec 77bc 06bc 39bc 7630 40bc 4734 e8bc
00000150: f112 913c bc0a 8e3c 5f42 75bc d38a 03bd
00000160: 1fd7 0ebd 20ce bf3c ef45 9ebb c707 013d
00000170: 7047 14bb cf8f d1bc 836e ceba 434a 01bd
00000180: 4429 a2bc 7d2a 55bb 040b 293b 536a cabb
00000190: 18eb a73b 1423 ae3c 957c ccbc 5505 10bc
000001a0: dced 13bc b486 36bc b030 c2bb 4c6b c9bb
000001b0: 116a b6bc 09e1 b33c 084a 143b f6ae 27bd
000001c0: 3c62 02bb 9e5b 4abc 3a66 31bd c849 35bd
000001d0: 95a7 a23c 2923 883b a623 d03b 785f e2bc
000001e0: 7388 c1bc 25f2 0fbd f1de 0abd 63fe ca3c
000001f0: dade 593c 6378 56bd 5e23 3abc 1b33 dcbc
00000200: b4d4 2bbc 4605 25bd a07c e13c dd1f b8bb
00000210: ad4a 903b a844 14bd c372 8a3c 175b f9bc
00000220: 6575 ae3c 0de4 a2bc 734c f9bc 4a47 f63c
00000230: a4cf 47bd 969b dd3c ff96 e3bc 8bf4 bfbc
00000240: be6f b93b 0c7b 423c ba69 533b 1390 06bb
00000250: d33d dcbc efbe bf3c fe44 d0bc baed 13bc
00000260: 9a5d 21bb 70ed 26bd 7cc4 5dbc 1dc5 babc
00000270: 4cab 75bc 1988 77bc ade1 85bc 38df 3bbd
00000280: 2849 eebc 07ed bcbc 469f 893c 226e 6dbd
00000290: 66d2 b7bc 34a1 a93b 5a5b 433c ca4b 80bc
000002a0: 3a5d 5639 e96a 8ebc d5fb acbc 6696 cdbc
000002b0: c73a 16bc 0774 513c d930 02bd 8b92 cb3c
000002c0: d043 d33b 63a7 123c 2bde 1cbd dfb8 f0bc
000002d0: b80d 16bd 6d9b b63c fd4c 07bc c280 42bd
000002e0: 7063 ff3a ae04 21bc 493a ebbb 5243 75bd
000002f0: 8846 f93c 88e9 8cbc f6e1 2abd 8533 873c
00000300: ba36 cbbc 3cf9 a7bc 3c1d d2bc f70b 583c
00000310: b163 39bc a168 eabc 709a 983b 5b1e 4ebd
00000320: 8685 67bc 266a 11bd 686c 0cbc 32ec 8dbb
00000330: ca1b cd3c bebc b23b e1f2 a6bc 44e4 df3c
00000340: d1eb e73c 9a8f 40bc 9495 9b3c cabb 5dbb
00000350: 46cb 47bd cf0f 1dbd 4013 d23b a7c5 3abd
00000360: f9fa 67bd cb11 24bd 5167 1d3c 8a7d ccb8
00000370: 32db 5bbd 261c 26bd 2fc3 00bc 5e67 283c
00000380: 09c7 09bd 767c febc 2732 72bc 9631 a4bc
00000390: 1181 ae3c 60a8 6b3c 473c c9bc 1fea ddbc
000003a0: ddef 12bd 28f3 203c d844 0ebd f330 b73c
000003b0: 05ff a3bc c995 b13b 7ad7 773c 48d6 853c
000003c0: 7689 fdbb 9201 a4bc d137 2ebc c241 3fbd
000003d0: da20 9bbc 1e10 8bbc 8da9 55bc d135 a8bc
000003e0: 5e7a 4bbd aed4 6a3c 6210 13bd 0d22 08bd
000003f0: d2e2 2a3b a962 d63c ad13 3dbd 8379 c33c

cnn_layers.cnnblock_2.conv.bias f4 [48]
0.0055206562 -0.018775886 -0.0031167031 -0.016416619 0.00840463 -0.042164557 0.0004557611 -0.040305436
-0.007247052 -0.019093053 -0.016745046 0.0017344855 0.015972525 0.019779745 -0.044699803 -0.003913919
-0.021497324 -0.023646532 0.007863734 -0.01716993 -0.028319893 -0.040869545 -0.06993644 -0.0207306
-0.06556813 -0.053766444 -0.0370593 -0.037863098 0.0032622658 -0.060952973 -0.025427487 -0.040839892
-0.017405814 0.0012527447 -0.046220277 -0.05573185 -0.025832037 -0.038750235 -0.015682489 -0.057730135
-0.035481937 0.007695244 -0.033958204 -0.028920624 -0.06446074 -0.0025469086 0.015250191 -0.04764349
00000000: 9fe6 b43b e3cf 99bc 9a41 4cbb 257c 86bc
00000010: 93b3 093c beb4 2cbd 38f3 ee39 5017 25bd
00000020: ae78 edbb 0969 9cbc e82c 89bc ad57 e33a
00000030: d0d8 823c 2209 a23c 2417 37bd 5540 80bb
00000040: 281b b0bc 5fb6 c1bc e4d6 003c f4a7 8cbc
00000050: 1fff e7bc d366 27bd d63a 8fbd 38d3 a9bc
00000060: 9548 86bd 343a 5cbd 7ecb 17bd 5616 1bbd
00000070: bdcb 553b d3a9 79bd 4e4d d0bc bb47 27bd
00000080: a396 8ebc 2333 a43a 7951 3dbd 1547 64bd
00000090: b59d d3bc 91b8 1ebd 9078 80bc 6f76 6cbd
000000a0: 8255 11bd 6328 fc3b c217 0bbd f2ea ecbc
000000b0: fe03 84bd 09ea 26bb f0db 793c d225 43bd

lstm.weight_ih_l0 f4 [192, 192]
-0.035861243 0.111795396 0.060730055 -0.15842937 -0.02006013 -0.12210868 -0.12229051 0.106046416
-0.06309223 -0.076283455 0.08484541 0.08171605 0.048777353 -0.16292731 -0.1287417 -0.085291706
-0.107126206 0.0626809 0.025463313 -0.032169662 -0.10615205 -0.05196322 0.0009138885 -0.040441193
0.03781259 0.094647124 0.019439375 0.014973108 -0.15078674 -0.023720829 0.06648552 0.06437311
-0.1398094 -0.14067374 -0.025717357 -0.08725784 0.103528395 0.04158853 -0.11942249 -0.030727295
-0.1511016 -0.13314739 -0.08756888 -0.14959866 -0.16951315 -0.13479717 -0.14850849 -0.1457861
-0.1542245 -0.13901076 0.021395938 0.09146252 -0.15138534 0.035195943 0.06739094 -0.12324647
-0.01668843 0.024089705 -0.0022452795 -0.018620653 -0.028068313 -0.044121288 -0.096425295 -0.05645822
0.08543136 -0.14503826 -0.14175121 0.018457977 0.012623854 0.1287688 -0.10674102 -0.15088888
0.0065795076 0.01670899 -0.009616055 0.08694507 -0.0049118837 -0.13855264 -0.053947676 -0.09014101
0.078132235 -0.08618086 0.06537857 -0.100433424 -0.12911616 -0.070385695 0.043830663 -0.021872593
0.053230055 0.08626481 0.05180341 0.04783456 -0.008348769 -0.116040856 -0.032090805 -0.07144237
-0.061497472 -0.007830824 -0.054641847 -0.13236311 0.0070588132 0.047655378 -0.15143365 0.026958063
-0.14696194 -0.112069316 -0.04578123 0.063445106 0.046384275 -0.13668281 -0.065920494 0.03559555
-0.08713687 0.042786587 0.061365865 0.04401762 -0.07195524 0.08144775 -0.10217242 -0.116682075
0.05046436 -0.06484208 -0.10955173 0.05268607 0.024777057 0.067759834 -0.021087537 0.019384913
0.038186945 0.059414476 -0.03325909 -0.13303147 0.020048738 -0.071522705 -0.014815154 -0.059807714
-0.11064831 -0.05381692 -0.12238479 0.066646755 -0.09316069 -0.038750898 -0.037344042 -0.072566226
0.09923613 -0.0066013415 0.10198533 0.084868245 -0.107031494 -0.07774252 0.03267499 -0.05268255
-0.09445262 0.001072037 -0.049845815 -0.12712173 -0.0036284365 0.024203131 0.11060977 -0.14206263
-0.13788308 -0.053428758 0.053659163 -0.088852786 0.0727795 -0.08365118 -0.13576347 0.0567699
-0.02180856 -0.02839795 0.085311614 0.03891596 0.11279264 0.06657016 -0.10230443 0.043469064
0.043139614 -0.0916482 0.11435493 -0.10683511 -0.1500003 0.016600003 -0.110307775 0.09343881
-0.026282292 0.0213983 -0.15892516 0.043650616 -0.1554955 -0.1203006 -0.044121467 -0.107202925
0.08526965 -0.12688923 -0.0075603174 -0.13301209 0.04870031 -0.066596694 -0.16460246 -0.10211203
-0.08855731 -0.12486093 -0.024750968 -0.027911492 -0.04084081 -0.16713609 -0.16298202 0.080368854
-0.10555561 0.080509424 0.040611308 -0.1378897 -0.030966286 0.015565996 0.04835757 -0.09600933
0.01705683 -0.07336951 -0.08194817 -0.0514544 -0.09124548 0.062476087 -0.1910103 -0.060544793
-0.06563742 -0.04147883 -0.13540871 -0.10152946 0.028541557 -0.17706107 -0.11791169 -0.030477077
-0.035885867 0.041657764 -0.19108237 0.023115821 -0.1289615 0.044218466 -0.066332236 -0.04998634
0.0034980583 -0.13353413 -0.09402646 -0.11698858 -0.012189749 -0.079464756 0.022420332 -0.20408443
0.021674018 0.032467123 0.066843964 0.03285702 -0.10974002 -0.05525114 -0.12804319 0.087158374
00000000: 3de3 12bd fcf4 e43d 14c0 783d 4f3b 22be
00000010: 2455 a4bc 1e14 fabd 7273 fabd dd2e d93d
00000020: 8036 81bd 803a 9cbd 6ec3 ad3d bf5a a73d
00000030: c3ca 473d 6bd6 26be ddd4 03be 6bad aebd
00000040: fc64 dbbd d85e 803d 7098 d03c 56c4 03bd
00000050: 3f66 d9bd 63d7 54bd 0592 6f3a aaa5 25bd
00000060: 60e1 1a3d 5ad6 c13d 533f 9f3c c451 753c
00000070: d767 1abe 2f52 c2bc 8f29 883d 0dd6 833d
00000080: 322a 0fbe c70c 10be 35ad d2bc 3db4 b2bd
00000090: b206 d43d bc58 2a3d c793 f4bd cfb7 fbbc
000000a0: 61ba 1abe ca57 08be 5057 b3bd 6430 19be
000000b0: db94 2dbe 4508 0abe 9c12 18be f448 15be
000000c0: 07ed 1dbe d658 0ebe 8946 af3c b450 bb3d
000000d0: c204 1bbe 9f29 103d 4304 8a3d a568 fcbd
000000e0: 2db6 88bc c657 c53c 8a25 13bb 578a 98bc
000000f0: 85ef e5bc 86b8 34bd a07a c5bd bc40 67bd
00000100: a3f6 ae3d e984 14be 3b27 11be 2f35 973c
00000110: 48d4 4e3c f8db 033e 099b dabd 9d82 1abe
00000120: e998 d73b 4be1 883c a88c 1dbc 4210 b23d
00000130: def3 a0bb bee0 0dbe 3df8 5cbd da9b b8bd
00000140: cb03 a03d 977f b0bd 33e5 853d 0ab0 cdbd
00000150: 0737 04be 6026 90bd c887 333d 272e b3bc
00000160: c207 5a3d 9bab b03d d02f 543d 2cee 433d
00000170: 46c9 08bc d4a6 edbd a671 03bd 6150 92bd
00000180: c6e4 7bbd db4c 00bc 21d0 5fbd 328a 07be
00000190: 9e4d e73b 4932 433d 6c11 1bbe 28d7 dc3c
000001a0: 317d 16be 9984 e5bd 1985 3bbd 82ef 813d
000001b0: 70fd 3d3d 94f6 0bbe 5301 87bd a4cc 113d
000001c0: d174 b2bd fd40 2f3d c65a 7b3d d24b 343d
000001d0: 455d 93bd 14ce a63d c63f d1bd 03f7 eebd
000001e0: b7b3 4e3d edcb 84bd a85c e0bd 59cd 573d
000001f0: 41f9 ca3c abc5 8a3d c5bf acbc 1ccd 9e3c
00000200: ea69 1c3d 985c 733d af3a 08bd 6739 08be
00000210: 403d a43c 7f7a 92bd 42bb 72bc eff8 74bd
00000220: 959b e2bd 216f 5cbd e0a4 fabd 187e 883d
00000230: 08cb bebd 43b9 1ebd 11f6 18bd 9a9d 94bd
00000240: 503c cb3d 1150 d8bb afdd d03d 67cf ad3d
00000250: 5433 dbbd 7837 9fbd 36d6 053d a8c9 57bd
00000260: 6070 c1bd 9883 8c3a 202b 4cbd 332c 02be
00000270: 10cb 6dbb a545 c63c 6087 e23d de78 11be
00000280: 3931 0dbe 1dd8 5abd b6c9 5b3d 73f8 b5bd
00000290: 6b0d 953d 4f51 abbd 9405 0bbe 8e87 683d
000002a0: dda7 b2bc d1a2 e8bc dbb7 ae3d 5766 1f3d
000002b0: d4ff e63d f055 883d fc84 d1bd 9e0c 323d
000002c0: 2ab3 303d 0db2 bbbd eb32 ea3d 5ecc dabd
000002d0: ae99 19be bbfc 873c 0be9 e1bd d95c bf3d
000002e0: f64d d7bc 7d4b af3c 47bd 22be fdca 323d
000002f0: 363a 1fbe 2960 f6bd b6b8 34bd 358d dbbd
00000300: dba1 ae3d 40ef 01be 8abc f7bb 5234 08be
00000310: fa79 473d d963 88bd 8c8d 28be 1d20 d1bd
00000320: 895d b5bd 16b7 ffbd 8bc2 cabc a4a6 e4bc
00000330: b148 27bd b925 2bbe c2e4 26be 6d98 a43d
00000340: 8a2d d8bd 20e2 a43d 0b58 263d f532 0dbe
00000350: 02ad fdbc 8508 7f3c 9612 463d 8aa0 c4bd
00000360: c4ba 8b3c c142 96bd 71d4 a7bd d9c1 52bd
00000370: e9de babd ede6 7f3d 3498 43be d1fd 77bd
00000380: e96c 86bd b5e5 29bd 95a8 0abe adee cfbd
00000390: fccf e93c 7f4f 35be af7b f1bd 10ab f9bc
000003a0: 0ffd 12bd 55a1 2a3d 19ab 43be 645d bd3c
000003b0: 7c0e 04be 6c1e 353d 32d9 87bd 7abe 4cbd
000003c0: ae3f 653b 2cbd 08be f290 c0bd b597 efbd
000003d0: 83b7 47bc 6bbe a2bd d8aa b73c 82fb 50be
000003e0: b68d b13c 3ffc 043d 7de5 883d 1595 063d
000003f0: 60bf e0bd 054f 62bd c11d 03be 1780 b23d

lstm.weight_hh_l0 f4 [192, 48]
0.101435386 0.05150109 0.020639932 0.10777513 -0.07229892 0.09956053 -0.034541007 -0.12020674
0.078610756 0.00989992 -0.08089159 0.06719308 -0.02620614 -0.059290722 -0.110414505 -0.12536347
0.1314556 0.051806744 -0.15603583 0.022839805 0.096048005 0.10467796 -0.07288106 0.1261346
-0.003025006 -0.10082619 -0.0889661 0.0927655 -0.008072944 -0.017826084 0.03432268 -0.040939465
-0.12480289 0.074356936 0.025596691 -0.010096702 -0.00355924 0.022185279 0.09825528 0.03841702
0.028596042 -0.04777413 -0.031192528 -0.06710142 -0.09123795 -0.07005482 0.06100044 -0.10304819
0.006498446 0.097092725 -0.058906343 0.08395938 -0.035816424 -0.02429483 0.06525812 -0.00072624424
-0.059782352 -0.043071434 -0.106973946 -0.024555234 -0.007893942 0.18210362 -0.17624861 -0.027543392
0.0042431597 -0.08162904 -0.114995584 -0.20386273 0.066583544 -0.09357333 0.046037883 0.02213593
-0.068452634 -0.18971764 0.034167208 -0.12703738 0.05875315 -0.10886206 -0.020082051 0.062767014
-0.1899976 -0.11968615 -0.17639574 0.08303678 0.060907766 0.12781869 0.12106472 -0.04381498
0.048322335 0.05187266 0.029464824 0.04102843 0.013571658 -0.09413448 -0.050575677 -0.03278701
-0.10723417 0.07735105 0.13563181 -0.02645532 0.13898823 0.008819565 -0.10279708 -0.037365273
-0.07126579 -0.15177512 -0.12734576 0.08824798 -0.08031452 0.12993081 0.11904081 0.09442991
0.1005064 0.05994341 -0.0035009186 -0.05802758 0.14807193 -0.07015598 -0.035387367 0.08304123
-0.089677095 0.014034392 -0.062312473 0.11221298 0.05012885 0.081758894 0.01693823 0.09396336
-0.014090339 -0.120861925 0.04412551 0.068244696 -0.07886675 0.0563146 -0.057257097 0.10949248
-0.107487164 0.030548668 -0.08707514 -0.058475055 -0.124056436 0.013440385 0.030641092 0.06811124
0.056788895 0.014691471 0.018307077 0.054952692 -0.040578153 0.089522354 0.08545383 -0.0950464
-0.03566438 -0.029809333 0.010144372 -0.056151602 -0.013570735 0.09608775 -0.010318625 0.16309735
0.10661392 -0.006301901 -0.062350675 -0.10435858 -0.01894155 0.085896045 -0.052541744 0.02930953
0.01129034 0.033945102 -0.062544905 -0.10132488 0.019547071 -0.18526095 0.015641348 -0.08186139
-0.09282013 -0.0070299488 -0.1178865 -0.018787628 -0.13244906 -0.001643633 -0.031795956 -0.095777966
0.09262216 -0.08986533 0.06718238 -0.08526655 -0.014724686 -0.093980335 0.028025432 -0.08116477
0.11353483 0.1778204 0.11201138 0.071288325 0.08308942 -0.03731128 -0.050572447 0.14939715
0.036614686 -0.10866942 -0.120054975 0.010005484 0.110464275 -0.0718717 0.040632725 -0.038110577
-0.086104356 0.025620723 -0.11018319 -0.101948485 0.13445315 -0.063619256 0.06465921 -0.13705961
-0.056899346 0.11314498 0.07023119 0.036687743 -0.05241644 -0.13833058 -0.007682812 -0.04590711
0.08249239 -0.021873992 0.049425285 0.08017284 0.07126578 0.012629879 0.059566505 0.08158436
0.006309971 -0.04683083 -0.05202559 0.086211964 0.11979197 0.02780424 0.101643346 -0.11791745
-0.015088124 0.016424986 0.16276206 -0.047829445 -0.064726226 -0.11214538 -0.08236446 0.023161396
-0.06514431 -0.011447682 -0.13736662 -0.07390325 -0.0077626472 0.042597074 0.063794404 -0.03950227
00000000: 5bbd cf3d cff2 523d 1315 a93c 35b9 dc3d
00000010: 7511 94bd 64e6 cb3d df7a 0dbd f42e f6bd
00000020: adfe a03d 4633 223c 7daa a5bd 879c 893d
00000030: 42ae d6bc d4da 72bd 0021 e2bd 485f 00be
00000040: 4c9c 063e 4f33 543d dbc7 1fbe 8b1a bb3c
00000050: d1b4 c43d 6661 d63d aa42 95bd 6e29 013e
00000060: 2e3f 46bb f67d cebd dc33 b6bd d7fb bd3d
00000070: 6244 04bc 0208 92bc f095 0c3d 24b0 27bd
00000080: a898 ffbd 7348 983d 27b0 d13c a36c 25bc
00000090: 2342 69bb e7bd b53c 103a c93d 2a5b 1d3d
000000a0: 3f42 ea3c ceae 43bd 7987 ffbc 786c 89bd
000000b0: f6da babd e778 8fbd 99db 793d ee0a d3bd
000000c0: ebf0 d43b 8dd8 c63d c747 71bd e5f2 ab3d
000000d0: 3eb4 12bd f405 c7bc 0da6 853d 6d61 3eba
000000e0: 57de 74bd ac6b 30bd 2815 dbbd 0f28 c9bc
000000f0: 9855 01bc 5f79 3a3e 847a 34be aea2 e1bc
00000100: 340a 8b3b 202d a7bd ce82 ebbd 64c1 50be
00000110: f45c 883d 60a3 bfbd 3892 3c3d 6956 b53c
00000120: e530 8cbd 5745 42be eaf2 0b3d 1616 02be
00000130: 25a7 703d 12f3 debd 1d83 a4bc fe8b 803d
00000140: bb8e 42be 031e f5bd 16a1 34be 300f aa3d
00000150: 6c7a 793d e7e2 023e c8f0 f73d 5677 33bd
00000160: a4ed 453d 6d78 543d 3760 f13c 6d0d 283d
00000170: a95b 5e3c 94c9 c0bd 7128 4fbd ac4b 06bd
00000180: 979d dbbd 3a6a 9e3d 11e3 0a3e d4b8 d8bc
00000190: ee52 0e3e f07f 103c 4787 d2bd 540c 19bd
000001a0: ccf3 91bd f06a 1bbe ed66 02be 5bbb b43d
000001b0: f07b a4bd 950c 053e abcb f33d 7864 c13d
000001c0: 4dd6 cd3d 3987 753d ab6f 65bb 54ae 6dbd
000001d0: 2ba0 173e f0ad 8fbd 58f2 10bd 8511 aa3d
000001e0: a0a8 b7bd 82f0 653c 5d3b 7fbd ebcf e53d
000001f0: e953 4d3d 3571 a73d 0bc2 8a3c dd6f c03d
00000200: 2adb 66bc 7586 f7bd f3bc 343d e0c3 8b3d
00000210: e484 a1bd 23aa 663d 6b86 6abd 983d e03d
00000220: 3b22 dcbd 3341 fa3c 7354 b2bd 8a83 6fbd
00000230: 4d11 febd 1035 5c3c 0703 fb3c e87d 8b3d
00000240: 799b 683d 7fb4 703c b9f8 953c 1316 613d
00000250: 4735 26bd 7f57 b73d 6b02 af3d b0a7 c2bd
00000260: d014 12bd b432 f4bc 9434 263c 39ff 65bd
00000270: ca57 5ebc a7c9 c43d 730f 29bc fe02 273e
00000280: 6658 da3d 2d80 cebb 6c63 7fbd f4b9 d5bd
00000290: 4f2b 9bbc 44ea af3d 0336 57bd 8a1a f03c
000002a0: 1efb 383c 050a 0b3d 8b17 80bd 6b83 cfbd
000002b0: 2e21 a03c 0cb5 3dbe 4922 803c f2a6 a7bd
000002c0: 7b18 bebd 7c5b e6bb 7a6e f1bd 83e8 99bc
000002d0: baa0 07be 2c6f d7ba 7a3c 02bd 3d27 c4bd
000002e0: b0b0 bd3d 500b b8bd ea96 893d 3ba0 aebd
000002f0: cf3f 71bc c378 c0bd 9795 e53c b739 a6bd
00000300: f384 e83d 8d16 363e 3966 e53d 9dff 913d
00000310: c92a aa3d b6d3 18bd 0e25 4fbd 91fb 183e
00000320: 48f9 153d 138e debd 62df f5bd 0bee 233c
00000330: 183b e23d 7831 93bd 806e 263d d619 1cbd
00000340: 7b57 b0bd 8de2 d13c b9a7 e1bd 5eca d0bd
00000350: 16ae 093e d04a 82bd 0c6c 843d 5b59 0cbe
00000360: 4a0f 69bd 8eb8 e73d 5fd5 8f3d e345 163d
00000370: 9fb2 56bd 88a6 0dbe 19c0 fbbb 1809 3cbd
00000380: c5f1 a83d 1631 b3bc 2b72 4a3d a831 a43d
00000390: cbf3 913d 8ded 4e3c 02fc 733d b315 a73d
000003a0: e0c3 ce3b afd1 3fbd c918 55bd e68f b03d
000003b0: 7e55 f53d b8c5 e33c 632a d03d b47e f1bd
000003c0: 2e34 77bc b18d 863c 19ab 263e cfe8 43bd
000003d0: 2f8f 84bd 7aac e5bd b3ae a8bd f8bc bd3c
000003e0: 616a 85bd 0f8f 3bbc d6a9 0cbe 965a 97bd
000003f0: ce5d febb 457a 2e3d a4a6 823d 22cd 21bd

lstm.bias_ih_l0 f4 [192]
-0.0014605928 0.074257344 -0.017547747 -0.08830051 -0.06396787 0.0748402 0.040968873 0.037178453
-0.112678885 0.015287414 -0.08565098 0.059450217 0.024967052 -0.14410943 0.078335136 0.10829606
-0.11337333 0.103252426 0.121321864 -0.031605754 0.03532704 0.026387801 0.061848797 0.07648559
0.11774817 0.10393449 0.06164992 -0.090465985 -0.15110373 -0.017254792 0.013593423 0.00071651733
0.05708291 -0.05319796 0.06762126 -0.0934596 0.09586675 0.10433105 -0.01852651 -0.09282562
-0.06982282 -0.15684374 -0.16208096 -0.09770874 -0.07668388 -0.00023191671 -0.05211481 0.026706615
0.102593146 -0.11267691 0.07670176 0.08459849 -0.118423976 0.11551573 -0.08207712 -0.04962951
-0.0058885785 -0.08796775 -0.08244129 0.04698439 -0.123540066 -0.06295796 -0.026270034 -0.05158721
-0.028691065 0.056491483 -0.07891685 -0.12548913 -0.0030681128 0.06444216 0.04723642 0.08496402
-0.070895456 0.056730192 0.03506641 0.015843298 0.09549732 -0.09127026 -0.14136268 0.07236022
-0.1297773 -0.13381785 -0.044585545 -0.06781848 0.10382952 -0.03924078 0.035921462 -0.019346138
-0.08778875 -0.056710884 -0.043449115 0.1018391 -0.06901617 0.010268429 -0.11264211 0.07399869
-0.07172214 0.10502363 0.015785791 -0.010470684 -0.02172094 0.051911138 -0.05042716 -0.046520617
-0.1384225 -0.09650525 -0.09705584 0.08517604 0.06396902 0.031077366 -0.06655491 -0.099944696
-0.1304254 -0.0387077 -0.07330498 0.0697101 -0.006273014 0.042388804 -0.038031876 -0.09232434
0.10807012 0.15097126 0.09559414 0.09091094 0.12543893 0.03817588 0.045553103 -0.1378767
-0.018811066 0.12571548 -0.06524999 -0.07112357 0.07179619 -0.0063302075 -0.05314966 -0.019486247
0.089591525 0.0449221 0.010174442 -0.09851935 0.0017127497 -0.11583971 -0.06972542 0.064492635
-0.12474473 -0.028929153 -0.030349232 -0.053645786 -0.06904117 0.051627398 0.033174966 -0.12927645
-0.12883456 -0.1345175 -0.06080776 0.08573934 0.042637523 0.061149716 0.031178297 0.051012427
0.09861554 -0.045799922 0.03251608 0.05289169 -0.013177329 0.11304681 0.08305692 -0.17356284
-0.0014018435 0.049058408 -0.087740555 0.08672508 0.12555993 -0.13088615 0.016534528 -0.09974267
0.016039915 0.09008687 -0.04365984 -0.124268346 -0.03227063 0.017796682 0.113266945 -0.10856255
0.07399656 0.027129928 -0.16049147 0.02482202 -0.06866168 0.023045598 0.079355545 -0.010826671
00000000: 5d71 bfba 3c14 983d 4bc0 8fbc e6d6 b4bd
00000010: 9601 83bd d245 993d face 273d 6f48 183d
00000020: 30c4 e6bd 1078 7a3c c869 afbd 1282 733d
00000030: b487 cc3c 6c91 13be 2c6e a03d 53ca dd3d
00000040: 4730 e8bd 0276 d33d 9977 f83d 0975 01bd
00000050: 16b3 103d 3b2b d83c 2a55 7d3d 7aa4 9c3d
00000060: f425 f13d 9bdb d43d a084 7c3d 3b46 b9bd
00000070: f0ba 1abe ec59 8dbc f3b6 5e3c aad4 3b3a
00000080: c5cf 693d 1be6 59bd 047d 8a3d bf67 bfbd
00000090: c955 c43d 84ab d53d e8c4 97bc 5c1b bebd
000000a0: 44ff 8ebd a59b 20be 8df8 25be 851b c8bd
000000b0: 700c 9dbd ab2e 73b9 5776 55bd d5c7 da3c
000000c0: 5b1c d23d 27c3 e6bd d015 9d3d f941 ad3d
000000d0: 4588 f2bd 8393 ec3d 0d18 a8bd 5048 4bbd
000000e0: faf4 c0bb 7028 b4bd fbd6 a8bd b472 403d
000000f0: 9302 fdbd 1af0 80bd 4134 d7bc 1c4d 53bd
00000100: 8609 ebbc 9d63 673d 289f a1bd 3980 00be
00000110: 6412 49bb 40fa 833d fa7a 413d 9e01 ae3d
00000120: a331 91bd eb5d 683d cca1 0f3d cec9 813c
00000130: 1994 c33d e7eb babd 61c1 10be 9831 943d
00000140: 57e4 04be 8c07 09be 559f 36bd 6ae4 8abd
00000150: 92a4 d43d f1ba 20bd 6222 133d cb7b 9ebc
00000160: 97ca b3bd ac49 68bd b3f7 31bd 0591 d03d
00000170: 5a58 8dbd ea3c 283c e8b0 e6bd a08c 973d
00000180: 0fe3 92bd a116 d73d 3451 813c 3b8d 2bbc
00000190: 1df0 b1bc c6a0 543d b68c 4ebd 678c 3ebd
000001a0: a1be 0dbe 8ba4 c5bd 36c5 c6bd c770 ae3d
000001b0: 3102 833d f695 fe3c f14d 88bd ceaf ccbd
000001c0: 3c8e 05be f78b 1ebd ec20 96bd 2bc4 8e3d
000001d0: db8d cdbb e29f 2d3d 50c7 1bbd 8b14 bdbd
000001e0: de53 dd3d 3698 1a3e dcc6 c33d 842f ba3d
000001f0: 1073 003e 505e 1c3d e495 3a3d 8d2f 0dbe
00000200: aa19 9abc 8fbb 003e c9a1 85bd 3ca9 91bd
00000210: e209 933d a16d cfbb 75b3 59bd 9fa1 9fbc
00000220: c37b b73d 3c00 383d b4b2 263c 83c4 c9bd
00000230: 587e e03a 5f3d edbd 33cc 8ebd b714 843d
00000240: 2a7a ffbd d5fc ecbc f49e f8bc afbb 5bbd
00000250: 7565 8dbd 4077 533d 79e2 073d 0c61 04be
00000260: 35ed 03be f5be 09be 8f11 79bd 1b98 af3d
00000270: afa4 2e3d 2078 7a3d a169 ff3c 68f2 503d
00000280: f2f6 c93d b398 3bbd 952f 053d f5a4 583d
00000290: b9e5 57bc 1685 e73d bf19 aa3d 75ba 31be
000002a0: 10be b7ba 78f1 483d 52b1 b3bd eb9c b13d
000002b0: c892 003e 0507 06be 6b73 873c e345 ccbd
000002c0: 2466 833c 777f b83d a9d4 32bd 6780 febd
000002d0: 352e 04bd 59ca 913c 80f8 e73d 0b56 debd
000002e0: 828b 973d 953f de3c e057 24be 8d57 cb3c
000002f0: 7f9e 8cbd 1fca bc3c 2985 a23d 5962 31bc

lstm.bias_hh_l0 f4 [192]
0.038230248 -0.16412534 0.0080155805 0.020547267 0.050531227 0.09555342 -0.059530333 0.11315945
0.024591764 0.10473787 -0.15900652 -0.09256567 0.072612755 -0.0924358 -0.101693824 -0.07666515
0.11206115 0.01033673 -0.023469286 0.119093716 -0.18583462 -0.1460185 -0.039072532 0.028418485
-0.10469468 0.12252083 -0.024119876 -0.06706381 -0.030972777 0.13072133 -0.1432476 -0.0015194422
-0.13930018 -0.022720482 0.044363007 0.054826465 0.051338177 0.053400382 0.022957522 0.04543219
0.07343738 0.037597083 0.043556035 -0.049002334 0.08109365 0.047795795 -0.11669452 -0.17269722
-0.02271063 0.0651829 -0.117347 0.055977006 0.05532822 0.11089126 0.0041020913 -0.06574027
0.054950785 -0.06140274 -0.014355251 -0.1461619 -0.10718665 -0.07532021 -0.033913735 -0.09147448
-0.060827263 -0.15690929 -0.06009914 0.13558689 -0.16425991 0.05162679 -0.03412893 0.048039366
0.05704764 -0.012196448 0.022006167 -0.0409555 -0.01703564 -0.078087986 -0.05845794 -0.15375532
-0.020850863 -0.028261898 0.101876065 0.038481448 -0.08746575 0.010285406 -0.10012278 -0.16471118
-0.077836074 0.07836797 -0.13250747 0.09797412 0.050431777 -0.11949489 -0.17398393 -0.106439434
-0.124288805 -0.0450061 0.006764781 -0.060779106 -0.08845495 0.119857736 0.04160444 -0.07334228
0.06856751 -0.061353046 0.03031054 -0.11973047 -0.12869027 0.13289876 0.03389894 -0.027145492
-0.12978661 0.011016223 0.006766866 -0.0031588525 0.06684612 0.07307765 -0.10583371 0.12881611
0.009632127 0.09149427 -0.093799025 0.06913644 0.11200641 -0.08329214 0.06468153 -0.058489516
0.10790543 0.08387526 -0.111818366 -0.0084379045 0.015727572 -0.13461143 -0.07404293 -0.042881165
0.13905023 -0.052551165 -0.060648613 -0.07803378 -0.10069669 -0.12602888 -0.03463517 -0.0319781
-0.1405979 -0.113776445 -0.022137668 -0.09748201 0.09510648 0.07003469 -0.029940745 -0.028501716
0.025114568 -0.15482508 -0.1055523 0.013445452 -0.027226401 0.040491782 -0.14584064 -0.1547764
-0.1497733 0.09345804 -0.057696085 0.11951423 0.029745746 0.053093623 0.09069287 -0.08166259
-0.08054853 0.1159387 0.061036397 -0.11154342 0.09224097 -0.0113430675 -0.013720156 0.11505694
-0.14291917 0.049752418 -0.03713532 -0.12114916 -0.17450465 -0.0022494693 0.05441164 -0.0370262
0.006245136 0.010884103 -0.0030895101 -0.10763744 0.010095251 -0.03447952 -0.1345004 0.08678653
00000000: 5297 1c3d 7910 28be c853 033c be52 a83c
00000010: d5f9 4e3d 83b1 c33d 14d6 73bd 24c0 e73d
00000020: ab74 c93c cf80 d63d 9bd2 22be 1293 bdbd
00000030: ffb5 943d fb4e bdbd da44 d0bd 9e02 9dbd
00000040: 5180 e53d 635b 293c a942 c0bc 68e7 f33d
00000050: 6e4b 3ebe e085 15be 850a 20bd e2cd e83c
00000060: 2a6a d6bd 33ec fa3d 0c97 c5bc c058 89bd
00000070: 9fba fdbc d0db 053e 80af 12be 0528 c7ba
00000080: b5a4 0ebe 4e20 babc fcb5 353d b791 603d
00000090: fb47 523d 5cba 5a3d 6a11 bc3c 1b17 3a3d
000000a0: 5666 963d 66ff 193d d067 323d acb6 48bd
000000b0: 6d14 a63d 86c5 433d 89fd eebd 8ad7 30be
000000c0: a50b babc 9d7e 853d a053 f0bd 2548 653d
000000d0: d89f 623d f51a e33d d66a 863b d6a2 86bd
000000e0: 1314 613d 7181 7bbd 4932 6bbc 77ab 15be
000000f0: ad84 dbbd 7b41 9abd 21e9 0abd f956 bbbd
00000100: 0226 79bd d4ac 20be 842a 76bd 4ad7 0a3e
00000110: c033 28be 9d76 533d c7ca 0bbd edc4 443d
00000120: c9aa 693d 9cd3 47bc 4746 b43c f4c0 27bd
00000130: 548e 8bbc 98ec 9fbd 9871 6fbd 0972 1dbe
00000140: 6ecf aabc 7f85 e7bc 66a4 d03d b99e 1d3d
00000150: 3e21 b3bd 1f84 283c 2c0d cdbd 0caa 28be
00000160: 8568 9fbd 637f a03d 0ab0 07be a8a6 c83d
00000170: 8d91 4e3d bdb9 f4bd d828 32be ebfc d9bd
00000180: 218b febd 5158 38bd 19ab dd3b 83f3 78bd
00000190: de27 b5bd f977 f53d 6b69 2a3d 7a34 96bd
000001a0: 1f6d 8c3d 554d 7bbd cf4d f83c 4035 f5bd
000001b0: 62c7 03be 9d16 083e 9dd9 0a3d 3960 debc
000001c0: c8e6 04be 637d 343c 96bc dd3b c004 4fbb
000001d0: 9ee6 883d bca9 953d 58bf d8bd 5fe8 033e
000001e0: 12d0 1d3c 5961 bb3d b419 c0bd 6897 8d3d
000001f0: 9e63 e53d 1295 aabd c077 843d b492 6fbd
00000200: 86fd dc3d cbc6 ab3d 0701 e5bd 233f 0abc
00000210: 1cd7 803c 94d7 09be d2a3 97bd 29a4 2fbd
00000220: 2f63 0e3e e43f 57bd ae6a 78bd 2dd0 9fbd
00000230: 113a cebd b70d 01be 9cdd 0dbd 78fb 02bd
00000240: e5f8 0fbe a003 e9bd 0e5a b5bc a6a4 c7bd
00000250: 30c7 c23d 596e 8f3d 4b46 f5bc 6e7c e9bc
00000260: 11bd cd3c 778a 1ebe ce2b d8bd 504a 5c3c
00000270: e709 dfbc b6da 253d 4057 15be b47d 1ebe
00000280: 2c5e 19be ee66 bf3d bb52 6cbd e0c3 f43d
00000290: 5aad f33c b378 593d 2fbd b93d b73e a7bd
000002a0: a1f6 a4bd 4571 ed3d 4d01 7a3d e070 e4bd
000002b0: d5e8 bc3d 46d8 39bc 81ca 60bc f9a2 eb3d
000002c0: 6759 12be 31c9 4b3d 351b 18bd 0d1d f8bd
000002d0: 59b1 32be d56b 13bb bdde 5e3d c9a8 17bd
000002e0: ffa3 cc3b 3d53 323c 6179 4abb 0571 dcbd
000002f0: 8d66 253c 663a 0dbd 79ba 09be 23bd b13d

fc.weight f4 [1, 48]
-0.058675617 0.0688925 0.0604151 -0.01572199 0.036132194 0.034155704 -0.001986595 0.017790686
0.04824107 -0.04956989 -0.09865671 0.023953665 0.1224233 -0.05088305 0.08898378 0.11329718
0.036459148 0.019099379 0.063893564 0.13005061 0.051330324 0.08813002 0.03592481 -0.004580893
-0.066568054 0.077635854 -0.060298108 0.03530895 -0.077801205 -0.017505355 -0.039149564 -0.09420419
-0.029299708 -0.03388801 -0.0014295531 -0.009148994 -0.09148961 0.052835375 -0.105013795 0.019239005
-0.06250971 0.10063603 0.0198707 -0.023310645 -0.022257665 -0.07864231 -0.00038759474 -0.072488576
00000000: d855 70bd 8317 8d3d d375 773d 67cb 80bc
00000010: 5aff 133d dae6 0b3d 8931 02bb c6bd 913c
00000020: 6e98 453d cc09 4bbd 870c cabd 7a3a c43c
00000030: 11b9 fa3d bf6a 50bd 213d b63d 5a08 e83d
00000040: 3056 153d 4d76 9c3c a1da 823d fd2b 053e
00000050: bf3f 523d 837d b43d e525 133d 511b 96bb
00000060: d554 88bd 8cff 9e3d 26fb 76bd 1ea0 103d
00000070: 3d56 9fbd 6467 8fbc 4b5b 20bd 20ee c0bd
00000080: f105 f0bc 27ce 0abd d85f bbba aae5 15bc
00000090: e85e bbbd e869 583d 7911 d7bd 1e9b 9d3c
000000a0: 1705 80bd 431a ce3d e1c7 a23c f7f5 bebc
000000b0: b555 b6bc 380f a1bd 1636 cbb9 e474 94bd
