ckpt_selfplay/critic1.pth (torch, 353532 bytes, 11 tensors)

cnn_layers.cnnblock_0.conv.weight f4 [8, 1, 3, 3]
00000000: 6325 56be d879 1abe 1e8e f23c 7234 23be
00000010: a0e6 613e 07d7 8a3e afa2 c63c a940 383e
00000020: 6b30 f1bd 24f8 99bb d1e8 6e3d c140 debc
00000030: 00ae 9f3d a5f8 8ebd 3406 68be 3211 d1bd
00000040: 0be4 9e3d f54b 3abe d14c 8fbd 5369 dbbd
00000050: bb1e 6f3e 0c4a 9a3e 0c8f 88be 72a7 3bbe
00000060: 2d02 773d 213f a9be 7a7d 24bd 1e7e 17be
00000070: 64c6 a0be 84ba c3bd c382 983d e57f 95be
00000080: 7128 873e 3356 13be e5ad 313e ae3a 2fbd
00000090: b38a 0f3e 0609 8e3e 9e46 843d dc45 53bd
000000a0: fe00 d5bd e255 3dbe c9e7 a73d 8a9e 59be
000000b0: 7309 9c3e c016 a43d 59e3 053d ac9a a03d
000000c0: 6382 823e ad9b 1c3d 2f9d 1d3e d571 13be
000000d0: 0669 29be 3de8 0dbd fde3 093e eee5 4c3e
000000e0: ef18 29be 739b 553d 05e8 2e3e de5f 97bd
000000f0: 9b88 97be f4a7 8abd 686e 63be f773 debd
00000100: 8ef6 493d 1b76 9e3e bde9 3abe 0ae6 fd3c
00000110: c48a 3ebe 5f32 9abe 9005 7a3e 20df d4bb
-0.209127 -0.15085542 0.029608782 -0.15937975 0.22060633 0.27117178 0.024247495 0.17993416
-0.11776813 -0.00469877 0.0583275 -0.027130486 0.0779686 -0.06981019 -0.22658616 -0.10208358
0.077583395 -0.18193038 -0.069970734 -0.107134484 0.23351566 0.30134618 -0.26671636 -0.18325594
0.06030481 -0.33055976 -0.040158726 -0.14794204 -0.3140136 -0.095570594 0.07446816 -0.29199138
0.26398042 -0.14388351 0.17351492 -0.04278057 0.14017753 0.2774126 0.06458782 -0.051580295
-0.1040058 -0.18489793 0.081985064 -0.21251884 0.3047596 0.08012152 0.03268752 0.07842001
0.25490102 0.0382344 0.15391992 -0.14398892 -0.1654397 -0.034645308 0.13465877 0.20009586
-0.16513418 0.0521502 0.17080696 -0.07391332 -0.2959641 -0.06770316 -0.22210085 -0.10861962
0.0493074 0.30949482 -0.18253227 0.03099348 -0.18607622 -0.30116555 0.24416184 -0.006496325

cnn_layers.cnnblock_0.conv.bias f4 [8]
00000000: d6a5 8abe 76c5 8b3e 007a 6ebd f826 013e
00000010: afda 90bd 267a 8dbd e425 39be 77d3 443e
-0.27079648 0.27299088 -0.058221817 0.12612522 -0.070729606 -0.069080636 -0.1808086 0.19221292

cnn_layers.cnnblock_1.conv.weight f4 [32, 8, 3, 3]
00000000: 0001 f6bd 2c1b a23d a48a a83d 70e7 fdbd
00000010: 887f 5c3c eab2 acbd 49f6 523d 13d7 ad3b
00000020: dd0a 66bd 817e 21bd 40de d43d 5fe3 9fbd
00000030: f075 64bd d3c9 9e3d 006d 9c3d 560e b03d
00000040: d95b 2d3d ec08 ec3c a207 65bd 1b8c 02be
00000050: d6ee b8bc b878 b0bd f665 d5bd 3bba 673b
00000060: b16c af3d 6c88 b63c 3de5 9d3d df1d 3ebc
00000070: 9b73 91bd a8dd 7cbd 389e c3bd e822 fabd
00000080: b30b a43d 64db 94bc 66e2 cfbd a0d1 abbc
00000090: 7007 493d 384d 98bc 0a29 9c3d 72b4 90bd
000000a0: 2b58 04bd a819 d3bd 0b92 41bd eb37 a83d
000000b0: 41dc 78bd 8632 823c c508 f8bd 8567 85bd
000000c0: 73ac b73d 1735 b13d 722c 74bd b541 03be
000000d0: 50e4 4e3c 365d 9b3d 48af 2abd 4a32 d0bd
000000e0: e3f7 c4bd e1b5 9f3a 6b6e 4ebc 4714 9bbd
000000f0: ba9b 5cbd a804 0ebd 39f8 303b 7195 9f3d
00000100: bffd 323d ecbf 843c 256a 163d 9fa7 42bd
00000110: 445a d6bd eb43 f8bd 6fe3 6bbd 7d3b 703c
00000120: 841e 83bd 79d9 843c 856a 69bd ee04 803d
00000130: 0fea d5bd b15f 083c c3ab c93d dc05 efbc
00000140: 4fb8 9dbc d6a5 873d 14a8 7f3c 56b7 f8bd
00000150: 317f 1b3d 1786 d03d 5f65 2e3d 3f00 e53c
00000160: 4394 47bd 77f9 dfbd ce60 d7bb acd4 1c3c
00000170: fb6a 42bd fc59 eabd 8ab4 f1bc 0a2e 093d
00000180: 2211 46bd 83e8 3e3d 9214 08be b073 a7bc
00000190: 0e5e 41bd c7a8 d3bd 1ec6 09bc 56b3 953d
000001a0: 1542 1a3c 09d7 03be 3abb 14be 90d6 09bd
000001b0: a2eb 283d 2749 de3d 63eb a0bd c06a d5bc
000001c0: 655f babd ce75 1b3c 3ad4 bbbc 615c a63d
000001d0: 1c5e a2bd 8cc7 ebbd 06ef 963c dfef a2bd
000001e0: 7bc0 1fbd 7b38 33bd bd93 d53c 5035 953d
000001f0: a80a 0cbe 9bca fcbd b825 a7bc 4bff 3a3d
00000200: ee3d b8bc 2b09 7d3d 99cb 98bd 3da5 fe3c
00000210: ee11 af3d 0561 2ebd 9dc8 f9bd 3605 ab3b
00000220: 8b45 f4bd 61b0 d7bd 2028 f4bc cc94 8cbd
00000230: 264f 6c3d 9579 2f3d a6ca 1e3d cae5 243d
00000240: 6414 bfbc 976a c93d 5d1e c23d 8f55 463c
00000250: 0f07 673d 7bb7 903d 732f eabd 2155 ccbc
00000260: 1ecf 923d 4e1f d5bd bc36 cf3d e5dc e8bd
00000270: 03af debd 0801 97bc dfda 02be beeb 0abd
00000280: f93c 1dbc 5fbc 86bd 649a 91bd e9f6 13bd
00000290: b886 f8bd 6a41 7abd e557 c53d d5f1 793d
000002a0: c618 00bc d875 a53c 54d3 fabd 292b e63c
000002b0: 2dc8 8abd 1c81 cc3d 8053 eebb 2074 9bbd
000002c0: 6e9f 94bb 51a8 1b3d 4626 b4bd 9ae9 f6bd
000002d0: 1a2d 42bd 9553 943b 8276 98bd de23 c53c
000002e0: f8a0 1ebd 32e0 66bd a55e 68bc f31d a1bd
000002f0: 1c62 233d c8d4 143b d720 b23c 0265 ac3d
00000300: 2cff 143d 17b4 7bbd a0a8 39bd 2d83 d33d
00000310: 2ae2 c6bd 6703 aabc 2a93 363c d365 c1bd
00000320: 9025 9ebc 4dda ffbd d4e6 ce3d 9d33 913d
00000330: 59b8 7d3d df71 7e3c 2d5a 31bd 08f2 e13d
00000340: 8d0a 70bd 7953 b43d aa33 59bc a8d4 133d
00000350: b5d6 02be 74b7 f5bd 1eb4 d73d f27e f4bc
00000360: f804 27bd fec0 2b3d dd03 bdbc d73b b43c
00000370: b002 b53d c833 cdbd 4669 483d a0e9 66bd
00000380: 661b afbc 40c8 7bbd 4a57 853b c77e 9f3d
00000390: 9ea0 7abc ecce 9d3c ea99 3d3c 44a6 c7bd
000003a0: 3f00 d4bc 17bc 40bc 1d7f a9bd 10e7 b5bd
000003b0: 7bc6 2d3d 4a6d c93d 0276 95bd 8b05 eb3b
000003c0: 5239 c93d 814a fd3c 6404 773d b02a beb9
000003d0: a19c 6c3c 50c0 373a fd3a 27bd 2bc7 e13d
000003e0: 1af6 423d 45e8 cabd 6157 e8bc 4987 803d
000003f0: cf72 4cbd 2bc9 a13d 13cc ba3d c76b d83b
-0.120119095 0.07915339 0.082295686 -0.12397659 0.01345814 -0.08432563 0.051504407 0.00530518
-0.056162704 -0.039427284 0.10393953 -0.078070395 -0.055776536 0.07753339 0.076379776 0.08596484
0.04232392 0.028812848 -0.055915482 -0.12748758 -0.022574823 -0.08616775 -0.10419838 0.0035358805
0.08565653 0.022281848 0.07709739 -0.0116038015 -0.07102128 -0.061734825 -0.09551662 -0.12213689
0.08010044 -0.01817102 -0.10150604 -0.02097398 0.04907936 -0.018591508 0.07625015 -0.07065667
-0.032310646 -0.10307628 -0.047258418 0.082137905 -0.060756925 0.015893232 -0.12111048 -0.065138854
0.08968439 0.08652704 -0.0596127 -0.12818034 0.012627676 0.07586138 -0.041671067 -0.10165842
-0.09617593 0.0012184941 -0.012599568 -0.07572227 -0.05385945 -0.03467241 0.002700342 0.077921756
0.043699022 0.016204797 0.03672232 -0.047523137 -0.104664356 -0.12122329 -0.057589944 0.014662621
-0.06402305 0.01621698 -0.05698635 0.0625094 -0.10445034 0.008323596 0.09847214 -0.029177599
-0.019252924 0.066234276 0.015604038 -0.121443436 0.037963096 0.101818256 0.042577144 0.027954219
-0.048725378 -0.109362535 -0.0065728193 0.009572189 -0.047465306 -0.114429444 -0.029505033 0.033491172
-0.048356183 0.04660846 -0.13289097 -0.020440906 -0.04720884 -0.10334926 -0.008409051 0.07309596
0.009415169 -0.12874998 -0.14524546 -0.03365189 0.041240342 0.108537965 -0.078573965 -0.026051879
-0.09100226 0.009488536 -0.022928346 0.08123089 -0.07928106 -0.1151267 0.018424522 -0.07955908
-0.039001923 -0.043755036 0.026071424 0.07285559 -0.1367594 -0.123433314 -0.020403728 0.045653623
-0.022490468 0.06177632 -0.07460708 0.031084651 0.08548342 -0.042572994 -0.12196467 0.005219127
-0.11927327 -0.105316885 -0.02980429 -0.06864318 0.05769267 0.04284056 0.03876748 0.040258206
-0.023325153 0.098347835 0.094784476 0.01210536 0.056403216 0.07066246 -0.114348315 -0.024942936
0.07168411 -0.104063615 0.10117862 -0.11370257 -0.108732246 -0.018433109 -0.12778805 -0.033916228
-0.009597057 -0.06578898 -0.07109526 -0.036124144 -0.121350706 -0.06109754 0.09635905 0.061021645
-0.007818406 0.020197794 -0.12247339 0.028096752 -0.06776462 0.09985563 -0.0072731376 -0.075905085
-0.004535607 0.038002316 -0.087963626 -0.12056275 -0.047406293 0.0045265653 -0.074444786 0.024064954
-0.03872773 -0.056366153 -0.014182721 -0.078670405 0.039888486 0.0022709835 0.021744175 0.08417703
0.036376163 -0.061451044 -0.04532683 0.10327754 -0.09711106 -0.020753575 0.011143485 -0.094432496
-0.01930502 -0.124928094 0.10102621 0.070899226 0.061943386 0.015530079 -0.04329889 0.11032492
-0.058603812 0.08804984 -0.013256947 0.036091477 -0.12777217 -0.119978815 0.105324015 -0.029845688
-0.040776223 0.0419321 -0.023073131 0.02200119 0.08838403 -0.10019642 0.04892852 -0.056375146
-0.02137537 -0.06147027 0.0040692436 0.07787853 -0.015297083 0.019263707 0.0115723405 -0.097485095
-0.025879024 -0.011763594 -0.08276198 -0.08881962 0.042425614 0.09835298 -0.07297899 0.0071722916
0.09825386 0.030919315 0.06030692 -0.0003627143 0.01444164 0.0007009553 -0.04082774 0.110243164
0.047597982 -0.09907583 -0.028361978 0.062758036 -0.049914178 0.07899698 0.09120955 0.006604645

cnn_layers.cnnblock_1.conv.bias f4 [32]
00000000: 8b38 673c 8fa7 c13c 15cd c9bd 4a3a b73d
00000010: f85c a33c 7f11 513a 0a5f 9d3d d94e 34bc
00000020: 4d36 a0bc 8663 f53c 9345 fabd 0e28 773d
00000030: 6644 3a3d adfe 02be e357 13bc ae60 ae3d
00000040: 7825 e3bd 02ca 4bbc 6a74 8e3c af76 00bc
00000050: 1ed1 3d3d ec62 1a3d ab60 7cbd bc32 afbc
00000060: 6e25 843c 2aaf 003e 50b1 0cbe 1c3a ecbd
00000070: 2c5d 723b 7c6c 92bc 07c0 833d 1475 923d
0.014112602 0.023639468 -0.098535694 0.08946665 0.019941792 0.00079753244 0.07684143 -0.011005127
-0.019557143 0.029954683 -0.122203015 0.060340934 0.045475386 -0.12792464 -0.008993122 0.08514534
-0.11091131 -0.012438299 0.017389495 -0.007840796 0.046342008 0.037691996 -0.061615627 -0.021386497
0.01613113 0.1256682 -0.13739514 -0.11534521 0.0036981804 -0.017873995 0.06433111 0.07151237

cnn_layers.cnnblock_2.conv.weight f4 [48, 32, 5, 5]
00000000: e641 10bd 2c38 06bd c447 8cbc bd87 89bb
00000010: 3b1c d5bc 8553 24bd d8ed c1bc c93e 5fbd
00000020: cf6d f5bc 3de8 e6bc 5993 843c 3495 69bd
00000030: cf40 0bbd 988c b03c 6ff6 3d3c 293d 89bc
00000040: afeb 1b3c a94b 6c3b 567b 94bc 9340 1abc
00000050: 0f45 92bc 0692 75bb 4e19 75bc 7893 15bd
00000060: d0f3 3939 05cf 12bd bdcf 293c 1642 42bc
00000070: fbeb 683b 002d b7bc af2d a3bc 6974 82bd
00000080: 5414 dabc 984c 583b 059f 9e3c 3c67 82bc
00000090: 3c22 413c bcfa 31bb c30a 92bb 2812 fdbc
000000a0: ffb5 17bd 1211 ad3c 26e9 3cbb 2d18 c338
000000b0: 6606 963c a8d2 843c cb7f a8bc 563f bd3c
000000c0: 3bc7 54bc 65bb 113c f4b0 cc3b 9f7e c3bc
000000d0: edbf 4aba 9565 e23c 2fd8 e3bc 7a96 29bd
000000e0: 8189 89bc 7c5f 1c3c be0a 0ebd 3898 b7bb
000000f0: 2179 9cb7 851a 31bb 48de be3b dd30 dcbc
00000100: 3a7f 33bd e9c1 f63b e405 c9ba 6207 6ebd
00000110: ad32 18bd f801 11bc d53f 9e3c 4165 073c
00000120: 0f95 27bd bd06 91bc b9aa 1bbd f98d adbc
00000130: 0899 033c c9f4 fd3b 5486 513c ba45 34bd
00000140: 94fa 30bd d8f6 85bc d8e1 7abc 08f7 313b
00000150: 08c5 febc 7cd9 0cbd 7dae a23b bda2 13bb
00000160: 6a6d 16bc fcc2 13bc 53ac 293c 1365 343a
00000170: 091b 2e3b 54e3 c9bc 8b52 583c d0fc c93b
00000180: 45bd a93c bc43 16bc af23 ec3b 2413 913c
00000190: a06c 02bd 017b 8fbc b425 55bd 6d58 c0bb
000001a0: 4124 9ebc 3691 4f3c 48f9 13bd 2ec3 feba
000001b0: 1a08 4d3c 2978 143c 8ff8 bbbc 38d9 90bb
000001c0: accb c43c 1f58 b4bc 5875 d4bc 5eb9 88bb
000001d0: f8fd d33c 4208 693c 18df 0dbc 4ff0 a3bb
000001e0: 85b8 63bc dbbf 12bd f14f 1bbd 6646 e2bc
000001f0: f1a7 813c 33db 5d3c 822d ab3c ead7 42bd
00000200: abd0 2dbd 075d c8bc bec9 b23c d9da 80bc
00000210: 930c 04bd fe6c df3c c00e ab3b bf0e 64bc
00000220: 3b91 9e3c 4674 debc 82d0 bdbc 103c ad3b
00000230: 0e4d 013d 18dc 70bd 200b e23c f92d 10bd
00000240: 1729 5dbc e5d2 dcbb 98f8 06bb 6343 a8bc
00000250: fc74 f8bc 45f3 953c 44a5 3a3c 8703 12bc
00000260: 82de a73c 9145 f6bc ad10 ebbc 2c47 fabc
00000270: 7957 06bd 7db3 2e3b e7a5 173b 7f4b a33c
00000280: 7b21 833c cd0b b1bb 8b26 e0bc fded 983c
00000290: 6481 8ebc 6ad4 a43c 3b03 403c fc74 13bd
000002a0: 7b81 8abb 8aa3 f7bc 86df e6ba 65cd 35bd
000002b0: aaa4 cebc 5124 5bbd fcd7 923c 7fef e43c
000002c0: 54c9 4cbd 54a3 33bd 2e45 8fbc ad94 5e3c
000002d0: 0ca7 903c d877 62bd 617b aebc 5108 0abd
000002e0: acf4 5a3c 7fff cdbc bbd1 71bc 9cd0 05bd
000002f0: 96c1 f4bc b648 d63b daef 34bd e591 81bc
00000300: df4c 00bd b7b1 58bc 5d60 5c3c a8f8 82bb
00000310: a21b 84bb 8916 813c 9448 1ebd bc42 a9bc
00000320: 840b 06bc ba01 ce3b 77df 99bc be3d 7bbc
00000330: 7b61 14bb 8c0e f8bc 808c 33bd 5fb5 0dbd
00000340: c2a2 05bc 5feb 0abd 1112 cfbc 12ec 51bc
00000350: 11f7 4e3c cd1d 8839 d222 55bc c5ce 9b3c
00000360: 1157 f5bc 4aef 0dbd 3397 003c 6ce0 f43b
00000370: 9077 c1bc 1c08 bfbc d30f acbb 7d07 ef3b
00000380: a663 743b 723a cc3c 5981 4ebb ade9 1f3c
00000390: 33bc 823c 0839 00bb a52f 02bd da01 dabc
000003a0: dee8 4dbc 766f 21bd 96c7 54bc 4cd8 163c
000003b0: ad2c 003c e711 883c 249e adbc 5b61 07bb
000003c0: 95c4 c4bc 42bf 0cbd 6330 e8bc 22af 4ebc
000003d0: 0189 adbc d31c 21bd 33a5 67ba 2c75 33bd
000003e0: 4845 c3bc 676c a03c 0519 2fbc 1c62 363c
000003f0: c77e 913c 159c f33b ec37 2bbd eda2 bd3c
-0.035219096 -0.032768413 -0.017124064 -0.0041970895 -0.026014438 -0.040118713 -0.023672983 -0.054503236
-0.029959587 -0.028186912 0.016183542 -0.057027057 -0.033997353 0.021551415 0.011594399 -0.016752796
0.009516641 0.003605584 -0.018125217 -0.00941481 -0.017855195 -0.003747107 -0.014959646 -0.03651759
0.00017733802 -0.03584196 0.01036447 -0.011856576 0.0035541046 -0.022360325 -0.019919245 -0.0636986
-0.026621021 0.0033004638 0.019362936 -0.015918367 0.011787947 -0.0027157506 -0.0044568493 -0.030892447
-0.0370388 0.021126304 -0.002882549 9.302828e-05 0.018313598 0.01621373 -0.020568749 0.02310149
-0.012986953 0.008894776 0.0062466804 -0.023864089 -0.00077342876 0.027636329 -0.027813045 -0.04140327
-0.0167892 0.00954425 -0.034678213 -0.0056028627 -1.8653054e-05 -0.0027023864 0.005824838 -0.026878769
-0.043822505 0.00753044 -0.0015336839 -0.05811251 -0.037157703 -0.008850567 0.019317547 0.008263887
-0.040913638 -0.017703408 -0.03800461 -0.021185862 0.008032091 0.007750128 0.012788374 -0.04401181
-0.04320772 -0.016353056 -0.015312634 0.0027155299 -0.031099811 -0.034387097 0.0049646483 -0.002252742
-0.00918136 -0.009018656 0.010356027 0.00068815163 0.0026566407 -0.024644531 0.0132032735 0.006164171
0.020720134 -0.009171423 0.0072064023 0.017709322 -0.031841874 -0.017514708 -0.05203791 -0.005869916
-0.019304397 0.012668898 -0.036126405 -0.001943683 0.012514139 0.009061852 -0.02294567 -0.0044204257
0.0240229 -0.022014676 -0.02593486 -0.004172488 0.025877938 0.01422316 -0.008659147 -0.0050030123
-0.013898973 -0.0358275 -0.037918035 -0.02762146 0.015827151 0.013541031 0.020895723 -0.047569193
-0.04243533 -0.024458421 0.021824714 -0.015729355 -0.032238554 0.027273651 0.005220264 -0.013919531
0.01935636 -0.027155053 -0.023170713 0.005286701 0.031567626 -0.058803648 0.027593195 -0.035200093
-0.013498566 -0.006739008 -0.002059495 -0.020539945 -0.03032922 0.018304477 0.011391941 -0.008911974
0.020491842 -0.030062469 -0.028694475 -0.030551516 -0.032798264 0.0026657276 0.0023139657 0.01993346
0.016007176 -0.005403018 -0.027362129 0.01866817 -0.017395683 0.020120818 0.01171952 -0.036000237
-0.004226861 -0.030229349 -0.0017614223 -0.044385333 -0.025225002 -0.05350143 0.017925255 0.027946232
-0.04999669 -0.043856934 -0.017489042 0.013585252 0.01765778 -0.055290073 -0.021299066 -0.033699337
0.013363998 -0.025146244 -0.014759476 -0.03266965 -0.029877465 0.0065394295 -0.044174053 -0.015816638
-0.03132331 -0.013225964 0.013450709 -0.0039969273 -0.0040316144 0.015757816 -0.038643435 -0.020661704
-0.0081814565 0.006286827 -0.018783314 -0.015334545 -0.002264111 -0.030280374 -0.043835163 -0.034596797
-0.00815648 -0.033915874 -0.02527717 -0.012812631 0.012632147 0.00025962145 -0.01300879 0.019019494
-0.029948743 -0.034652032 0.007848549 0.0074730422 -0.023616582 -0.023319297 -0.00525091 0.007294594
0.003729084 0.024930213 -0.0031510203 0.0097603025 0.015958881 -0.0019565243 -0.03178372 -0.026612211
-0.012567727 -0.039412938 -0.012987038 0.009206843 0.007823152 0.016610099 -0.021193571 -0.0020657394
-0.024019519 -0.034362085 -0.028343385 -0.012614997 -0.021183493 -0.03933413 -0.0008836567 -0.043812916
-0.023836747 0.01958294 -0.010687117 0.01113179 0.017760647 0.007434378 -0.041801378 0.023148978

cnn_layers.cnnblock_2.conv.bias f4 [48]
00000000: 86ac 07bc 1464 83bc d34f 9a3a fb28 393d
00000010: ea7f 2bbd c0bf 113c 5478 22bc b8d1 bc3c
00000020: 79ea 14bb 34e5 b8bc c179 2c3a 0d3a 033d
00000030: 8882 87bb fe92 2cbd a805 32bd 60ba fc3c
00000040: 509b c5bc 995c ddbc 7158 313a 226f 953b
00000050: c485 d0bc 74a9 a43c 50d0 903b 41c8 0cbd
00000060: 5a07 39bc 7392 083d eee0 ee3b 0f00 e7ba
00000070: 3c6f 583c d04e 5bbc 5870 313c 10b4 0fbd
00000080: 482f 87bd 7da9 a1bc 8d12 ddbc fc69 1cbc
00000090: 22f0 463c 52f5 c7bb 58a1 ba3b 8527 de3c
000000a0: 148f 77bc 3ac8 fe3c 3d4f 40bd 848f f2bc
000000b0: 6f25 29bd 9595 5c3c 585c 583c 6a24 d0bb
-0.008280879 -0.016038932 0.0011773057 0.045205098 -0.041870035 0.008895814 -0.009916384 0.02304922
-0.0022722764 -0.02257023 0.0006579422 0.032037783 -0.0041354336 -0.04213237 -0.043462425 0.03085059
-0.02412191 -0.027021693 0.0006765193 0.004560367 -0.02545441 0.020100333 0.004419364 -0.034370665
-0.011293257 0.03334279 0.0072899973 -0.0017623919 0.013210114 -0.01338549 0.0108300075 -0.03508383
-0.06600815 -0.019734139 -0.026986385 -0.009546753 0.012142213 -0.0061022425 0.005695503 0.027118454
-0.015109796 0.031101335 -0.046950568 -0.02960945 -0.041295465 0.0134633975 0.01320561 -0.006351997

lstm.weight_ih_l0 f4 [192, 192]
00000000: c154 d3bc 5fd4 f93d 63a7 27bd 3450 9c3d
00000010: 0371 d83d 4c98 73bc 6e96 08bd 0728 2cbd
00000020: 0a56 d63d 9913 803b 7921 303c 01e6 ebbd
00000030: 389c e73d 0d72 ab3d be88 aa3d e5a1 c93d
00000040: 503b b2ba c963 f03d 3e22 63bd 5dc4 00be
00000050: 0567 0dbd 0c8c ae3d feb4 183d 4486 9fbd
00000060: 52ac 1a3d e374 a33d e6d7 323c e58f 35bd
00000070: 57f2 a43c eb35 87bc ab1f 4a3d dc29 ffbc
00000080: 3102 e13d 8a74 b33d c4ba 133d f420 14be
00000090: 07f3 513d b5e7 f3bd 6a3e c2bd b4c0 07be
000000a0: 2de6 203c 055a f03d 5289 94bd c275 c43d
000000b0: 71ba 6abc af3f a5bd 8ccf a7bd 9d90 05be
000000c0: 80f4 fdbc 0512 83bc 4732 893d e0df cfbb
000000d0: 488b 713d 92a0 993c 59ff 01be 070d 85bd
000000e0: 7197 173d 806d 75bc 4411 ad3d 24fd d3ba
000000f0: a1d2 803d a630 e2bd 98eb be3d 0c20 8f3d
00000100: 16d9 393d 9924 48bd 9d17 ec3d 4976 b43c
00000110: 4b71 ab3c 2c72 253d ad27 0c3e 2da6 97bc
00000120: 17df 98bd 433b e63c d809 67bc 6821 e13c
00000130: f14f b3bd e583 cf3d 496e 03be 88b6 eabd
00000140: 647f 07be d5be 75bc 3fcf 7b3d 9588 ee3c
00000150: bd2b 9bbd 3838 a43d 9718 11be 41e6 10be
00000160: eb55 0abe 9509 03bd 67c8 503d 2a97 813d
00000170: b2a0 e9bd 7818 133d 6f5e 3c3c 7c6f 02be
00000180: 9dff 593d 38ba f1bc 5b8f f5bc ad4f 54bd
00000190: 5116 f03c 487d be3d 3369 06be 0663 05be
000001a0: d923 b33c 4438 2b3d 9702 9e3d cec3 ebbd
000001b0: 2b94 2cbc a152 8cbd 1bbf 823c 0834 0ebe
000001c0: 623e 043e a199 523d d0d0 b03d 6e86 07be
000001d0: b826 8f3d 4ef4 193d 33c5 a53c e014 8abc
000001e0: 99ae cb3d d030 f2bd cf7f a1bd efef c7bd
000001f0: c96b e2bd a4e1 18be 2f46 10be 6184 05be
00000200: 8078 75bd 11a1 e7bd bc66 013d 7adb 0dbc
00000210: 3a6c 0dbe 3933 94bc c68b 07be 571f 4ebd
00000220: f4c2 e33d 0cef abbd 8c4b 96bd ff5e f9bd
00000230: b394 943d f178 dabd 3da3 0cbd b82b 0b3e
00000240: 2c92 ca3d 03ad c3bd e140 13be 6dbb a9bd
00000250: d980 70bd 4693 d83d 1fa0 ee3a f309 233d
00000260: 08c4 3f3d ed5c 6f3c 780a ffbb 17c8 a53d
00000270: 3634 18be d68a c23d ce5d 623d cc37 fa3c
00000280: fa62 9b3c 3708 65bd f1d7 00be fd79 4ebb
00000290: 4f2d a1bd 6433 903d cf24 c9bd df3e 17be
000002a0: e2e6 a8bd de33 863d 8392 763d 1058 a33d
000002b0: 129a 1b3d 5b7b e4bd b6c7 673d 6cf3 513c
000002c0: 1164 b43d 65cf 82bc 79c9 303d 75de b9bc
000002d0: 1cee 853d 2fb0 eb3d 8ba6 ee3d e54f d7bd
000002e0: 5dc7 df3d 3ec3 72bd 68ff 1d3d 6b0a 33bd
000002f0: 4518 cbbd 1dd8 1ebe 4ed6 c7bc c5c9 f0bd
00000300: b76e 0e3e 5456 303d a563 ddbd 2879 183d
00000310: fc4e 3a3d 35ef dd3d 0017 0cbe 7825 d0bd
00000320: 688a a93d 1abe ef3d 2ce7 ff3c 4c5e e7bc
00000330: ae47 883d c450 bc3d 10f3 00be 6b67 f9bd
00000340: b1b7 71bd 850c 2fbd e2ee bd3c eda5 783d
00000350: 5fb9 fabd 445a 08bd de11 90bd dd36 053e
00000360: da2a 5abd ef5e 11be 4d5d b3bd 399b 49bd
00000370: d3ae 78bd 1ec1 343d 49b9 c6bd 3ee6 ae3d
00000380: c842 b63d b5a1 13be e131 b2bd 109e 303d
00000390: 2f55 64bc 78cd c8bd eb20 033e 1322 da3d
000003a0: fa01 82bd 9b9c 05bd 1dae eabd cecc 63bd
000003b0: bc3b bf3d 2b87 a7bb fc2b 673c 5b6c 6b3d
000003c0: 854c 03be cf3d fb3d 4673 063d 0b63 373d
000003d0: 654a 9fbd c3fc a93d 2fd6 23bc 0ee4 07bd
000003e0: e657 953c 3084 ca3c 63e5 ce3d f9c3 82bc
000003f0: 0161 783c 0fcd f83b 6f02 b8bd 8b7c 27bc
-0.02579725 0.1219871 -0.040931117 0.07632485 0.1056843 -0.014867853 -0.033346586 -0.04203036
0.104656294 0.003908586 0.010750168 -0.11518479 0.11309093 0.08371363 0.08326863 0.09845332
-0.0013597999 0.117377825 -0.055452578 -0.12574907 -0.034522075 0.085228056 0.037281983 -0.07789281
0.037761994 0.07981279 0.010915732 -0.04432668 0.020135088 -0.016505202 0.049346607 -0.03114789
0.10986746 0.087624624 0.036066785 -0.14465696 0.05125716 -0.11909429 -0.09484561 -0.13257104
0.009820503 0.1173592 -0.07252754 0.09592773 -0.014326678 -0.08068787 -0.08193883 -0.13043447
-0.031000376 -0.015999803 0.06699043 -0.0063438267 0.05897072 0.018753324 -0.12695064 -0.064966254
0.03700966 -0.01497972 0.08450559 -0.0016173464 0.06290174 -0.11044435 0.0932228 0.06988534
0.045373045 -0.048863027 0.115279414 0.022029059 0.020928046 0.040392086 0.1368701 -0.018511856
-0.07464426 0.02810443 -0.014101468 0.02748175 -0.08755482 0.10132579 -0.12835039 -0.11460596
-0.1323219 -0.014999111 0.061476942 0.029117862 -0.07576702 0.080185354 -0.14169537 -0.14150335
-0.13509338 -0.03199156 0.05097237 0.063276604 -0.11407603 0.035912007 0.011497124 -0.1273784
0.053222287 -0.029507741 -0.029975584 -0.051833797 0.029307516 0.09301239 -0.13126068 -0.13026056
0.02186768 0.041801706 0.07715338 -0.11511956 -0.010533373 -0.06851698 0.015960267 -0.13887036
0.12914422 0.051416043 0.08633578 -0.13234875 0.06989807 0.037586503 0.020235633 -0.016855657
0.09945411 -0.118257165 -0.07885706 -0.097625606 -0.11055715 -0.14929825 -0.14089273 -0.1303878
-0.05992937 -0.11310018 0.031592116 -0.008658284 -0.13810816 -0.018090831 -0.13236913 -0.050322857
0.11121169 -0.08395204 -0.07338628 -0.12176322 0.072549246 -0.10667599 -0.034335364 0.13590896
0.09891161 -0.09554484 -0.14380218 -0.08287702 -0.05871663 0.10574965 0.0018205679 0.03980441
0.04681781 0.014609558 -0.0077832304 0.08094805 -0.14863667 0.09499137 0.05526524 0.030544184
0.018968094 -0.055916037 -0.12582375 -0.0031505816 -0.0786997 0.07041052 -0.09821474 -0.14770077
-0.082471624 0.06552862 0.06019832 0.07975781 0.03798873 -0.11156341 0.056586944 0.012814384
0.08808149 -0.015968034 0.04316089 -0.022689084 0.065395564 0.11508214 0.11652859 -0.105132855
0.109266974 -0.05926823 0.038573653 -0.043711107 -0.099167384 -0.15512128 -0.02439418 -0.117572345
0.13909422 0.04305108 -0.10810021 0.03722492 0.04548548 0.10836641 -0.13680649 -0.101633966
0.08278352 0.11706181 0.031238161 -0.028243206 0.06654297 0.09195092 -0.12592721 -0.121779285
-0.059013072 -0.04273655 0.023185197 0.060705114 -0.12242388 -0.03328921 -0.07034658 0.1300921
-0.053263523 -0.1419637 -0.0875803 -0.049220297 -0.0607136 0.044129483 -0.09703309 0.08540009
0.08899456 -0.14417155 -0.0870092 0.04311949 -0.013936325 -0.09804815 0.12805526 0.106510304
-0.06348033 -0.032620054 -0.11458991 -0.05561524 0.09337565 -0.005112549 0.014109608 0.057476383
-0.12822159 0.122676484 0.032824777 0.04477219 -0.077778615 0.083001636 -0.009999796 -0.033176474
0.01823039 0.024721235 0.10102346 -0.015962588 0.015159846 0.0075928043 -0.08984839 -0.010222564

lstm.weight_hh_l0 f4 [192, 48]
00000000: 72e6 06be 2d76 f7bc b722 663d 0f46 b9bd
00000010: e215 f13d fee2 da3d 2339 a13d 047d dc3d
00000020: 27c3 c93d 3a10 be3d bf6f c83d 758d 6c3d
00000030: 6090 073d 36bd a2bb b43c 4c3d 1833 f6bd
00000040: 8877 cfbc d1c8 09be beb9 37bd e738 cd3d
00000050: 1d2c f2bd 9138 343d f655 e23d 1d98 52bd
00000060: 4af8 bc3b 8801 0bbc 176c 96bd ffc0 8abd
00000070: b8e3 97bc 969b 583d 752a 8d3d 7c1f 14bc
00000080: 5ab4 dc3d 0111 413d c833 0cbe 7828 4cbb
00000090: be93 203e 4670 f9bd c399 723c 1fac 60bd
000000a0: 0afc a53d db14 013d 5781 b9bc 1daa e8bd
000000b0: 6b9f 04be b920 f2bd 203c d0bd 93f8 1bbe
000000c0: a5c4 28bc 713b 823d 89cc c83d 3c44 0e3e
000000d0: bbcc 3a3d 8b8a 04be 3502 febd 0f97 46bd
000000e0: 11e2 02be c94f 103e 9b81 89bc 953a a73d
000000f0: 0881 953c 1824 06be ba83 d03d 49d9 fc3d
00000100: 58cb 763d 3e53 b8bd 4bc4 1d3d 76c2 b83d
00000110: fe03 77bd 3b98 c33d bfe3 dc3d 964d 4a3d
00000120: a121 c6bd e7fa 18bc 030f 083e b6f8 13be
00000130: a8b2 96bd bc85 5e3b 3de3 243d 3e18 863d
00000140: 94f0 2a3d c622 0a3e 8cf2 cdbd fc15 b33c
00000150: a472 32bd 8dfa 07be 37d5 953c f388 e93d
00000160: cfe7 a4bd eebe 83bd 6709 fb3b 3488 07be
00000170: 1d4c f93d 48fe 0dbe 8161 afbd 3ee9 8f3d
00000180: 8dff 003e ac2a cf3d eb2e 803d 3f6b 94bd
00000190: 0299 653c ea01 bebd 4d93 02be d539 f5bd
000001a0: 82e6 113d 6d02 f33d 0159 91bd 296b a43d
000001b0: b8cb d33a 6980 27bc 2786 0b3e b2d8 d83c
000001c0: 8fad 563d 5c02 843d 9750 f4bd c99d d6bd
000001d0: 5e40 e5bd b3b8 f1bd a151 c93d 749b a6bd
000001e0: c22a 103e 313c 023e 6543 893d c9d8 c8bd
000001f0: a003 03be 4047 d13d 101f dfbd 4f95 3f3d
00000200: 3a81 173c db33 0c3e 999d d73d dfcf 933d
00000210: ea3f bfbd 52b9 583d 2984 9a3d 199d e73c
00000220: 3378 1cbd 241e e0bc 9449 fb39 ba66 283d
00000230: 8977 123e 6197 b0bc 635f 263d b7b7 813d
00000240: 0b11 f13d 3f59 a2bd b9b2 033e c0fd d6bd
00000250: a6cc 2abd da9c 993d 8a7c 02be 66eb aabd
00000260: 7410 e4bd c3b2 a73c 7dcd ae3c 1b57 8d3a
00000270: 7efe c73d ed1e 6b3d a8a8 1ebd 97c2 9e3d
00000280: c65c 73bd 97ae 8d3d c238 b93b 9a8d 7c3c
00000290: 9404 593d 08ed 36bd 967d 963d e63c afbd
000002a0: a17e df3d 5e27 1ebd db3b 053e 5ec1 0f3e
000002b0: 5a1d 65bd 5d06 163e ac61 e9bc 4628 a43d
000002c0: b0cb 79bd d748 34bc 49a4 02bd 182b 75bd
000002d0: c306 9ebc 5a73 da3d 1297 cdbd 5f10 36bc
000002e0: c09f 73bb 19b7 6dbd 30f7 ccbc 1578 bdbd
000002f0: 29f8 95bd e1b8 0dbe 1561 073e be63 0d3d
00000300: 52bc 1c3c 621a c7bd 0bcf d3bc bf37 cfbd
00000310: d89a 513d c984 bd3c fc34 e93d f4b9 a03c
00000320: 9bea e63d 81bf 5bbd 66fb 05bd 7d12 753d
00000330: 9ae6 f13d 29d7 a1bd 63df 7fbc da99 bfbd
00000340: 4329 60bd 5955 4b3d 86fe e53c 37c0 eabd
00000350: 1b1b 05be 6966 45bd 258e cabd 8935 9abd
00000360: 1e1d f33d b02d ba3c 57f7 7b3d 2d34 9a3c
00000370: d683 4cbd 0c07 e23d 33b2 adbd 66ea d0bc
00000380: e46a 0c3d f8d0 4bbd a6f4 df3c 50ba d1bd
00000390: 70af 0c3e 7e5a 25bd b863 21bd d754 033d
000003a0: bda4 f33d 69bc 0abd a7b4 0a3e 3fa0 483d
000003b0: 373e fe3d 39f1 a33b b83c 043e dcc0 11be
000003c0: ad95 053e c4fa 8f3d 437b b0bd c5ad d63d
000003d0: 114e 4d3d 5df6 8dbd c8be aebd b620 b83c
000003e0: ab6f 04be 609b b6bc be90 eebd 97a8 40bd
000003f0: ad23 edbd b494 9ebb bd80 e33c 9e64 b73d
-0.13173845 -0.030207718 0.05618545 -0.09046566 0.11771752 0.106878266 0.07872226 0.10766032
0.098516755 0.09280439 0.09786939 0.05775209 0.03309667 -0.0049664034 0.04986258 -0.12021464
-0.025325552 -0.13455512 -0.044854872 0.10020619 -0.1182482 0.04399926 0.11051552 -0.051414598
0.005766903 -0.008484252 -0.07344835 -0.06775092 -0.018541202 0.052882753 0.06892864 -0.00904071
0.10776587 0.047135357 -0.13691628 -0.003115205 0.15681359 -0.121796176 0.014807167 -0.054851647
0.08104713 0.03151403 -0.022644682 -0.113605715 -0.12951438 -0.118226476 -0.10167718 -0.15231542
-0.01030079 0.06358994 0.09804637 0.13893217 0.045605402 -0.12943475 -0.12402765 -0.048483904
-0.1278155 0.14092936 -0.016785434 0.081654705 0.018250003 -0.13099706 0.10181375 0.12346131
0.060252517 -0.09000252 0.038517278 0.090214655 -0.06030654 0.0955052 0.107856266 0.049390398
-0.09674383 -0.0093371635 0.13286977 -0.14450344 -0.07358295 0.0033954224 0.040255774 0.065475926
0.04173334 0.13489828 -0.10056028 0.021861069 -0.04356636 -0.13279171 0.018290145 0.11403074
-0.080520265 -0.06432901 0.007661033 -0.13235551 0.121727206 -0.13866532 -0.08563519 0.07026909
0.12597485 0.10115561 0.06258949 -0.07247018 0.014013531 -0.09277709 -0.12751503 -0.11973921
0.03562022 0.11865697 -0.07097054 0.08028252 0.0016158735 -0.010223486 0.13625394 0.026470516
0.052411612 0.064457625 -0.11929434 -0.10479314 -0.11193918 -0.11802807 0.098300226 -0.08135119
0.14078811 0.12718274 0.067023076 -0.098069735 -0.12794352 0.10218668 -0.108945966 0.04677325
0.009247119 0.13691656 0.10528106 0.07217383 -0.093383625 0.05291111 0.07544739 0.028273152
-0.03820057 -0.027358122 0.0004792927 0.041113593 0.14303412 -0.021556558 0.04061831 0.06333869
0.11770829 -0.079271786 0.12861146 -0.10497618 -0.041699074 0.0750062 -0.1274282 -0.0834568
-0.11135951 0.020470982 0.021338219 0.0010783406 0.097653374 0.05740254 -0.038735062 0.07751959
-0.059414648 0.06918066 0.005652518 0.01541462 0.05298288 -0.044659644 0.07348172 -0.08556537
0.109128244 -0.038611762 0.13011114 0.14038607 -0.055936195 0.14650865 -0.028488956 0.08015494
-0.060985267 -0.0110036945 -0.031894956 -0.05985555 -0.019290334 0.10666533 -0.1003858 -0.011112302
-0.0037174076 -0.058035944 -0.025020212 -0.092514195 -0.073227234 -0.13840057 0.13220628 0.03451895
0.009566383 -0.09721829 -0.025855562 -0.101180546 0.05117306 0.023134606 0.11387059 0.01961992
0.11275216 -0.05364943 -0.032710455 0.059832085 0.11811562 -0.07902367 -0.015617224 -0.09355517
-0.05472685 0.04964194 0.028075468 -0.11462443 -0.12998621 -0.04819337 -0.09890393 -0.07529742
0.11870788 0.022726864 0.06151518 0.018823707 -0.049930416 0.110365 -0.084812544 -0.025502395
0.034281626 -0.049759835 0.027338337 -0.102406144 0.13738799 -0.040369503 -0.03940174 0.03206333
0.11896656 -0.03387109 0.13545476 0.048980948 0.1241421 0.005003121 0.12913787 -0.14233726
0.13045378 0.070302516 -0.0861726 0.10482363 0.050123278 -0.06931756 -0.085324824 0.022476535
-0.12933223 -0.022290885 -0.11648701 -0.04703578 -0.1157907 -0.004839504 0.027771348 0.08954738

lstm.bias_ih_l0 f4 [192]
00000000: 0815 f1bd 03b4 b4bd c20a bb3d 93c5 d83d
00000010: 8163 723c ed46 853d ca80 89bd 702d 5c3d
00000020: 223c 0a3e b55d c6ba 9a91 b8bd eb53 9dbc
00000030: 02f7 0a3e 0f5c f4bd 0dc1 00bd df9f fdbc
00000040: 26c7 d73d 6ba0 d13d ea3b 443d b234 7a3c
00000050: 6260 0cbe 6d38 03bd fe74 3fbd 6794 833d
00000060: c283 d4bc c223 cfbd 07b7 1fbe 75fd 733d
00000070: 99a5 703d f00a 8abd 294a fb3d 96e8 a53d
00000080: 0646 e2bd daa7 513c 2731 ebbc 8cf6 1ebe
00000090: 7d76 a63d 43b9 07bc b849 1abe c0f6 ddbd
000000a0: b951 31bc 15b1 0ebe 6d29 85bd 1dbf a63c
000000b0: 68cb 81bd f482 8f3d 542a 21bd 49ec e2bd
000000c0: 40e5 7ebd 7fbc 74bd 9d27 d6bd 6e2e a13c
000000d0: 6f14 c0bd 720e 193b 99b1 16bd 28af 253c
000000e0: 28a5 eebd fdde a8bd 4b40 05be 93e3 64bd
000000f0: 12e7 8fbd 0dbc ddbc cc8c b63d 3448 09be
00000100: af7d e83d c097 b03d e218 093e 331a f43d
00000110: f357 82bd f9d2 09be 4918 c53d 2543 12be
00000120: ee1e b43d 9923 f3bc bb3d 7bbd e671 5d3d
00000130: 7dce f9bd a3c8 8a3b f0e7 093e 0a39 74bc
00000140: 7062 2c3d 80dc d03d ac02 75bd 68b6 8b3d
00000150: 6556 13be 3e70 753d a6c6 fd3d 2832 8cbd
00000160: 6da0 f53d 7d87 2ebd b28c 0ab9 f55f 003e
00000170: d867 f63d 4b19 08be db04 a13c 5c77 b33d
00000180: 1b32 f63d 4d37 cbbd ee1e bd3d e31e 363d
00000190: 3697 12be ca65 a83d 4644 14bd 50da 0ebe
000001a0: 0b86 ac3d 21f2 053e d0b8 ce3d 5e3e 023e
000001b0: a4aa 3b3d 7acc 11bd 8bc1 ae3d 0e0a e5bd
000001c0: a160 e1bc 24bb 74bc d819 d5bd 61f8 a53d
000001d0: 36a0 e8bc 5bc3 063e 18b4 a23b 09b9 cebd
000001e0: 2339 0e3e 82e7 663d 84c0 c53d 0400 72bd
000001f0: a590 9aba c096 bb3c fef8 e23c b7aa af3d
00000200: b776 19bd 5664 3abc 790c fc3d 7add 113e
00000210: 49fe f83a 432f 0bbd dcb3 523d 74d7 b2bd
00000220: 7ba3 073d fb2b 7fbd f3d2 ff3c 82e9 143d
00000230: be70 713c cb75 f23d ca42 bdbd b350 24bc
00000240: 3f37 70bd 165e a53d d1e7 51bd 81f8 043e
00000250: 0346 113e e2e1 87bc f6e5 803d 102d c63d
00000260: 13e1 0f3e 2541 26bd ebf0 e8bc a79d 51bc
00000270: 4d6e e43c ce5f c73d e06c 0fbe 0a6f ae3b
00000280: de66 9dbc cbb0 68bd 4e12 01be a148 04be
00000290: ba10 023e 7994 ff3d 879c bfbd a654 acbd
000002a0: bee7 c2bc 3cbc ca3d daab 8f3d f0e7 8cbd
000002b0: 276a ae3d c275 013e 42f7 7ebc dcb0 87bd
000002c0: 7b60 9dbd e6b1 9dbd 7da0 4c3c f508 80bd
000002d0: c3db afbb 47ba ecbd 86e8 283c 3714 9fbd
000002e0: a90a 29bd 52d2 f83d 7bfa ee3d 5432 603b
000002f0: 24a7 efbd 4620 9d3c 722c a3bc 6c74 313d
-0.117715895 -0.08823397 0.09132911 0.10584559 0.014794231 0.06507669 -0.06714018 0.05375427
0.13499501 -0.0015134128 -0.09012146 -0.019205054 0.13570789 -0.11931621 -0.031434108 -0.030960022
0.105360314 0.102356754 0.0479087 0.015271353 -0.13708642 -0.032036234 -0.04674243 0.0642479
-0.025941733 -0.10114242 -0.15597163 0.059567887 0.058751676 -0.067403674 0.12270004 0.08101003
-0.11048512 0.012796367 -0.028709961 -0.15523738 0.081280686 -0.008283916 -0.15067184 -0.108380795
-0.010822707 -0.13934739 -0.06502042 0.020354802 -0.06337625 0.07007399 -0.039347008 -0.11080224
-0.06223035 -0.059750076 -0.104567744 0.01967546 -0.093788974 0.0023354557 -0.036790464 0.010112561
-0.11652595 -0.08245657 -0.13012807 -0.055881094 -0.07026495 -0.027067209 0.089135736 -0.1340645
0.11352097 0.08622694 0.13388398 0.119190596 -0.06364431 -0.13459386 0.09623773 -0.14283426
0.08794962 -0.02968006 -0.061338168 0.0540637 -0.12197588 0.0042353435 0.13467383 -0.014906177
0.042086065 0.10198307 -0.059817 0.068219006 -0.14388426 0.059921496 0.12391405 -0.06845504
0.119934894 -0.04260968 -0.00013213119 0.12536605 0.120315254 -0.13290899 0.019655636 0.08763
0.120212756 -0.09922657 0.09234415 0.04446305 -0.14315495 0.0822254 -0.036197923 -0.13950467
0.08424004 0.13080646 0.10093844 0.12719104 0.045817032 -0.035595395 0.08533009 -0.111835584
-0.027511897 -0.014937196 -0.1040532 0.08104015 -0.028396707 0.1316046 0.0049653165 -0.100938864
0.13888983 0.056373127 0.0965586 -0.059082046 -0.0011792375 0.022899032 0.02770662 0.08577483
-0.03746673 -0.011376461 0.123070665 0.14244643 0.0018996681 -0.03398062 0.05144106 -0.08732501
0.03311489 -0.062297802 0.031228518 0.036355503 0.0147363525 0.118388735 -0.09241255 -0.010029006
-0.058646437 0.08074586 -0.051246468 0.12985422 0.14186864 -0.016587202 0.062938616 0.09676564
0.14050703 -0.04058947 -0.028435191 -0.012793935 0.027884627 0.0973507 -0.14006376 0.0053232955
-0.01921409 -0.056809228 -0.12604639 -0.1291833 0.12701693 0.12479491 -0.09356027 -0.08414583
-0.023792144 0.09899184 0.070152 -0.06880176 0.08516341 0.12642577 -0.015561881 -0.0662553
-0.07684418 -0.07699947 0.012489435 -0.062517084 -0.005366774 -0.11558967 0.010309344 -0.077675276
-0.041269932 0.121494904 0.11668869 0.0034209685 -0.117018014 0.019180428 -0.019918654 0.04332392

lstm.bias_hh_l0 f4 [192]
00000000: 46ab 0dbe 6a9b 77bc 1896 af3d d1af 03be
00000010: 5a26 acbd b650 adba 6924 ecbd f6fe cdbd
00000020: 9005 cabd 7a3d 15bd 8633 ef3d def1 3ebc
00000030: 8cf8 f53d 69a1 26bc c8b1 013d 953c 32bd
00000040: 9877 5f3d dc25 cabd 6dc0 07be 82e8 0f3d
00000050: 3581 06be c8f0 acbb f8f8 f6bc 7158 053d
00000060: 083f f73c 91bb 00be b5ab 303c fc9d 3d3d
00000070: 5f95 febd 301c fd3d fc0d 8f3b 163c ccbc
00000080: 536d 49bd 0768 78bd 1f8d 0ebd 2184 ee3d
00000090: 7af6 46bd fe01 ddbd decd 853d b30f 86bd
000000a0: b4c0 163d 0f00 22be 3324 6d3d d4cf e93d
000000b0: 3de2 083d 2b06 e63d aa30 3b3d 97ec 58bd
000000c0: 7837 623d 00f6 3c3c b436 bbbd 3afa d23d
000000d0: 6e2c b5bd 89ad 91bd fcd0 8c3c 3de4 97bc
000000e0: ba8a bebc cfbb e53c d57e bf3c 67b8 233c
000000f0: 1895 7a3d 5696 df3c 6d27 08bd 6836 523d
00000100: 36f8 143e cbce 683d b67d 72bd fa67 1cbe
00000110: 3e27 d6bb 6d4a 8ebb 93af 703c 90df 8abd
00000120: 4071 c4bd 02db a33d f137 c63d 04b5 62bd
00000130: 3bb0 7bbd 2d69 4dbd b047 083d 11ec 5ebd
00000140: 2581 c9bb 6cbb 00be b506 923d db77 e5bd
00000150: e4d4 173d 0a49 623d 8fa1 863d 8ab3 8f3d
00000160: fe62 0d3e 4887 793d 9dfa c5bd 14ce c53c
00000170: 81aa 053e a983 023d 8872 a3bd 2aa0 7bbd
00000180: 1594 843d 938b 0c3e c9c5 f63d faea 393d
00000190: a3fb 0abe 76c3 0c3e f4a4 ee3a 07aa f03d
000001a0: 6a07 7f3d 60a6 01be 3ad4 8c3d ea45 ebbd
000001b0: 5c57 debd 2fa7 713d f106 c43d c8d3 f13d
000001c0: 5670 f3bd d071 d93d 96d5 da3c 2c90 ad3a
000001d0: 4e38 1b3e a976 e83c 023a d9bb 0938 df3d
000001e0: 6bfe fdbc a9f1 09ba d9fa 38bd 09e9 143e
000001f0: 44ba c43d 2955 99bd a66a d03c 169e 77bd
00000200: 51d5 6a3d 2dd1 c8bc b15c 733d b6ad 24bd
00000210: 1181 51bd 0396 24bd 70b6 973c 9426 f0bc
00000220: df09 cf3d c377 07be bad9 50bc ffec 9ebd
00000230: e581 cbbd 8033 dfbd dccf f0bc c069 5c3d
00000240: b0f5 ef3d 62aa cb3d a8ae ed3d 4bce 01bd
00000250: 450a d4bc 5419 843c cf64 ffbd e94b 31be
00000260: 17eb 82bd 9d27 6dbd 852f 743b 8e3c ebbd
00000270: 5bae ed3d 4ba0 87bd ba27 3abd 5c33 e5bd
00000280: dee8 cebb d372 993d dd2b 26be 5842 1dbe
00000290: 3378 b73d 3ab0 153e a6ac 9b3d 4dd8 d83d
000002a0: 1a67 723c 1dad c4bc 060e 93bd fc91 d6bd
000002b0: 4dca 7b3a ddd1 a4bd 5e89 d8bd ad02 bd3d
000002c0: 16f0 c1bd 1306 f3ba 46a5 9fbd d44d 88bd
000002d0: b963 673d cc77 fcbd 323e 17be bc15 c5bc
000002e0: 6af9 ee3d 5c03 aebd f8c5 0d3c 91cf 17be
000002f0: 017d a23d 7d4d cdbc cc63 9cbd 13c0 883d
-0.13834867 -0.015112737 0.0857355 -0.12860037 -0.084057525 -0.0013222906 -0.11530382 -0.100583956
-0.09864342 -0.03643558 0.11679749 -0.011654345 0.12010297 -0.010170319 0.031663686 -0.043514807
0.054557413 -0.09870502 -0.13256998 0.035133846 -0.13135226 -0.005277727 -0.030148014 0.032555047
0.030181423 -0.12571551 0.010783126 0.046293244 -0.12430834 0.12358892 0.0043656807 -0.024930995
-0.049176525 -0.060646083 -0.034802552 0.11646295 -0.048574902 -0.107913956 0.06533407 -0.06545963
0.03680487 -0.15820335 0.05789585 0.11416593 0.033418883 0.11231645 0.045700707 -0.052960005
0.05522868 0.01153326 -0.09141293 0.10301633 -0.08846365 -0.07113177 0.017189495 -0.01854145
-0.02325951 0.028043656 0.023375908 0.009992695 0.061177343 0.027293365 -0.033240724 0.051321417
0.1454781 0.05683784 -0.05920192 -0.15274039 -0.0065354398 -0.0043423683 0.014690298 -0.067809224
-0.09591913 0.08000757 0.09678639 -0.05534841 -0.061447363 -0.05014913 0.03327149 -0.05442435
-0.0061494284 -0.12571496 0.071301855 -0.11204501 0.037068263 0.055245437 0.065737836 0.07016666
0.13807294 0.06092003 -0.09666941 0.024146117 0.13053323 0.031863842 -0.079808295 -0.06143204
0.06473557 0.13725118 0.12049443 0.045390107 -0.13572554 0.13746437 0.0018207119 0.1175118
0.06226293 -0.12661123 0.068764165 -0.114879444 -0.10856506 0.05899733 0.095716365 0.11807972
-0.11886661 0.10617411 0.026713174 0.0013241819 0.15158197 0.028376894 -0.0066292295 0.1089936
-0.031005105 -0.00052621454 -0.045161102 0.14542021 0.0960584 -0.07486946 0.025441479 -0.060453497
0.05733234 -0.024513805 0.05941457 -0.040204726 -0.051148478 -0.040182125 0.01851961 -0.02931527
0.10109305 -0.13229279 -0.012747223 -0.07760047 -0.09936885 -0.10898495 -0.02939599 0.05381179
0.11716783 0.09944607 0.11605579 -0.031690877 -0.025883803 0.016125359 -0.124703996 -0.17314114
-0.06392496 -0.057899106 0.003725977 -0.11486159 0.11605521 -0.0662237 -0.045448042 -0.11191437
-0.006314381 0.07492604 -0.1622767 -0.1535734 0.08958473 0.14618006 0.076012895 0.10588131
0.014795089 -0.024008328 -0.07180409 -0.10477063 0.00096050353 -0.08047841 -0.10573076 0.09229026
-0.09469621 -0.0018541239 -0.07795195 -0.066554695 0.056491587 -0.12327537 -0.1476982 -0.024058215
0.11668666 -0.084967345 0.008653156 -0.14825274 0.07933999 -0.025061363 -0.07636222 0.0667726

fc.weight f4 [1, 48]
00000000: d839 983d f245 903d d612 14be 27da c8bd
00000010: 70ad 82bc f358 813c 4efe 173b 0d0e 5ebd
00000020: 7ee9 d0bd d2c3 85bd e4df 3c3c c249 51bc
00000030: 2bfa 0cbe f7d4 8c3d b412 323d e801 9ebd
00000040: 192b 6f3d b002 e83d 9d72 5ebd 8278 45bd
00000050: 062f d3bb 8e51 603d 37b1 0bbe 23cc 8dbd
00000060: d0bc 2bbd 88d8 543d 2f89 a63d 9e38 10bd
00000070: 219d 51bd 8a5c 87bd 8d17 913c b4ff dcbd
00000080: 90d2 1e3d b0b7 8bbd e27a 90bd d12e 623d
00000090: 4fef 8dbd 14b0 8d3d 78df a73d 33ba 05be
000000a0: 1934 5fbd b3fd 583c d705 c43c 0e1e 8ebd
000000b0: 8d8c 0d3e 885f 7abc e9bc ccbd fa1c 81bd
0.07432908 0.07044591 -0.1446031 -0.09807234 -0.015951842 0.015789485 0.002319235 -0.05421262
-0.10200785 -0.065314904 0.011527989 -0.012773933 -0.13767307 0.06876557 0.043474868 -0.07715207
0.05839071 0.113286376 -0.054308522 -0.04821063 -0.0064448146 0.054765277 -0.13641821 -0.069237016
-0.041928113 0.051964313 0.081316344 -0.035210244 -0.05117524 -0.06609447 0.017711425 -0.10790959
0.038775027 -0.06822145 -0.07054688 0.05522043 -0.0693041 0.0691835 0.0819692 -0.1305931
-0.054493044 0.01324408 0.023928566 -0.06939326 0.13823147 -0.0152815655 -0.09996969 -0.06304355
