classify-ckpt/model_epoch_4.pth (torch, 517696 bytes, 4 tensors)

fc1.weight f4 [80, 1600]
00000000: 5fb9 a03c 2ddf 5dbc 3da3 57bc 6ba0 b0bc
00000010: 4525 093b 8b81 aa3c d01c 593c da73 9bbc
00000020: e718 ffbb ed42 553c 3d6a 57bc 7091 9d3c
00000030: ac4a bbbb 5b4a bd3c da08 9a3c 0fe5 bdbc
00000040: afa5 99bc cbe9 a23c 6a54 873c 4d2f 7f3c
00000050: 954f 28bc 9f76 923c dff1 94bc 28bc b63c
00000060: 6ff6 7ebb f5f8 c63c a72c 83bc 758d 8abc
00000070: 0d94 24bc c560 9fbb c19d 8ebc e221 933c
00000080: 5df2 673c 6d5d 043c 527e c2bb 9a45 07ba
00000090: e0e6 373c 8d09 8a3c 9ab8 e43b 3738 00bc
000000a0: 903a cabc 0df6 c13b 474e 83bb 07c5 403c
000000b0: dc49 a2ba bb1f bfbc 4837 913c e795 603b
000000c0: 2aa5 b43c 9227 a7bc 0183 453c fade 623c
000000d0: 4281 b4bc 0575 b63c 8a14 e23c c08f 0dbb
000000e0: 63f9 98bc cd36 efb9 3eff c63b cfdf aa3c
000000f0: 5e2c ff3a b8be 9dbc ca92 9fbc a3e6 af3c
00000100: bd21 79bb a7e4 7dbc 138a 9a3b bbcc 873c
00000110: 3387 1139 6445 8f3c 37b0 aa3c 8089 c73b
00000120: 0d5a 43bc c053 a43b 169c ac3b 02da a83c
00000130: e73d 8e3b 0ddc 5b3c 1a9f 3d3b b330 733c
00000140: 901e c5bc 9aea 6abb 69fb dbbc e0ff 85bb
00000150: 3391 6fbc e69a 453b d0ff 3a3c a972 98bc
00000160: edb6 87bb 2df7 1a3c c7e3 7a3c b3c4 bcbc
00000170: 3009 a7bc 1451 e13b 2d94 a83c 0e76 e3bc
00000180: 6a2d 28bc f976 8b3c 83ba df3a 64ec 3d3c
00000190: 59d6 2ebb 1bdb cbbc 8148 dbbc 8cf1 d93b
000001a0: 97f6 3ebc aaf1 50bc a7a2 73bb 0230 9bbc
000001b0: a372 a9bc d325 19bc 976c 903c e7f2 bebb
000001c0: 894a 853c 3635 0ebc 624a b33c f356 04bc
000001d0: d04e 07bc 8de3 73bc 2717 e0bb cd2d 1ebb
000001e0: 9ab6 17ba cdf4 47bc 75ae c93c 83c3 56bc
000001f0: 2d7b be3c d72f c43c db9c b2bc 3a11 c0bb
00000200: 9d3d bd3c a077 76bc 144f f9bb ca8b b5bc
00000210: 23b7 463c 39b5 e23c 914a af3c c2ef b13a
00000220: 7315 ae3c 4c27 333c 4042 103c 2a7b 3ebc
00000230: 40f2 0f3c 0646 e43c bba5 863c 8b87 753b
00000240: 82ac 823c 533d 0f3c 953e c23c 8739 cbbc
00000250: 2d46 2bbc 0485 533c e079 303c a788 863c
00000260: 5ac7 583b 23d7 383c 1ca2 55bc e061 a6bc
00000270: 40d6 553b 9af3 5a3c 33b7 753b 73b5 11bb
00000280: 3321 9339 bd9f 4b3c a0fd 26bc ba0d 08bc
00000290: d608 b73b cd07 c43c 72c5 97bc 8a8b 3b3c
000002a0: 0ff3 9abc 530c a8bb e6ad bbba ebb9 b63c
000002b0: 6d45 67bc 90b3 0e3c 2bbc 6cbc 6daf de3b
000002c0: 31b2 01ba 206e b53b 9a43 a03c ba69 56bc
000002d0: 5a6a 3a3b 274d 4d3c 4cf0 dc3c 803f ccbb
000002e0: 7cc0 803c 4d73 c53b 5dd5 5a3c b046 d1bc
000002f0: 1a7b c93c 09fa 773a e5e1 cabc cd6c eb3a
00000300: 677d a1bc 3366 db3b 321a 813c 92d3 ad3c
00000310: 8b7b 913c af59 ab3c 1069 70bc 9a55 503a
00000320: 2226 c43c cd3c c93c c7df 80bc f87f 9a3c
00000330: 0064 98bc 68ed a2bc 800b 8eba 63aa 2bbc
00000340: cbb6 803c 4b3b aabc 9259 a73c f802 13bc
00000350: cc32 92ba a710 4b3c 9a48 c53c cd0c 78b8
00000360: c843 133c 9834 ff3b 9784 683c cfb3 813c
00000370: 9012 9b3c 868f 883b eba7 9c3b c325 103c
00000380: a6e1 c23c 8dbf babb 9a39 15ba 9c1f 9e3c
00000390: ddb8 a43c ca66 4dbb 46c0 693c 838d 90bc
000003a0: 3366 47bb a7a3 13bb 693c a83c 9500 b03c
000003b0: 7db4 693c e796 60bc 805d 88bb c000 083b
000003c0: 00e6 1dbb 9700 963c e7ee 85bb bdaf 13bc
000003d0: 6bc9 723c 13f4 76bc f293 b6bc 4362 393c
000003e0: 40c7 4c3c 437e 82bc f74b 983c 4cbf 4f3b
000003f0: b0aa b73c 3071 16bc 75a0 983c 75ec 3abc
0.019619642 -0.013541979 -0.013161478 -0.021560868 0.0020926755 0.020813724 0.013251498 -0.01897614
-0.007784951 0.013016445 -0.013147888 0.019234389 -0.0057156887 0.023106745 0.018803049 -0.023180513
-0.018755762 0.019886872 0.016519744 0.015575242 -0.01027288 0.017878829 -0.01818174 0.022306517
-0.003890421 0.024288634 -0.016012503 -0.016913155 -0.010045064 -0.0048638307 -0.017409207 0.017960493
0.014156905 0.008078915 -0.0059354687 -0.0005160213 0.0112244785 0.016850257 0.006980014 -0.007825903
-0.024686128 0.005919224 -0.004007134 0.011765725 -0.0012381631 -0.02333056 0.017726555 0.0034269036
0.022051413 -0.02040461 0.01205516 0.013847107 -0.022034291 0.022272596 0.027597684 -0.0021600574
-0.018673604 -0.00045626462 0.0060729077 0.020858673 0.0019468179 -0.01925598 -0.019479174 0.02147228
-0.0038014494 -0.0154964095 0.0047161668 0.016577115 0.00013878643 0.017489143 0.020835979 0.0060893893
-0.011923325 0.0050148666 0.0052676303 0.020611767 0.0043408754 0.013419163 0.0028933943 0.014843154
-0.024062425 -0.00358454 -0.02685328 -0.0040893406 -0.014622021 0.003015214 0.0114135295 -0.018609362
-0.0041416795 0.009458345 0.015313095 -0.023043012 -0.020390123 0.0068761203 0.020578468 -0.027766254
-0.010264734 0.017024504 0.0017069135 0.011592004 -0.0026678054 -0.024884751 -0.026767971 0.006651109
-0.011655471 -0.01275293 -0.0037175806 -0.01894379 -0.020684546 -0.009347397 0.017629905 -0.005827296
0.016270893 -0.008679679 0.021886054 -0.008077371 -0.008258536 -0.014885795 -0.0068386975 -0.0024136186
-0.00057874026 -0.012204361 0.02461932 -0.013108137 0.023252094 0.023948593 -0.02180331 -0.0058614286
0.023100669 -0.015043169 -0.007608304 -0.022161383 0.012128624 0.027674304 0.02139786 0.0013575482
0.021250462 0.010934662 0.008804858 -0.011626044 0.008785784 0.027865421 0.016436448 0.0037464823
0.015951399 0.008742648 0.023711482 -0.024807705 -0.010453743 0.012910131 0.010771245 0.016422583
0.0033077807 0.011281761 -0.013039138 -0.020310342 0.0032628924 0.013363743 0.0037493228 -0.0022233396
0.0002806276 0.012428221 -0.010192305 -0.008304054 0.00558577 0.023929501 -0.018526766 0.011446843
-0.018914727 -0.0051284223 -0.0014318794 0.02230545 -0.0141156735 0.008709803 -0.01444916 0.0067958147
-0.0004947512 0.0055368096 0.019563485 -0.013086731 0.0028444738 0.012530602 0.026970051 -0.0062331557
0.015716784 0.006025708 0.013356534 -0.025546402 0.024594832 0.00094595604 -0.024765918 0.0017961502
-0.019713117 0.0066955327 0.015759561 0.021219049 0.017759105 0.020916788 -0.014673486 0.0007947326
0.023943964 0.024565125 -0.015731705 0.018859848 -0.018602371 -0.019888595 -0.0010837168 -0.010477635
0.015712162 -0.020780226 0.020428453 -0.008972876 -0.0011154055 0.012394107 0.02408247 -5.913973e-05
0.008988328 0.007788252 0.014191768 0.01583281 0.01892975 0.0041675 0.0047807596 0.008798066
0.023789238 -0.005699104 -0.0005692482 0.019302182 0.020107681 -0.0031341785 0.014267033 -0.017645603
-0.0030425906 -0.0022527964 0.020536618 0.021484653 0.014264223 -0.013707853 -0.0041615367 0.00207524
-0.002409339 0.018310828 -0.0040873173 -0.009014067 0.01481853 -0.01507284 -0.022287343 0.011314931
0.012498677 -0.015929347 0.01859091 0.0031699715 0.022420257 -0.009182259 0.0186312 -0.011408915

fc1.bias f4 [80]
00000000: 90af d0bb 599a 9bbc 9440 9b3c 6e9b 17bc
00000010: 09bf b53b d174 48bc 0a3b 063c 8045 373b
00000020: a115 afbb 246f 15bc 6415 903b 1179 963c
00000030: c4ea 51bb 204d 71bc 56c6 903c 337e 84bc
00000040: 4389 303c fa46 3f3c 8470 e63c 8c5e 14bb
00000050: e43a 8a3c 9cf6 0dbc 0055 cdba fcf8 563b
00000060: a52a 73bc 9b2b 97bb a2bb 83bc 366b c2bb
00000070: 4cbd 00bc 5e98 853c f58b cb3c d535 9c3c
00000080: a6dc 1bbc fd34 59bb 271f 053c a8a1 12bc
00000090: e600 4a3c c72b b83a 5a15 a03c cf43 55bc
000000a0: c95b 533a 48ba aabc c09c a93b 1ac9 47bb
000000b0: 82d4 c2bc 7d52 54bb 7f99 023b 74f3 7a3c
000000c0: ac65 a3bb 4a6c e03c 3247 92bb aade 5f3b
000000d0: f395 19bc ec6e a93c bc31 5ebc bbb1 863c
000000e0: 25ef 753c cedd 11bc ee43 b6bc 8da6 7f3b
000000f0: 3401 10bb c55a cabc 38ba a8bc a2fe a7ba
00000100: 830f 8abc ebf9 a53c c71b e43b 9ce4 84bb
00000110: bd67 92bc a4c4 29bc e8e8 85bc 8507 793c
00000120: 6a55 c2ba d95a b33c 7529 aabc 6706 9a3c
00000130: 9e7c 8dbc 0c25 b8bb 56f5 c3bc b58b 9f3a
-0.006368585 -0.018994497 0.018951692 -0.009253366 0.005546455 -0.012234882 0.008192787 0.002796501
-0.0053431545 -0.009120736 0.004397081 0.018368276 -0.00320308 -0.014727861 0.017672699 -0.016173458
0.010774913 0.011674637 0.028129824 -0.0022639362 0.016873784 -0.008664753 -0.0015665591 0.0032802215
-0.01484171 -0.0046133525 -0.016080681 -0.0059331907 -0.007857632 0.016308006 0.02484701 0.019068638
-0.009513056 -0.0033143156 0.008125103 -0.008949675 0.012329316 0.0014051133 0.019541431 -0.013016655
0.0008062688 -0.020840779 0.0051761568 -0.0030484856 -0.023782972 -0.00323978 0.0019927917 0.015316833
-0.0049864855 0.027395386 -0.0044640535 0.0034159818 -0.00937413 0.020682774 -0.013561662 0.01644217
0.01501063 -0.00890298 -0.022249188 0.0039009184 -0.0021973373 -0.024701485 -0.020596609 -0.0012816975
-0.0168531 0.020260772 0.006961319 -0.0040555727 -0.017871732 -0.010361824 -0.01634641 0.015199547
-0.0014826481 0.021893905 -0.020771721 0.018801881 -0.017271336 -0.0056196507 -0.023920696 0.0012172373

fc2.weight f4 [10, 80]
00000000: b09c 8abc 2037 8f3a 894b 803d a540 493d
00000010: 1d6d c13c 0094 7f3d 4d6b 7e3d 08c7 9fbc
00000020: a31b 03bc 36da ab3c 35cb 69bd 0adf bcbd
00000030: 243f 86bd 73d3 a9bc f8f9 d8bd e92f a6bd
00000040: 5a21 ad3d 7df2 d13d 9a67 ddbd e6f3 823d
00000050: daed 693c a3e2 bdbd aa7e c13c 0d44 65bd
00000060: 0093 c33d 3fda 323d e595 cf3c d281 8fbd
00000070: 17da 9a3d 1722 58bd d5bf c8bd a17d c33d
00000080: 9c27 44bd 93d6 5abd 9573 79bd 6e8e 7d3d
00000090: 7445 d03d da19 cd3d 8726 933d 76bd cabd
000000a0: 9621 533c df56 c73d 5e87 5fbd e8c9 ccbd
000000b0: ede8 923c 8b4e 06bd 9962 513d a8dd 8dbc
000000c0: 66f9 393d 4c64 c9bc ba43 8ebb 0d2a c0bc
000000d0: 61fd a3bd 401b d3bc 6af2 69bd af70 08bc
000000e0: e808 0bbd 1265 ebbc 26f7 c33d efad c8bd
000000f0: ee8f a33d 5001 e73a 9ff7 62bd 1ebe e6bd
00000100: 7c18 463d 94fb 443d 249d 933d d537 db3d
00000110: f37f c9bd cb18 3fbd a984 c83d bb88 87bd
00000120: 7703 a33d e6ce 4e3d b57b cd3d 5ee2 be3d
00000130: f311 cf3d b5fb 9abc 4e05 a4bc e519 af3c
00000140: c1d3 773d 6d7f 173c 1da8 113d b336 98bd
00000150: e8ef cc3d c2a4 adbd fb50 e33c 5e86 ccbd
00000160: 9904 08bd 236b c0bd 84ed 72bd 49b4 ebbd
00000170: 2ac4 22bd 203f aabd ba87 2b3c f248 7fbd
00000180: bdfa 5c3d d643 c4bd 8521 b73b e4a6 d23c
00000190: 11fd 01bd 43fa b4bc b126 c0bd 7fc7 ad3d
000001a0: 0242 783d 84bc b2bd 5575 5ebc 17de f3bc
000001b0: 090b 903d e449 48bd cdaf 6abd 45e1 803d
000001c0: 3488 e2bd 5864 51bd 0eaa 09bc 7ff5 703c
000001d0: 8258 98bd 272b 863d 4fdb 9b3d bcf9 94bd
000001e0: 80f8 54bc 1646 52bd 35f0 ae3d bf9b adbd
000001f0: 7a1a 76bd 6cc6 4e3d b90d 1fbd 3482 49bd
00000200: 1846 8bbd 87ce b6bd ce90 973d 29cc 9e3b
00000210: ac19 91bd 668e 413d 69c5 babd e074 6c3d
00000220: 14ef b33d 4602 543a 7ba5 633d 87a5 c73c
00000230: 47bb 30bd f252 7e3d bd84 c3bd 5cc2 c93d
00000240: 29b0 d23d 8784 2c3d 3e8d d63d 3041 babd
00000250: 2b0e acbd c6ec f73c 1bfa 823d 2192 563d
00000260: eaf6 2bbd 570c a93d 3bc7 153d 003b ac3c
00000270: 81d3 d43b 0771 80bd 5ff8 e13b 94f8 ccbb
00000280: 559d 353a f138 613d d130 d7bd 77ba c3bc
00000290: 9ea8 65bd a700 e9bc e45e 2d3b 3722 9d3d
000002a0: a93e 863d 2ef3 ddbd b0d1 72bc f33a dcbd
000002b0: 7b77 d63d 9f54 92bd 424b 94bd d99d 3bbd
000002c0: 4988 a3bd 4702 5cbd 5682 973d 69e0 dc3d
000002d0: 7c36 9c3d 8e12 f9bc 2f24 37bd 58d3 c6bd
000002e0: 5c56 8b3d d080 893d 2cf6 bd3d 96f4 31bd
000002f0: 9068 8dbd fa1b 87bc 5aed cbbd e9ef 883d
00000300: efe7 e8bd 517d 3e3d 1dc6 b83d 7984 bd3d
00000310: 1850 0ebd 3c99 86bd 432f d13d d304 4abd
00000320: c6a6 b0bd 2fd9 4d3b 05d9 af3d 2848 943d
00000330: 8fcf 01bd 4de3 cc3c 7871 b03d ef54 7e3c
00000340: d55b f9bb fcf3 b63d 654d f8bb 2835 9dbd
00000350: 60c7 ddbd b193 d53d f9dd a03d 2498 5c3d
00000360: c929 833d 01a9 853d 4293 dc3d be2c d3bd
00000370: c394 ac3d e680 72bc bff4 c93d a2ed abbc
00000380: 8adc 77bd de87 e7bd 8492 aabd 0797 87bd
00000390: 8fca 293d 5f19 cebd 8303 98bc 28d8 993d
000003a0: 9855 17bd f15f 83bc 4557 1f3c ce77 e9bc
000003b0: 3d03 43bd afc2 c93b c24c 50bd 71f1 be3d
000003c0: 10fb a4bd 9179 8fbd c2bb e83c fb0f 26bc
000003d0: b9a4 62bd ca7f 8c3d 1635 c13d d49f e5bd
000003e0: e30d f63c 7cf8 d4bd f3a4 dd3c 4d1e 51bc
000003f0: 9421 b73c daf7 903d 78c3 a63d 96d4 693d
-0.016920418 0.0010926463 0.06264407 0.049133915 0.0236116 0.062397003 0.06211405 -0.019504085
-0.008002195 0.020978075 -0.05707856 -0.09222229 -0.06555012 -0.02073071 -0.10594553 -0.08114607
0.08453627 0.10251329 -0.10810776 0.06394176 0.0142779 -0.09271743 0.023619968 -0.0559731
0.095495224 0.043665167 0.02534003 -0.07007183 0.075611286 -0.052766886 -0.09802214 0.09545446
-0.047889337 -0.05342729 -0.060901243 0.06190341 0.10169497 0.100146964 0.07185083 -0.09899418
0.0128864255 0.09733366 -0.054572456 -0.09999448 0.017933333 -0.03278975 0.05111942 -0.017317608
0.04540386 -0.024583958 -0.0043415697 -0.023457551 -0.080073126 -0.02576983 -0.05711595 -0.008327647
-0.03394404 -0.028734718 0.09568624 -0.097988 0.07986437 0.0017624293 -0.05541193 -0.11266731
0.048363194 0.048091486 0.072077066 0.107040085 -0.098388575 -0.046654504 0.09790928 -0.06617876
0.07959645 0.050490282 0.10033361 0.0932052 0.101108454 -0.018918851 -0.02002206 0.021374652
0.06050468 0.009246689 0.035560716 -0.07432308 0.10006696 -0.08478691 0.027748575 -0.09986566
-0.03320751 -0.09395435 -0.059308544 -0.11508996 -0.039737858 -0.083128214 0.010469371 -0.062325425
0.05395006 -0.09583251 0.0055887126 0.025714345 -0.031735484 -0.02209199 -0.0938238 0.084853165
0.060609825 -0.08727363 -0.013577779 -0.029768987 0.07033355 -0.048898593 -0.057296563 0.06292967
-0.11061135 -0.051121086 -0.008402361 0.014706968 -0.074387565 0.065511994 0.07610189 -0.072741956
-0.0129987 -0.05133637 0.085419096 -0.08476972 -0.060083844 0.0504822 -0.038831446 -0.049196437
-0.06800479 -0.08926111 0.07400666 0.004846115 -0.07084975 0.047254942 -0.09119684 0.05772865
0.08785835 0.0008087497 0.055577736 0.024370922 -0.04314735 0.06209082 -0.09546802 0.09851524
0.10287506 0.042118575 0.104761586 -0.09094465 -0.0840114 0.03026427 0.0639536 0.052385453
-0.041983522 0.08254307 0.036566954 0.021024227 0.00649494 -0.06271558 0.006896063 -0.0062552188
0.00069280464 0.054985944 -0.10507358 -0.023892624 -0.05606901 -0.028442694 0.0026454264 0.076725416
0.0655492 -0.108373985 -0.014820501 -0.10753431 0.10472008 -0.071450464 -0.07240917 -0.045804832
-0.07984979 -0.05371311 0.073979065 0.1078499 0.076275796 -0.030404355 -0.04471224 -0.09708279
0.06803581 0.06714022 0.09275469 -0.043446146 -0.06904709 -0.016492832 -0.099573806 0.06686384
-0.11372363 0.04650623 0.09022162 0.09253783 -0.034744352 -0.06572196 0.102140926 -0.049321007
-0.086255595 0.003140997 0.08586315 0.07240325 -0.031692084 0.02501073 0.086153924 0.015523179
-0.007609824 0.08933255 -0.0075775855 -0.076761544 -0.108290434 0.104285605 0.07854838 0.05385603
0.06404454 0.065263756 0.10770275 -0.10311268 0.084268115 -0.01480124 0.09861135 -0.020987336
-0.060513057 -0.113052115 -0.08328727 -0.06620603 0.04145294 -0.10063433 -0.018556362 0.07511932
-0.036946863 -0.01603696 0.0097253965 -0.02849951 -0.04761051 0.0061572413 -0.050854452 0.09323395
-0.08055699 -0.07005609 0.028409842 -0.010135646 -0.055332873 0.06860311 0.094339535 -0.112121254
0.030035919 -0.10398957 0.027056193 -0.012763572 0.022354878 0.07078524 0.081427515 0.057087503

fc2.bias f4 [10]
00000000: fae1 0cbb 9f0d dfbc 7d59 a7bd 6a00 c1bd
00000010: 060c bb3c e0c7 f2bb fb12 09bd 164a a1bd
00000020: d265 2f3c 1158 b7bd
-0.0021496997 -0.027228175 -0.081713654 -0.09423907 0.022832882 -0.007409081 -0.033465367 -0.07875459
0.010705428 -0.08952344
