classify-ckpt/model_epoch_85.pth (torch, 517704 bytes, 4 tensors)

fc1.weight f4 [80, 1600]
00000000: 5fb9 a03c 2ddf 5dbc 3da3 57bc 6ba0 b0bc
00000010: f5a5 d83b 8b81 aa3c d01c 593c da73 9bbc
00000020: e718 ffbb 3873 ce3b 3114 8ebc 7091 9d3c
00000030: 2185 21bc 5b4a bd3c 547e 943c 0fe5 bdbc
00000040: afa5 99bc cbe9 a23c 6a54 873c a6c7 ef3c
00000050: c495 973b 9f76 923c dff1 94bc 28bc b63c
00000060: dec0 243a f5f8 c63c a72c 83bc 78d7 9bbc
00000070: 0d94 24bc f2c8 96bc d4fc b0bc e221 933c
00000080: 5df2 673c 6d5d 043c 72a8 d8bb 9a45 07ba
00000090: e0e6 373c 8d09 8a3c 9ab8 e43b 3738 00bc
000000a0: 903a cabc 0df6 c13b 474e 83bb 07c5 403c
000000b0: bc01 573b bb1f bfbc 4837 913c e795 603b
000000c0: 2aa5 b43c 3a2c debc dec4 003c fade 623c
000000d0: 2671 d6bc 0575 b63c 048a dc3c c08f 0dbb
000000e0: 63f9 98bc cd36 efb9 8284 ad3c ea91 033d
000000f0: 0200 8a3c b8be 9dbc ca92 9fbc a3e6 af3c
00000100: a713 3c3a a7e4 7dbc 138a 9a3b 7205 6d3c
00000110: 3387 1139 8d52 813b 2451 883c 8089 c73b
00000120: 0d5a 43bc c053 a43b f671 963b 02da a83c
00000130: e73d 8e3b 0ddc 5b3c 1a9f 3d3b b330 733c
00000140: a37d e7bc 96f1 febb 7c5a febc 14be 07bc
00000150: 4d98 77bc 55bb 9aba 5a83 ec3b bcd1 babc
00000160: 9b99 08bc 2247 0b3b a425 363c c623 dfbc
00000170: 2b6b d3bc 97a9 2f3b 7e7a 913c 90ea 02bd
00000180: 8deb 6cbc 03ce f03c 4f1b 23bb 353a bb3c
00000190: 75e7 e0bb 10bb 76bc 94a7 fdbc 87ea 203b
000001a0: ba29 6dbc e7d7 8abc cea6 01bc bdd3 b7bc
000001b0: b6d1 cbbc 8f8b c0bc 0b1b 5c3c 9737 24bc
000001c0: efd6 453c 59f3 52bc 1c9c 993c 1615 49bc
000001d0: f30c 4cbc da50 9cbc b7c9 34bc 3093 d8bb
000001e0: 9ab6 17ba cdf4 47bc 75ae c93c 83c3 56bc
000001f0: 0380 e33c d72f c43c db9c b2bc 3a11 c0bb
00000200: 9d3d bd3c 7840 b2bc ad65 41bc ca8b b5bc
00000210: 59d7 023c f0dc 033d 0bc0 a93c 948e c03b
00000220: 7315 ae3c 5858 d53c 4042 103c 4964 beb9
00000230: 40f2 0f3c 9f29 2f3d bba5 863c d53c 493b
00000240: 58b1 a73c a72a 043c 953e c23c 8a83 dcbc
00000250: 2d46 2bbc dec7 25ba 7977 d73b a788 863c
00000260: 5ac7 583b 23d7 383c 2db7 60bc e061 a6bc
00000270: 40d6 553b 9af3 5a3c 33b7 753b 73b5 11bb
00000280: 3321 9339 bd9f 4b3c a0fd 26bc ba0d 08bc
00000290: 158e 253c cd07 c43c 72c5 97bc 8a8b 3b3c
000002a0: 0ff3 9abc 7b0f 42bc c267 b8bb ebb9 b63c
000002b0: 243c 1dbc 90b3 0e3c 3cd1 77bc 6daf de3b
000002c0: d648 093c 206e b53b 9a43 a03c 9a0d efba
000002d0: 5a6a 3a3b 274d 4d3c 52b1 043d 803f ccbb
000002e0: 52c5 a53c 4d73 c53b b1c2 4f3c b390 e2bc
000002f0: 1a7b c93c e261 4ebc f840 edbc cd6c eb3a
00000300: 677d a1bc 3366 db3b 561f 773c 92d3 ad3c
00000310: 8b7b 913c af59 ab3c 1069 70bc 9a55 503a
00000320: 2226 c43c cd3c c93c c7df 80bc f87f 9a3c
00000330: 53be 66bc 68ed a2bc 800b 8eba 63aa 2bbc
00000340: cbb6 803c f33f e1bc 7ffa 843c 4ef3 91bb
00000350: 4a4c acbb a710 4b3c 14be bf3c cd0c 78b8
00000360: 9766 c53c 9ca3 493c 9784 683c d0f7 dd3c
00000370: 9012 9b3c 59d4 643b 3737 a13c c325 103c
00000380: 7ce6 e73c 8dbf babb 9a39 15ba 2a96 983c
00000390: ddb8 a43c 999d 88bc 2302 253c 838d 90bc
000003a0: 3366 47bb a7a3 13bb e3b1 a23c 9500 b03c
000003b0: 7db4 693c e796 60bc 805d 88bb c000 083b
000003c0: 00e6 1dbb 9700 963c e7ee 85bb bdaf 13bc
000003d0: 8b69 9e3c 13f4 76bc f293 b6bc 4362 393c
000003e0: 40c7 4c3c eb82 b9bc a250 bd3c 8972 86ba
000003f0: ccba 953c 3071 16bc ef15 933c d073 723b
0.019619642 -0.013541979 -0.013161478 -0.021560868 0.0066115805 0.020813724 0.013251498 -0.01897614
-0.007784951 0.0063003562 -0.017343612 0.019234389 -0.009858401 0.023106745 0.018126644 -0.023180513
-0.018755762 0.019886872 0.016519744 0.029270004 0.0046260078 0.017878829 -0.01818174 0.022306517
0.0006284843 0.024288634 -0.016012503 -0.019023642 -0.010045064 -0.018406365 -0.021604933 0.017960493
0.014156905 0.008078915 -0.006611877 -0.0005160213 0.0112244785 0.016850257 0.006980014 -0.007825903
-0.024686128 0.005919224 -0.004007134 0.011765725 0.003280743 -0.02333056 0.017726555 0.0034269036
0.022051413 -0.027120698 0.007859437 0.013847107 -0.026177 0.022272596 0.02692128 -0.0021600574
-0.018673604 -0.00045626462 0.021181349 0.032121576 0.016845707 -0.01925598 -0.019479174 0.02147228
0.0007174559 -0.0154964095 0.0047161668 0.01446663 0.00013878643 0.0039466084 0.016640253 0.0060893893
-0.011923325 0.0050148666 0.004591222 0.020611767 0.0043408754 0.013419163 0.0028933943 0.014843154
-0.02825815 -0.007780264 -0.031049006 -0.008285064 -0.015111995 -0.0011805097 0.0072178068 -0.022805087
-0.008337404 0.0021252115 0.011117373 -0.027238738 -0.025807938 0.0026803964 0.017758604 -0.031961977
-0.014460457 0.029395109 -0.0024888103 0.022854904 -0.0068635293 -0.015059248 -0.030963697 0.0024553852
-0.01447528 -0.016948653 -0.0079133045 -0.022439832 -0.024880271 -0.023504047 0.013434182 -0.010023019
0.01207517 -0.012875401 0.018751197 -0.012273094 -0.012454259 -0.019081522 -0.011034421 -0.006609343
-0.00057874026 -0.012204361 0.02461932 -0.013108137 0.027771002 0.023948593 -0.02180331 -0.0058614286
0.023100669 -0.021759257 -0.011804027 -0.022161383 0.007985913 0.032193124 0.020721456 0.0058763716
0.021250462 0.026043102 0.008804858 -0.00036314342 0.008785784 0.042764302 0.016436448 0.0030706425
0.020470306 0.00806681 0.023711482 -0.026918191 -0.010453743 -0.0006324033 0.0065755215 0.016422583
0.0033077807 0.011281761 -0.0137155475 -0.020310342 0.0032628924 0.013363743 0.0037493228 -0.0022233396
0.0002806276 0.012428221 -0.010192305 -0.008304054 0.010104676 0.023929501 -0.018526766 0.011446843
-0.018914727 -0.011844511 -0.0056276033 0.02230545 -0.009596858 0.008709803 -0.015125569 0.0067958147
0.008379182 0.0055368096 0.019563485 -0.0018238307 0.0028444738 0.012530602 0.03239567 -0.0062331557
0.020235691 0.006025708 0.012680695 -0.027656889 0.024594832 -0.012596579 -0.028961644 0.0017961502
-0.019713117 0.0066955327 0.015083155 0.021219049 0.017759105 0.020916788 -0.014673486 0.0007947326
0.023943964 0.024565125 -0.015731705 0.018859848 -0.014083463 -0.019888595 -0.0010837168 -0.010477635
0.015712162 -0.027496314 0.016232727 -0.004454053 -0.005258118 0.012394107 0.023406066 -5.913973e-05
0.02409677 0.012307074 0.014191768 0.027095705 0.01892975 0.0034916608 0.019679649 0.008798066
0.028308146 -0.005699104 -0.0005692482 0.018626291 0.020107681 -0.01667671 0.01007131 -0.017645603
-0.0030425906 -0.0022527964 0.019860214 0.021484653 0.014264223 -0.013707853 -0.0041615367 0.00207524
-0.002409339 0.018310828 -0.0040873173 -0.009014067 0.019337436 -0.01507284 -0.022287343 0.011314931
0.012498677 -0.022645434 0.023109738 -0.0010257523 0.018277548 -0.009182259 0.017954795 0.00369953

fc1.bias f4 [80]
00000000: 63e7 08bb 8f06 81bc 7db0 953c 239f cabb
00000010: 4e40 023c d2e9 24bc d685 153c e727 533c
00000020: bc9a 0c3c 5ec6 423b 31a0 a73b c55c ad3c
00000030: 4d73 53bb 204d 71bc 1d09 c03c cd65 4dbc
00000040: 24f8 7d3c b751 723c 4cf8 013d 209f 8c3a
00000050: b88c 9b3c d325 02b9 0055 cdba a120 ae3b
00000060: de47 41bc 69fe 86bb 2c9b 63bc 60a3 643b
00000070: 868b cc39 263e b43c f132 e43c 071a a33c
00000080: 1f7d 303b fd34 59bb a2b9 3d3c a8a1 12bc
00000090: e3ea 503c 7ba1 e83b 2ebb b93c e230 33bc
000000a0: 9ac1 903b 3015 aebc 169b 013c bbba c1ba
000000b0: 82d4 c2bc 571f ea39 0377 763b d19f d93c
000000c0: 0f99 17bb 1c32 e43c 35ba acbb 8525 7e3c
000000d0: 4b2e fabb 0c7b a63c bca7 5abc d0e1 983c
000000e0: 6534 883c d8cf 02bc 2f28 b9bc 8da6 7f3b
000000f0: 274d 1c3c d516 afbc 1352 e9bb a2fe a7ba
00000100: 7261 78bc d4b2 d13c c3d5 0c3c 9ce4 84bb
00000110: 4ed2 89bc bb7c 0dbc 4492 96bb cee1 8c3c
00000120: a527 063c 2cd6 cb3c c9e8 adbc bcf9 a43c
00000130: 629c 69bc d266 c8bb 3663 b8bc 3ba0 033b
-0.002088987 -0.015750198 0.018272633 -0.0061835214 0.007949902 -0.010065513 0.009126147 0.012887931
0.008581813 0.0029720287 0.005115532 0.0211624 -0.003226477 -0.014727861 0.023441846 -0.012536478
0.015501056 0.01478999 0.031730935 0.0010728575 0.018987998 -0.00012411857 -0.0015665591 0.0053139483
-0.01179692 -0.0041196835 -0.013891976 0.0034887418 0.00039013865 0.022002291 0.027856322 0.019909872
0.0026930047 -0.0033143156 0.011579903 -0.008949675 0.012751314 0.007099328 0.022672262 -0.010936948
0.0044176104 -0.021250337 0.0079105105 -0.0014780381 -0.023782972 0.00044655308 0.0037607558 0.026565464
-0.0023132002 0.027855925 -0.005271221 0.015511875 -0.007634913 0.020322345 -0.013345655 0.018662363
0.016626546 -0.007984124 -0.022602169 0.0039009184 0.009539879 -0.021373192 -0.0071203797 -0.0012816975
-0.0151599515 0.025597967 0.008595887 -0.0040555727 -0.016823914 -0.008635695 -0.004595073 0.017197516
0.008188163 0.024882399 -0.021229165 0.020138614 -0.014258476 -0.0061157728 -0.022508245 0.0020084518

fc2.weight f4 [10, 80]
00000000: f2b2 03bd d4aa 67bc 8932 423d 5410 0b3d
00000010: 5d70 763c 9c45 413d 7307 403d ccec 0dbd
00000020: 5fde bdbc 9e9c bf3b cb17 94bd e631 cebd
00000030: df70 a5bd 73d3 a9bc 2c2c f8bd e861 c5bd
00000040: 10ef 8d3d 4ad2 b23d 1e99 fcbd 2285 473d
00000050: 2030 7aba db06 ddbd aa7e c13c 45d4 91bd
00000060: 6961 a43d 97ed e83c be9a 253c 85b3 aebd
00000070: 994f 773d 3343 8bbd 456e dabd 6a4c a43d
00000080: df39 81bd 93d6 5abd 0fec 9bbd 6e8e 7d3d
00000090: 0366 b63d bae7 ad3d 8be8 673d 7bef e9bd
000000a0: 8aaf 19bb c16e a83d f11e 81bd 0d64 ddbd
000000b0: ede8 923c 34b2 44bd e7fe 123d 8a11 05bd
000000c0: 5760 163d 5c14 23bd e759 a0bc d062 1ebd
000000d0: 7e2b c3bd 86f0 27bd 2a2b 94bd eafb c0bc
000000e0: 926c 49bd b116 34bd efc4 a43d efad c8bd
000000f0: 907d 843d baee 5bbc e3a2 90bd 1ebe e6bd
00000100: 05b4 073d 4822 073d dfd5 683d d537 db3d
00000110: dab1 e8bd b47c 7dbd 3a86 a93d 14ba a6bd
00000120: e5d4 833d 506a 103d c919 b43d bac5 9f3d
00000130: 4152 bd3d fde0 0bbd fd65 10bd 644e c93b
00000140: 0ca6 7f3d bf3c 2d3c 6d7a 193d ba4c b6bd
00000150: daf6 c63d 85f4 c5bd 70dd d93c 16e5 e6bd
00000160: 6c70 45bd 2f03 dfbd b4d4 73bd 4892 f1bd
00000170: 6dbe 27bd 203f aabd 60f3 223c e0e6 77bd
00000180: 527c 653d 9047 e3bd 6d89 b53a 2fb0 b53c
00000190: fe35 f5bc 96ce 09bd b126 c0bd 4c08 b23d
000001a0: f30d 6c3d 1dda b4bd eb47 5abc 8e58 18bd
000001b0: 30f4 933d 8817 4fbd c39b 76bd 557f 7d3d
000001c0: b8d0 00be 5864 51bd fbfe 00bc 7ff5 703c
000001d0: 4563 b2bd 51c4 823d 13f7 a03d 4870 98bd
000001e0: 31ec 8cbc 7937 88bd 800e a93d e459 b3bd
000001f0: 7a1a 76bd 4f32 583d 3ab1 1dbd 87ab 83bd
00000200: 6d4d 91bd f4aa cfbd 9cd1 9b3d 77e4 28bc
00000210: 875a a9bd 97ab 4a3d eb53 babd b2c6 603d
00000220: d876 b23d 866b 8b3a 9007 6b3d 87a5 c73c
00000230: 6db8 6ebd 4152 403d 1f5c dfbd 5cc2 c93d
00000240: f7f0 d63d 4b0c de3c 7c73 db3d 3041 babd
00000250: 8365 acbd 76e1 de3c e95d 483d 2ad3 443d
00000260: 9aed 4ebd 254d ad3d 1803 c73c e9c4 c23b
00000270: 8c46 6a3b 725f 83bd d77a 0d3c 0eed 14bc
00000280: e32c 6ebc 70de 223d 1f61 f6bd 509f 1ebd
00000290: d4a7 81bd de71 32bd 7bdd 4dbc c936 843d
000002a0: 4e39 4e3d c413 fdbd 1d23 f6bc 29d8 eabd
000002b0: 5d4a b73d 9f54 92bd 677b b3bd 59fb 79bd
000002c0: 5eb9 c2bd b7d3 8cbd 66a9 703d 4ac2 bd3d
000002d0: 2436 833d 71cb 3abd 2f24 37bd 0604 e6bd
000002e0: 1a95 6f3d 08b1 543d f0c7 9e3d d546 70bd
000002f0: ce99 acbd cbeb 01bd 96da dabd 5d8f 533d
00000300: bf04 04be 517d 3e3d 0d96 993d 7984 bd3d
00000310: b0e0 47bd d6c6 a5bd 0d00 b23d 0d2d 84bd
00000320: b7d3 cfbd 5bb9 1cbc c133 a13d 7643 863d
00000330: 8fcf 01bd fe57 203c 2544 913d 19e4 a739
00000340: a9f9 74bc c90e 983d f5d1 babc a951 bcbd
00000350: 2dce fcbd 9967 b63d dabb 813d fb6f 233d
00000360: 3110 4d3d aff3 4c3d 1ad6 c23d be2c d3bd
00000370: 4c74 8d3d 411b f4bc 2cd3 aa3d a2ed abbc
00000380: 081e 9bbd 77dd 02be 9bc1 c9bd 0797 87bd
00000390: 3181 f33c df3e edbd bf3e 0abd 504e 863d
000003a0: 1ba3 55bd 6010 00bd 51f5 6dbb 2b16 32bd
000003b0: 73fd 60bd 5e88 87bb d652 87bd 7ee6 9f3d
000003c0: b2d8 c1bd 4dab aebd 0068 963c ba96 cfbc
000003d0: 56ef 6bbd ffa1 783d c814 c03d a621 01be
000003e0: c833 733c 3d00 f4bd 6760 543c aaab 75bc
000003f0: 6fd0 933c daf7 903d 3ee6 893d 8a47 443d
-0.032153077 -0.01413985 0.047411475 0.03395112 0.015041438 0.047185525 0.046882104 -0.034649655
-0.023177324 0.0058475276 -0.07231101 -0.10068111 -0.08078169 -0.02073071 -0.121178 -0.09637815
0.06930363 0.08731516 -0.12333892 0.04871095 -0.00095439143 -0.10792323 0.023619968 -0.07120565
0.08026392 0.028433604 0.010107694 -0.085303344 0.060378645 -0.067999266 -0.106655635 0.08022387
-0.06309866 -0.05342729 -0.07613384 0.06190341 0.08906176 0.08491464 0.056618255 -0.114226304
-0.0023450577 0.0822425 -0.0630473 -0.10810099 0.017933333 -0.04802151 0.035887625 -0.03248743
0.03671297 -0.039814338 -0.019574119 -0.038668454 -0.0952978 -0.041000865 -0.072347954 -0.023557622
-0.049175806 -0.043966953 0.080453746 -0.097988 0.06469262 -0.013423616 -0.07062318 -0.11266731
0.033130664 0.032991678 0.05684459 0.107040085 -0.113620475 -0.061886504 0.08277555 -0.0814096
0.06437091 0.035257638 0.08793981 0.07801385 0.09244204 -0.034150112 -0.035253514 0.006143378
0.062414214 0.010573565 0.03747027 -0.08901353 0.09715052 -0.09665779 0.026594847 -0.112741634
-0.048202917 -0.10889279 -0.05952902 -0.11795479 -0.04095309 -0.083128214 0.00994572 -0.060522914
0.056026764 -0.11097634 0.001385016 0.022178737 -0.029932972 -0.03364428 -0.0938238 0.08692989
0.05763049 -0.08830664 -0.013322811 -0.037193827 0.072243094 -0.05055955 -0.06020714 0.06188901
-0.1257962 -0.051121086 -0.007873292 0.014706968 -0.087103404 0.06385101 0.07859626 -0.07443291
-0.017202469 -0.066512056 0.08254719 -0.0875738 -0.060083844 0.052782353 -0.038499095 -0.064292006
-0.07094846 -0.101400286 0.07608339 -0.0103083765 -0.0826922 0.049480047 -0.09098037 0.05487699
0.08714074 0.0010636903 0.05738026 0.024370922 -0.05828135 0.046953443 -0.109062426 0.09851524
0.10495179 0.027105471 0.10715386 -0.09094465 -0.08417799 0.027207118 0.048917685 0.048052944
-0.050519563 0.0846198 0.024293467 0.0059438837 0.0035747616 -0.06414689 0.008635244 -0.009089721
-0.014537069 0.039762914 -0.12030243 -0.03872615 -0.06330839 -0.043565623 -0.012565012 0.06455762
0.05034762 -0.123572856 -0.03004604 -0.114670105 0.089497305 -0.071450464 -0.087637715 -0.06103072
-0.09508012 -0.06876319 0.0587553 0.09265573 0.06406811 -0.045604173 -0.04471224 -0.11231236
0.058491804 0.051926643 0.07752979 -0.0586613 -0.084277734 -0.03171901 -0.10686223 0.051650394
-0.12892435 0.04650623 0.07499323 0.09253783 -0.048798263 -0.080945656 0.08691416 -0.06453905
-0.10147803 -0.009565677 0.078711994 0.06555836 -0.031692084 0.009786604 0.07093076 0.00032022668
-0.014952102 0.07424695 -0.022805193 -0.09195263 -0.123440124 0.089064784 0.06334658 0.039901715
0.05006427 0.050037082 0.09513493 -0.10311268 0.069069475 -0.029798152 0.08341059 -0.020987336
-0.075740874 -0.12779795 -0.098513804 -0.06620603 0.02972469 -0.11584257 -0.033751246 0.06557906
-0.052157503 -0.031265616 -0.003630955 -0.043478172 -0.054929208 -0.0041361293 -0.066075966 0.07807635
-0.094651595 -0.08528767 0.018360138 -0.025340427 -0.057601295 0.060701367 0.09378964 -0.12610492
0.014843889 -0.11914108 0.012962437 -0.014994541 0.018043725 0.07078524 0.06733368 0.047919787

fc2.bias f4 [10]
00000000: 3263 8ebc 3e84 e7bc e480 c6bd d3db ddbd
00000010: 6667 ab3c 3694 81bc f573 47bd eb49 a8bd
00000020: 7a59 203c 0a58 b8bd
-0.017381284 -0.0282613 -0.09692553 -0.10832944 0.020923328 -0.015817743 -0.04869457 -0.08217224
0.009786958 -0.09001167
