classify-ckpt/model_epoch_56.pth (torch, 517704 bytes, 4 tensors)

fc1.weight f4 [80, 1600]
00000000: 5fb9 a03c 2ddf 5dbc 3da3 57bc 6ba0 b0bc
00000010: edc9 d83b 8b81 aa3c d01c 593c da73 9bbc
00000020: e718 ffbb b834 d03b 3114 8ebc 7091 9d3c
00000030: 2185 21bc 5b4a bd3c 28c6 933c 0fe5 bdbc
00000040: afa5 99bc cbe9 a23c 6a54 873c 8335 e93c
00000050: a611 813b 9f76 923c dff1 94bc 28bc b63c
00000060: 9ee0 253a f5f8 c63c a72c 83bc 78d7 9bbc
00000070: 0d94 24bc b1ce 91bc d4fc b0bc e221 933c
00000080: 5df2 673c 6d5d 043c 2089 dbbb 9a45 07ba
00000090: e0e6 373c 8d09 8a3c 9ab8 e43b 3738 00bc
000000a0: 903a cabc 0df6 c13b 474e 83bb 07c5 403c
000000b0: a949 573b bb1f bfbc 4837 913c e795 603b
000000c0: 2aa5 b43c dbbb ddbc dec4 003c fade 623c
000000d0: 2671 d6bc 0575 b63c d8d1 db3c c08f 0dbb
000000e0: 63f9 98bc cd36 efb9 4725 a73c c370 003d
000000f0: f95e 843c b8be 9dbc ca92 9fbc a3e6 af3c
00000100: 6733 3d3a a7e4 7dbc 138a 9a3b 7205 6d3c
00000110: 3387 1139 963b 953b 2451 883c 8089 c73b
00000120: 0d5a 43bc c053 a43b 4891 933b 02da a83c
00000130: e73d 8e3b 0ddc 5b3c 1a9f 3d3b b330 733c
00000140: a37d e7bc 96f1 febb 7c5a febc 14be 07bc
00000150: 5186 77bc 55bb 9aba 5a83 ec3b bcd1 babc
00000160: 9b99 08bc 23ca 0e3b a425 363c c623 dfbc
00000170: 2b6b d3bc 97a9 2f3b 52c2 903c 90ea 02bd
00000180: 8deb 6cbc c86e ea3c 4f1b 23bb ebf7 b43c
00000190: 75e7 e0bb 8ffe 80bc 94a7 fdbc 87ea 203b
000001a0: 129a 6ebc e7d7 8abc cea6 01bc bdd3 b7bc
000001b0: b6d1 cbbc 4e91 bbbc 0b1b 5c3c 9737 24bc
000001c0: efd6 453c 59f3 52bc f0e3 983c 1615 49bc
000001d0: f30c 4cbc da50 9cbc b7c9 34bc 3093 d8bb
000001e0: 9ab6 17ba cdf4 47bc 75ae c93c 83c3 56bc
000001f0: 0189 e33c d72f c43c db9c b2bc 3a11 c0bb
00000200: 9d3d bd3c 19d0 b1bc ad65 41bc ca8b b5bc
00000210: 59d7 023c 6ce1 033d df07 a93c 70b2 c03b
00000220: 7315 ae3c 1df9 ce3c 4042 103c cabd 93ba
00000230: 40f2 0f3c 1b59 2c3d bba5 863c 877b 433b
00000240: 56ba a73c 54ba 023c 953e c23c 8a83 dcbc
00000250: 2d46 2bbc b4f2 cfb7 7977 d73b a788 863c
00000260: 5ac7 583b 23d7 383c 8427 62bc e061 a6bc
00000270: 40d6 553b 9af3 5a3c 33b7 753b 73b5 11bb
00000280: 3321 9339 bd9f 4b3c a0fd 26bc ba0d 08bc
00000290: 11a0 253c cd07 c43c 72c5 97bc 8a8b 3b3c
000002a0: 0ff3 9abc bb2e 41bc c267 b8bb ebb9 b63c
000002b0: 352a 1dbc 90b3 0e3c 9341 79bc 6daf de3b
000002c0: c45a 093c 206e b53b 9a43 a03c 2799 29bb
000002d0: 5a6a 3a3b 274d 4d3c 3d55 043d 803f ccbb
000002e0: 50ce a53c 4d73 c53b 5e52 4e3c b390 e2bc
000002f0: 1a7b c93c 5f6d 44bc f840 edbc cd6c eb3a
00000300: 677d a1bc 3366 db3b ffae 753c 92d3 ad3c
00000310: 8b7b 913c af59 ab3c 1069 70bc 9a55 503a
00000320: 2226 c43c cd3c c93c c7df 80bc f87f 9a3c
00000330: 57ac 66bc 68ed a2bc 800b 8eba 63aa 2bbc
00000340: cbb6 803c 94cf e0bc 7ffa 843c 72cf 91bb
00000350: 4a4c acbb a710 4b3c e805 bf3c cd0c 78b8
00000360: 5c07 bf3c 8bb5 493c 9784 683c 86b5 d73c
00000370: 9012 9b3c 0b13 5f3b 2e96 9b3c c325 103c
00000380: 7aef e73c 8dbf babb 9a39 15ba fedd 973c
00000390: ddb8 a43c 58a3 83bc 2302 253c 838d 90bc
000003a0: 3366 47bb a7a3 13bb b7f9 a13c 9500 b03c
000003b0: 7db4 693c e796 60bc 805d 88bb c000 083b
000003c0: 00e6 1dbb 9700 963c e7ee 85bb bdaf 13bc
000003d0: 8972 9e3c 13f4 76bc f293 b6bc 4362 393c
000003e0: 40c7 4c3c 8c12 b9bc 9959 bd3c 8972 86ba
000003f0: ccba 953c 3071 16bc c35d 923c f179 3f3b
0.019619642 -0.013541979 -0.013161478 -0.021560868 0.0066158683 0.020813724 0.013251498 -0.01897614
-0.007784951 0.006353941 -0.017343612 0.019234389 -0.009858401 0.023106745 0.018038824 -0.023180513
-0.018755762 0.019886872 0.016519744 0.0284679 0.0039388714 0.017878829 -0.01818174 0.022306517
0.0006327721 0.024288634 -0.016012503 -0.019023642 -0.010045064 -0.017798753 -0.021604933 0.017960493
0.014156905 0.008078915 -0.006699696 -0.0005160213 0.0112244785 0.016850257 0.006980014 -0.007825903
-0.024686128 0.005919224 -0.004007134 0.011765725 0.0032850301 -0.02333056 0.017726555 0.0034269036
0.022051413 -0.027067116 0.007859437 0.013847107 -0.026177 0.022272596 0.02683346 -0.0021600574
-0.018673604 -0.00045626462 0.020403517 0.031357538 0.016158568 -0.01925598 -0.019479174 0.02147228
0.00072174374 -0.0154964095 0.0047161668 0.01446663 0.00013878643 0.0045542223 0.016640253 0.0060893893
-0.011923325 0.0050148666 0.004503403 0.020611767 0.0043408754 0.013419163 0.0028933943 0.014843154
-0.02825815 -0.007780264 -0.031049006 -0.008285064 -0.015107707 -0.0011805097 0.0072178068 -0.022805087
-0.008337404 0.0021787963 0.011117373 -0.027238738 -0.025807938 0.0026803964 0.017670784 -0.031961977
-0.014460457 0.028617278 -0.0024888103 0.022090873 -0.0068635293 -0.015746383 -0.030963697 0.0024553852
-0.0145631 -0.016948653 -0.0079133045 -0.022439832 -0.024880271 -0.022896435 0.013434182 -0.010023019
0.01207517 -0.012875401 0.018663377 -0.012273094 -0.012454259 -0.019081522 -0.011034421 -0.006609343
-0.00057874026 -0.012204361 0.02461932 -0.013108137 0.02777529 0.023948593 -0.02180331 -0.0058614286
0.023100669 -0.021705674 -0.011804027 -0.022161383 0.007985913 0.0321974 0.020633636 0.0058806464
0.021250462 0.02526527 0.008804858 -0.0011271772 0.008785784 0.042077165 0.016436448 0.0029828267
0.020474594 0.007978994 0.023711482 -0.026918191 -0.010453743 -2.478934e-05 0.0065755215 0.016422583
0.0033077807 0.011281761 -0.013803367 -0.020310342 0.0032628924 0.013363743 0.0037493228 -0.0022233396
0.0002806276 0.012428221 -0.010192305 -0.008304054 0.010108964 0.023929501 -0.018526766 0.011446843
-0.018914727 -0.011790927 -0.0056276033 0.02230545 -0.0095925825 0.008709803 -0.015213388 0.0067958147
0.008383457 0.0055368096 0.019563485 -0.002587864 0.0028444738 0.012530602 0.032307852 -0.0062331557
0.020239979 0.006025708 0.01259288 -0.027656889 0.024594832 -0.011988967 -0.028961644 0.0017961502
-0.019713117 0.0066955327 0.014995336 0.021219049 0.017759105 0.020916788 -0.014673486 0.0007947326
0.023943964 0.024565125 -0.015731705 0.018859848 -0.014079175 -0.019888595 -0.0010837168 -0.010477635
0.015712162 -0.027442731 0.016232727 -0.0044497782 -0.005258118 0.012394107 0.023318246 -5.913973e-05
0.023318939 0.01231135 0.014191768 0.026331674 0.01892975 0.003403845 0.01899251 0.008798066
0.028312434 -0.005699104 -0.0005692482 0.018538471 0.020107681 -0.0160691 0.01007131 -0.017645603
-0.0030425906 -0.0022527964 0.019772394 0.021484653 0.014264223 -0.013707853 -0.0041615367 0.00207524
-0.002409339 0.018310828 -0.0040873173 -0.009014067 0.019341724 -0.01507284 -0.022287343 0.011314931
0.012498677 -0.022591852 0.023114013 -0.0010257523 0.018277548 -0.009182259 0.017866975 0.002921697

fc1.bias f4 [80]
00000000: 5aa8 0ebb abbf 81bc f3f8 943c 6c7b d2bb
00000010: b057 023c ca43 25bc f401 163c 6fd3 4d3c
00000020: a972 003c 4c93 133b 1fc1 a43b 834b ad3c
00000030: 9e31 59bb 204d 71bc 0424 c03c 21bf 4ebc
00000040: 86ac 7c3c 0ea8 6e3c 5254 023d 483a 823a
00000050: 5a71 9b3c 2d4f 55b9 0055 cdba b886 ab3b
00000060: 2812 41bc 6169 87bb f90a 65bc 14de 643b
00000070: 6312 4d39 21f6 b43c a12c e43c f2d1 a33c
00000080: aac2 153b fd34 59bb ed6d 3c3c a8a1 12bc
00000090: 9e33 523c 5881 eb3b 2015 b93c 83e4 31bc
000000a0: fca1 933b cdfa adbc 2f87 013c b60b c1ba
000000b0: 82d4 c2bc 83eb f039 e69f 753b 3554 d33c
000000c0: b573 17bb 2d58 e43c 9c52 afbb e01f 773c
000000d0: 6041 f4bb efc2 a53c 085b 59bc 9bfc 983c
000000e0: 2c4f 883c bc3f 04bc 35e0 b9bc 8da6 7f3b
000000f0: b759 113c c4f0 b0bc f9cf f4bb a2fe a7ba
00000100: 3f2c 78bc ebcb d03c 390b 0d3c 9ce4 84bb
00000110: b889 8abc 6dc9 0ebc 8d85 acbb ce98 8d3c
00000120: 1a98 073c 5b2f cb3c fdfe acbc 369c a43c
00000130: a094 69bc aad7 c8bb 3649 b8bc 99d2 083b
-0.0021767826 -0.015838465 0.018185114 -0.0064234044 0.007955477 -0.010086963 0.009155739 0.012562617
0.007839837 0.0022518216 0.0050279046 0.02115417 -0.0033141146 -0.014727861 0.023454674 -0.012618811
0.015421992 0.014566435 0.031818695 0.0009935582 0.018974949 -0.00020342758 -0.0015665591 0.0052345656
-0.011784114 -0.004132435 -0.013979667 0.0034922408 0.00019557173 0.02209002 0.027853312 0.01999757
0.0022851625 -0.0033143156 0.011500818 -0.008949675 0.012829689 0.00718705 0.022593081 -0.010857704
0.004505394 -0.021237755 0.007905765 -0.0014728222 -0.023782972 0.00045951837 0.003747934 0.025796989
-0.0023109738 0.027874077 -0.005350424 0.015083283 -0.0074540824 0.020234553 -0.013266332 0.01867514
0.016639315 -0.008071836 -0.022689918 0.0039009184 0.008871487 -0.021599181 -0.0074710813 -0.0012816975
-0.015147268 0.02548786 0.008608633 -0.0040555727 -0.016911373 -0.008715016 -0.005264944 0.017284777
0.00827601 0.024802854 -0.021117682 0.020094018 -0.014256626 -0.006129225 -0.022495847 0.002087748

fc2.weight f4 [10, 80]
00000000: b14a 00bd d509 5abc c99a 453d ff62 0e3d
00000010: 6280 793c f7a8 443d 9f6f 433d a7aa 0abd
00000020: a13e b7bc 3c95 d93b b063 92bd 2bd1 cdbd
00000030: d2bc a3bd 73d3 a9bc 1078 f6bd d6ad c3bd
00000040: 2da3 8f3d c57e b43d 1de5 fabd 27ed 4a3d
00000050: 1f90 00b9 e852 dbbd aa7e c13c 2820 90bd
00000060: 7b15 a63d a8bd ef3c 833b 333c 7bff acbd
00000070: dbb7 7a3d 188f 89bd 0b09 dabd 5e00 a63d
00000080: c715 7fbd 93d6 5abd f237 9abd 6e8e 7d3d
00000090: 7da4 b63d d49b af3d ca50 6b3d 693b e8bd
000000a0: 525e c6ba e201 aa3d 34be 80bd 520f ddbd
000000b0: ede8 923c 164a 41bd 0867 163d b7bc 01bd
000000c0: 842c 173d 10ad 1fbd 6c89 99bc 2c04 1bbd
000000d0: 9d77 c1bd 6c88 24bd 1877 92bd c22b babc
000000e0: 7404 46bd 80ae 30bd 0b79 a63d efad c8bd
000000f0: b324 863d d79e 4ebc 8af3 8ebd 1ebe e6bd
00000100: 421c 0b3d 885d 0a3d 193e 6c3d d537 db3d
00000110: c9fd e6bd 8e14 7abd 6d26 ab3d 1806 a5bd
00000120: 4c88 853d 91d2 133d 8383 b43d d170 a13d
00000130: e8b7 bd3d e778 08bd d2fd 0cbd 958e e43b
00000140: 1101 803d 086e 303c 86d6 193d 8d06 b5bd
00000150: d3fb c63d 31ba c4bd 4d6e d73c 5cc7 e5bd
00000160: c36a 42bd 4b8a ddbd 6108 73bd 638d f1bd
00000170: 1af2 26bd 203f aabd 4cfa 1f3c 8d1a 77bd
00000180: 1b29 653d d1a4 e1bd 7f56 a63a 1d96 b33c
00000190: 599d f3bc db8c 0abd b126 c0bd aede b13d
000001a0: bbba 6b3d f673 b4bd a216 57bc 3c8c 17bd
000001b0: 3822 943d cdd5 4fbd 5c91 76bd 55dd 7c3d
000001c0: 0ff7 ffbd 5864 51bd db4b 02bc 7ff5 703c
000001d0: 490f b2bd 2e65 823d f097 a03d 210a 98bd
000001e0: 5edf 8dbc 318e 86bd 6513 a93d c055 b3bd
000001f0: 7a1a 76bd b53f 583d e7e4 1cbd 2008 82bd
00000200: 2a48 91bd 393b cebd fea7 9b3d 94c0 1bbc
00000210: 74ab a8bd b007 4b3d c4ed b9bd 0ee2 5f3d
00000220: 897d b23d e1f5 a43a e3d3 6b3d 87a5 c73c
00000230: de77 6bbd 2b94 433d 8087 debd 5cc2 c93d
00000240: 59c7 d63d a243 e43c df49 db3d 3041 babd
00000250: 5aff abbd ec64 dd3c cb7b 4b3d 90e0 443d
00000260: 5e59 50bd 8723 ad3d 1a0a cd3c e530 dc3b
00000270: cbed 6a3b bed5 82bd a946 093c 4231 11bc
00000280: 7e8e 60bc 7245 263d 5fad f4bd caf0 1bbd
00000290: 1672 81bd b732 2fbd 184f 40bc 08e1 853d
000002a0: 8595 513d 1566 fbbd 5a56 efbc 30a3 eabd
000002b0: 3dfd b83d 9f54 92bd d9c7 b1bd bd94 76bd
000002c0: 7e05 c1bd e14c 8bbd 170f 743d c870 bf3d
000002d0: 71e9 843d 936c 37bd 2f24 37bd 2750 e4bd
000002e0: 21fa 723d ff13 583d 1d7b a03d 82e4 6cbd
000002f0: dfe5 aabd c00a fdbc d2a2 dabd daf2 563d
00000300: 2e2e 03be 517d 3e3d ad49 9b3d 7984 bd3d
00000310: ea47 46bd fe13 a4bd 89b3 b33d 267b 82bd
00000320: 0521 cebd dd85 1fbc b968 a13d 1271 863d
00000330: 8fcf 01bd e8f1 2d3c 12f7 923d 3aa8 953a
00000340: 1837 73bc b6b8 993d 8d03 b4bc 82a6 babd
00000350: 5b27 fbbd b31a b83d ba6b 833d 38d4 263d
00000360: 9576 503d 795a 503d 9789 c43d be2c d3bd
00000370: ba21 8f3d e330 eebc a080 ac3d a2ed abbc
00000380: 696a 99bd 6f38 02be 220e c8bd 0797 87bd
00000390: bb47 fa3c 248e ebbd d8e4 06bd 3200 883d
000003a0: 6b42 52bd cb51 f9bc 5de0 4bbb 6d2b 2fbd
000003b0: 608d 60bd 60e4 58bb d29f 85bd cc8f a13d
000003c0: a024 c0bd 3bf7 acbd 4838 9d3c a3df c8bc
000003d0: 12ee 6bbd 5542 7b3d 9dc8 c13d 5654 00be
000003e0: b944 803c 445e f2bd 4300 623c b4a6 75bc
000003f0: 709f 9a3c daf7 903d 429a 8b3d 4eaf 473d
-0.03132123 -0.013308008 0.048243318 0.03476238 0.015228363 0.0480127 0.047713872 -0.033854153
-0.022368731 0.0066401046 -0.0714792 -0.10049661 -0.07994999 -0.02073071 -0.12034619 -0.09554641
0.07013545 0.08813242 -0.12250731 0.049542572 -0.0001226072 -0.107091725 0.023619968 -0.07037383
0.08109566 0.02926524 0.010939482 -0.084471665 0.061210494 -0.06716746 -0.10646256 0.08105539
-0.062276628 -0.05342729 -0.07530202 0.06190341 0.089180924 0.08574644 0.057450093 -0.113394566
-0.0015134311 0.0830114 -0.06286278 -0.10793938 0.017933333 -0.047189794 0.036719352 -0.031674113
0.036907688 -0.038983405 -0.018742286 -0.037845775 -0.094466425 -0.040169165 -0.071516216 -0.022725943
-0.04834409 -0.043135166 0.08128556 -0.097988 0.065499686 -0.012611113 -0.06980045 -0.11266731
0.033962496 0.033780605 0.05767641 0.107040085 -0.112788744 -0.06105476 0.083569385 -0.08057803
0.06520137 0.036089484 0.08814146 0.07882846 0.09263593 -0.033318426 -0.03442175 0.006975005
0.062502034 0.010768421 0.0375581 -0.0883914 0.097160004 -0.09605826 0.026297713 -0.112196654
-0.047465097 -0.10817393 -0.059334163 -0.117945455 -0.04075823 -0.083128214 0.009764265 -0.060328055
0.055947404 -0.11017764 0.0012690573 0.021922166 -0.029738115 -0.033825736 -0.0938238 0.08685051
0.057551127 -0.0881118 -0.013127955 -0.036998972 0.07233089 -0.050741006 -0.06019722 0.061734516
-0.124982946 -0.051121086 -0.007952656 0.014706968 -0.08694322 0.06366955 0.0784148 -0.07423807
-0.017318424 -0.065700896 0.08255652 -0.0875659 -0.060083844 0.05279513 -0.038304236 -0.06349206
-0.07093842 -0.100698896 0.07600401 -0.009506363 -0.08235827 0.04956788 -0.09078553 0.054658942
0.0871535 0.0012585485 0.057575118 0.024370922 -0.05748736 0.047748726 -0.10865688 0.09851524
0.10487241 0.027864281 0.10707449 -0.09094465 -0.08398314 0.027025662 0.049678605 0.048065722
-0.050866477 0.08454042 0.02502923 0.006719696 0.0035847302 -0.06388424 0.008378663 -0.008861842
-0.013705848 0.040593572 -0.119471304 -0.03807143 -0.06320588 -0.042772975 -0.011737607 0.06537062
0.051167984 -0.1227533 -0.02921598 -0.11456907 0.09032676 -0.071450464 -0.08680696 -0.06020044
-0.09424876 -0.06801773 0.059584703 0.09347683 0.06489838 -0.04478128 -0.04471224 -0.111481
0.059320573 0.052753445 0.07835982 -0.05783511 -0.08344626 -0.030888915 -0.10675587 0.052477695
-0.12810585 0.04650623 0.07582412 0.09253783 -0.048408426 -0.08011626 0.08774478 -0.06371145
-0.10064892 -0.009736505 0.078813024 0.06564535 -0.031692084 0.010616757 0.07176031 0.0011417933
-0.014844678 0.07505934 -0.02197435 -0.0911379 -0.12263366 0.089894675 0.064170316 0.04072973
0.05089434 0.05086753 0.09596556 -0.10311268 0.06988855 -0.029076045 0.08422971 -0.020987336
-0.07490999 -0.1271684 -0.097683206 -0.06620603 0.030551782 -0.115017205 -0.032933086 0.06640662
-0.051332872 -0.03043451 -0.0031109073 -0.042766023 -0.054822326 -0.0033095106 -0.06524624 0.07888755
-0.09381986 -0.08445593 0.019191876 -0.0245207 -0.05760009 0.061342556 0.09462092 -0.12532172
0.01565777 -0.11834386 0.013794008 -0.014993358 0.018874854 0.07078524 0.06816532 0.048751168

fc2.bias f4 [10]
00000000: 0993 87bc 7769 e7bc 6fcf c4bd 3028 dcbd
00000010: 40af aa3c db88 75bc 4a0c 44bd ab96 a6bd
00000020: a0f7 2d3c 93a5 b6bd
-0.016549604 -0.028248532 -0.09609877 -0.10749853 0.020835519 -0.014986242 -0.047863282 -0.081342064
0.01061812 -0.089182995
