classify-ckpt/model_epoch_63.pth (torch, 517704 bytes, 4 tensors)

fc1.weight f4 [80, 1600]
0	0x3ca0b95f	0.019619642
1	0xbc5ddf2d	-0.013541979
2	0xbc57a33d	-0.013161478
3	0xbcb0a06b	-0.021560868
4	0x3bd6f7ea	0.0065603154
5	0x3caa818b	0.020813724
6	0x3c591cd0	0.013251498
7	0xbc9b73da	-0.01897614
8	0xbbff18e7	-0.007784951
9	0x3bd034b8	0.006353941
10	0xbc8e1431	-0.017343612
11	0x3c9d9170	0.019234389
12	0xbc218521	-0.009858401
13	0x3cbd4a5b	0.023106745
14	0x3c9412dc	0.0180754
15	0xbcbde50f	-0.023180513
16	0xbc99a5af	-0.018755762
17	0x3ca2e9cb	0.019886872
18	0x3c87546a	0.016519744
19	0x3cebc7c6	0.028781783
20	0x3b8a0883	0.0042124405
21	0x3c92769f	0.017878829
22	0xbc94f1df	-0.01818174
23	0x3cb6bc28	0.022306517
24	0x3a175082	0.00057721895
25	0x3cc6f8f5	0.024288634
26	0xbc832ca7	-0.016012503
27	0xbc9bd778	-0.019023642
28	0xbc24940d	-0.010045064
29	0xbc93c50c	-0.018038295
30	0xbcb0fcd4	-0.021604933
31	0x3c9321e2	0.017960493
32	0x3c67f25d	0.014156905
33	0x3c045d6d	0.008078915
34	0xbbda5653	-0.0066631227
35	0xba07459a	-0.0005160213
36	0x3c37e6e0	0.0112244785
37	0x3c8a098d	0.016850257
38	0x3be4b89a	0.006980014
39	0xbc003837	-0.007825903
40	0xbcca3a90	-0.024686128
41	0x3bc1f60d	0.005919224
42	0xbb834e47	-0.004007134
43	0x3c40c507	0.011765725
44	0x3b53a5a3	0.0032294772
45	0xbcbf1fbb	-0.02333056
46	0x3c913748	0.017726555
47	0x3b6095e7	0.0034269036
48	0x3cb4a52a	0.022051413
49	0xbcddbbdb	-0.027067116
50	0x3c00c4de	0.007859437
51	0x3c62defa	0.013847107
52	0xbcd67126	-0.026177
53	0x3cb67505	0.022272596
54	0x3cdc1e8c	0.026870035
55	0xbb0d8fc0	-0.0021600574
56	0xbc98f963	-0.018673604
57	0xb9ef36cd	-0.00045626462
58	0x3ca9a604	0.020709045
59	0x3d01ac0c	0.031658217
60	0x3c869caf	0.016432134
61	0xbc9dbeb8	-0.01925598
62	0xbc9f92ca	-0.019479174
63	0x3cafe6a3	0.02147228
64	0x3a2ea34b	0.0006661906
65	0xbc7de4a7	-0.0154964095
66	0x3b9a8a13	0.0047161668
67	0x3c6d0572	0.01446663
68	0x39118733	0.00013878643
69	0x3b8d6228	0.0043146797
70	0x3c885124	0.016640253
71	0x3bc78980	0.0060893893
72	0xbc435a0d	-0.011923325
73	0x3ba453c0	0.0050148666
74	0x3b94c415	0.0045399764
75	0x3ca8da02	0.020611767
76	0x3b8e3de7	0.0043408754
77	0x3c5bdc0d	0.013419163
78	0x3b3d9f1a	0.0028933943
79	0x3c7330b3	0.014843154
80	0xbce77da3	-0.02825815
81	0xbbfef196	-0.007780264
82	0xbcfe5a7c	-0.031049006
83	0xbc07be14	-0.008285064
84	0xbc786f53	-0.0151632605
85	0xba9abb55	-0.0011805097
86	0x3bec835a	0.0072178068
87	0xbcbad1bc	-0.022805087
88	0xbc08999b	-0.008337404
89	0x3b0eca23	0.0021787963
90	0x3c3625a4	0.011117373
91	0xbcdf23c6	-0.027238738
92	0xbcd36b2b	-0.025807938
93	0x3b2fa997	0.0026803964
94	0x3c910f05	0.017707357
95	0xbd02ea90	-0.031961977
96	0xbc6ceb8d	-0.014460457
97	0x3cecef85	0.028922806
98	0xbb231b4f	-0.0024888103
99	0x3cb76e7e	0.022391554
100	0xbbe0e775	-0.0068635293
101	0xbc7d81b2	-0.015472816
102	0xbcfda794	-0.030963697
103	0x3b20ea87	0.0024553852
104	0xbc6e00af	-0.01452653
105	0xbc8ad7e7	-0.016948653
106	0xbc01a6ce	-0.0079133045
107	0xbcb7d3bd	-0.022439832
108	0xbccbd1b6	-0.024880271
109	0xbcbd87a9	-0.023135977
110	0x3c5c1b0b	0.013434182
111	0xbc243797	-0.010023019
112	0x3c45d6ef	0.01207517
113	0xbc52f359	-0.012875401
114	0x3c9930a4	0.018699951
115	0xbc491516	-0.012273094
116	0xbc4c0cf3	-0.012454259
117	0xbc9c50da	-0.019081522
118	0xbc34c9b7	-0.011034421
119	0xbbd89330	-0.006609343
120	0xba17b69a	-0.00057874026
121	0xbc47f4cd	-0.012204361
122	0x3cc9ae75	0.02461932
123	0xbc56c383	-0.013108137
124	0x3ce31480	0.027719736
125	0x3cc42fd7	0.023948593
126	0xbcb29cdb	-0.02180331
127	0xbbc0113a	-0.0058614286
128	0x3cbd3d9d	0.023100669
129	0xbcb1d019	-0.021705674
130	0xbc4165ad	-0.011804027
131	0xbcb58bca	-0.022161383
132	0x3c02d759	0.007985913
133	0x3d03a72c	0.03214185
134	0x3ca95493	0.020670211
135	0x3bbee078	0.0058250986
136	0x3cae1573	0.021250462
137	0x3cd179da	0.025570799
138	0x3c104240	0.008804858
139	0xba58a952	-0.0008264977
140	0x3c0ff240	0.008785784
141	0x3d2d77f7	0.042350736
142	0x3c86a5bb	0.016436448
143	0x3b45e11c	0.003019399
144	0x3ca745d5	0.02041904
145	0x3c0353b9	0.0080155665
146	0x3cc23e95	0.023711482
147	0xbcdc838a	-0.026918191
148	0xbc2b462d	-0.010453743
149	0xb98a9606	-0.00026433187
150	0x3bd77779	0.0065755215
151	0x3c8688a7	0.016422583
152	0x3b58c75a	0.0033077807
153	0x3c38d723	0.011281761
154	0xbc618e1e	-0.0137667935
155	0xbca661e0	-0.020310342
156	0x3b55d640	0.0032628924
157	0x3c5af39a	0.013363743
158	0x3b75b733	0.0037493228
159	0xbb11b573	-0.0022233396
160	0x39932133	0.0002806276
161	0x3c4b9fbd	0.012428221
162	0xbc26fda0	-0.010192305
163	0xbc080dba	-0.008304054
164	0x3c24b70f	0.01005341
165	0x3cc407cd	0.023929501
166	0xbc97c572	-0.018526766
167	0x3c3b8b8a	0.011446843
168	0xbc9af30f	-0.018914727
169	0xbc412ebb	-0.011790927
170	0xbbb867c2	-0.0056276033
171	0x3cb6b9eb	0.02230545
172	0xbc1e1331	-0.00964813
173	0x3c0eb390	0.008709803
174	0xbc78a82d	-0.015176815
175	0x3bdeaf6d	0.0067958147
176	0x3c0871c8	0.008327909
177	0x3bb56e20	0.0055368096
178	0x3ca0439a	0.019563485
179	0xbb15e497	-0.0022871846
180	0x3b3a6a5a	0.0028444738
181	0x3c4d4d27	0.012530602
182	0x3d047b96	0.032344423
183	0xbbcc3f80	-0.0062331557
184	0x3ca559cf	0.020184426
185	0x3bc5734d	0.006025708
186	0x3c4eebc3	0.012629452
187	0xbce290b3	-0.027656889
188	0x3cc97b1a	0.024594832
189	0xbc485a16	-0.012228509
190	0xbced40f8	-0.028961644
191	0x3aeb6ccd	0.0017961502
192	0xbca17d67	-0.019713117
193	0x3bdb6633	0.0066955327
194	0x3c764865	0.015031909
195	0x3cadd392	0.021219049
196	0x3c917b8b	0.017759105
197	0x3cab59af	0.020916788
198	0xbc706910	-0.014673486
199	0x3a50559a	0.0007947326
200	0x3cc42622	0.023943964
201	0x3cc93ccd	0.024565125
202	0xbc80dfc7	-0.015731705
203	0x3c9a7ff8	0.018859848
204	0xbc679559	-0.014134728
205	0xbca2ed68	-0.019888595
206	0xba8e0b80	-0.0010837168
207	0xbc2baa63	-0.010477635
208	0x3c80b6cb	0.015712162
209	0xbce0cf94	-0.027442731
210	0x3c84fa7f	0.016232727
211	0xbb93a16a	-0.004505326
212	0xbbac4c4a	-0.005258118
213	0x3c4b10a7	0.012394107
214	0x3cbf529c	0.02335482
215	0xb8780ccd	-5.913973e-05
216	0x3cc18819	0.023624467
217	0x3c48cc8f	0.012255802
218	0x3c688497	0.014191768
219	0x3cda2c19	0.026632356
220	0x3c9b1290	0.01892975
221	0x3b6178a0	0.0034404173
222	0x3c9dd3e4	0.019266076
223	0x3c1025c3	0.008798066
224	0x3ce77af9	0.02825688
225	0xbbbabf8d	-0.005699104
226	0xba15399a	-0.0005692482
227	0x3c982ab2	0.018575046
228	0x3ca4b8dd	0.020107681
229	0xbc8599b3	-0.016308641
230	0x3c250223	0.01007131
231	0xbc908d83	-0.017645603
232	0xbb476633	-0.0030425906
233	0xbb13a3a7	-0.0022527964
234	0x3ca2466b	0.019808969
235	0x3cb00095	0.021484653
236	0x3c69b47d	0.014264223
237	0xbc6096e7	-0.013707853
238	0xbb885d80	-0.0041615367
239	0x3b0800c0	0.00207524
240	0xbb1de600	-0.002409339
241	0x3c960097	0.018310828
242	0xbb85eee7	-0.0040873173
243	0xbc13afbd	-0.009014067
244	0x3c9dfe08	0.01928617
245	0xbc76f413	-0.01507284
246	0xbcb693f2	-0.022287343
247	0x3c396243	0.011314931
248	0x3c4cc740	0.012498677
249	0xbcb9128c	-0.022591852
250	0x3cbce51b	0.023058465
251	0xba867289	-0.0010257523
252	0x3c95bacc	0.018277548
253	0xbc167130	-0.009182259
254	0x3c92aa77	0.01790355
255	0x3b537fd9	0.0032272248

fc1.bias f4 [80]
0	0xbb0c4318	-0.0021402296
1	0xbc817308	-0.015801921
2	0x3c95455d	0.018221552
3	0xbbcf6096	-0.0063286526
4	0x3c024edd	0.007953373
5	0xbc24aa51	-0.010050372
6	0x3c1568cb	0.009119223
7	0x3c506f3f	0.012721836
8	0x3c05404a	0.0081330035
9	0x3b270617	0.0025485808
10	0x3ba5f3ce	0.005064464
11	0x3cad5201	0.021157267
12	0xbb56cc9d	-0.0032775768
13	0xbc714d20	-0.014727861
14	0x3cbfd77b	0.023418179
15	0xbc4e25de	-0.01258227
16	0x3c7d949f	0.015477329
17	0x3c6fa053	0.014625627
18	0x3d022dfd	0.03178214
19	0x3a8982ad	0.0010491215
20	0x3c9bbe04	0.019011505
21	0xb91b0915	-0.00014785335
22	0xbacd5500	-0.0015665591
23	0x3bad590d	0.0052901567
24	0xbc41ab72	-0.011820661
25	0xbb863710	-0.0040959194
26	0xbc6471aa	-0.013943115
27	0x3b61414f	0.0034371202
28	0x39736806	0.00023213038
29	0x3cb4a981	0.022053482
30	0x3ce42efe	0.027854439
31	0x3ca38544	0.019961007
32	0x3b20c9e7	0.0024534406
33	0xbb5934fd	-0.0033143156
34	0x3c3d560b	0.011556159
35	0xbc12a1a8	-0.008949675
36	0x3c5166de	0.012780873
37	0x3bea4ea9	0.0071504903
38	0x3cb98955	0.022648493
39	0xbc32cd93	-0.0109132705
40	0x3b926f3b	0.004468826
41	0xbcadbf7d	-0.021209473
42	0x3c018ea9	0.007907548
43	0xbac14ddb	-0.0014747934
44	0xbcc2d482	-0.023782972
45	0x39ddc00a	0.00042295485
46	0x3b780525	0.0037844863
47	0x3cd5a398	0.026078984
48	0xbb1781e2	-0.0023118188
49	0x3ce3e3a2	0.027818505
50	0xbbad81a7	-0.005294997
51	0x3c7a5228	0.015278377
52	0xbbf967d3	-0.0076112538
53	0x3ca60f9d	0.020271117
54	0xbc5a4417	-0.013321898
55	0x3c98affa	0.0186386
56	0x3c880296	0.016602796
57	0xbc03a678	-0.008035295
58	0xbcb99397	-0.022653384
59	0x3b7fa68d	0.0039009184
60	0x3c15d1e3	0.009144279
61	0xbcb04211	-0.021515878
62	0xbbf0d69c	-0.007349802
63	0xbaa7fea2	-0.0012816975
64	0xbc78c52d	-0.015183729
65	0x3cd0d248	0.025490895
66	0x3c0c7207	0.008572108
67	0xbb84e49c	-0.0040555727
68	0xbc8a3d0b	-0.01687481
69	0xbc0de045	-0.008659427
70	0xbba374e2	-0.0049882988
71	0x3c8d4c23	0.017248219
72	0x3c06fece	0.008239461
73	0x3ccba43f	0.024858592
74	0xbcad9ac3	-0.02119196
75	0x3ca4e829	0.020130234
76	0xbc699793	-0.0142573295
77	0xbbc7a537	-0.006092693
78	0xbcb89503	-0.022531992
79	0x3b052e17	0.002032166

fc2.weight f4 [10, 80]
0	0xbd019e9f	-0.031645413
1	0xbc5f598a	-0.013632188
2	0x3d4446dc	0.04791914
3	0x3d0d16a1	0.03444541
4	0x3c785750	0.015157536
5	0x3d43577b	0.04769085
6	0x3d421bba	0.047389723
7	0xbd0bf29c	-0.034166917
8	0xbcb9d534	-0.022684671
9	0x3bcf6b75	0.0063299485
10	0xbd930da5	-0.07180337
11	0xbdcdf5cd	-0.100566484
12	0xbda466c0	-0.080274105
13	0xbca9d373	-0.02073071
14	0xbdf72206	-0.12067036
15	0xbdc457c8	-0.095870554
16	0x3d8ef937	0.06981128
17	0x3db3d76c	0.08781323
18	0xbdfb8f07	-0.1228314
19	0x3d499952	0.049218483
20	0xb9ea3b3b	-0.00044676088
21	0xbddbfcca	-0.10741575
22	0x3cc17eaa	0.023619968
23	0xbd90ca1e	-0.07069801
24	0x3da56b89	0.08077151
25	0x3ced15fd	0.028941149
26	0x3c2debe9	0.010615327
27	0xbdada968	-0.08479577
28	0x3d7963ec	0.06088631
29	0xbd8a390d	-0.06749163
30	0xbdda2f66	-0.10653572
31	0x3da5567a	0.08073135
32	0xbd803319	-0.06259746
33	0xbd5ad693	-0.05342729
34	0xbd9ae1e8	-0.075626194
35	0x3d7d8e6e	0.06190341
36	0x3db687b7	0.08912604
37	0x3daef1df	0.08542227
38	0x3d69fcde	0.05712592
39	0xbde8e55b	-0.11371871
40	0xbaf0d910	-0.0018375237
41	0x3da96264	0.0827072
42	0xbd80e2d9	-0.06293268
43	0xbddd2f64	-0.10800055
44	0x3c92e8ed	0.017933333
45	0xbd429df7	-0.04751393
46	0x3d151327	0.03639522
47	0xbd03058f	-0.031987723
48	0x3d16df23	0.036833894
49	0xbd210066	-0.03930702
50	0xbc9c3144	-0.01906646
51	0xbd1c54bb	-0.038166743
52	0xbdc2217a	-0.094790414
53	0xbd25dc4a	-0.040493287
54	0xbd93210a	-0.07184036
55	0xbcbcd377	-0.023050053
56	0xbd475855	-0.048668224
57	0xbd320267	-0.043459322
58	0x3da5cf15	0.080961384
59	0xbdc8adef	-0.097988
60	0x3d857f35	0.065184034
61	0xbc53d2fb	-0.01292872
62	0xbd8f9bd5	-0.070121445
63	0xbde6be1e	-0.11266731
64	0x3d09c858	0.03363833
65	0x3d09191d	0.033471216
66	0x3d6aea30	0.057352245
67	0x3ddb37d5	0.107040085
68	0xbde7a7ba	-0.11311288
69	0xbd7b6871	-0.0613789
70	0x3daa8381	0.08325864
71	0xbda5b000	-0.0809021
72	0x3d84de97	0.06487768
73	0x3d127ea3	0.0357653
74	0x3db45855	0.088059105
75	0x3da0c9fb	0.07851025
76	0x3dbd9163	0.09256246
77	0xbd09ccc2	-0.033642538
78	0xbd0e51b7	-0.034745898
79	0x3bd9efed	0.006650916
80	0x3d7fdbcb	0.06246547
81	0x3c2fd49f	0.010731845
82	0x3d19b02c	0.037521526
83	0xbdb58936	-0.088640615
84	0x3dc6f9f9	0.09715647
85	0xbdc5388f	-0.09629928
86	0x3cd8b8ee	0.026455369
87	0xbde63920	-0.112413645
88	0xbd439ba6	-0.04775586
89	0xbdde1f22	-0.10845782
90	0xbd732ebb	-0.059370738
91	0xbdf18f36	-0.117948934
92	0xbd271874	-0.040794805
93	0xbdaa3f20	-0.083128214
94	0x3c228f8e	0.009921921
95	0xbd7740e7	-0.06036463
96	0x3d65635f	0.05600297
97	0xbde248e3	-0.11049058
98	0x3aad9ee5	0.0013246207
99	0x3cb4e0bd	0.02207982
100	0xbcf3ea0e	-0.029774692
101	0xbd09e78a	-0.03366808
102	0xbdc026b1	-0.0938238
103	0x3db1fbd1	0.08690608
104	0x3d6bf4ff	0.057606693
105	0xbdb48722	-0.08814837
106	0xbc57b00b	-0.0131645305
107	0xbd17b296	-0.037035547
108	0x3d940f0d	0.07229433
109	0xbd4f307b	-0.050583344
110	0xbd76953c	-0.060200915
111	0x3d7d179b	0.06179009
112	0xbe004ee8	-0.125301
113	0xbd516458	-0.051121086
114	0xbc0162ce	-0.007897092
115	0x3c70f57f	0.014706968
116	0xbdb23432	-0.08701362
117	0x3d82b7d6	0.0638272
118	0x3da0ea98	0.07857245
119	0xbd981d4d	-0.07427464
120	0xbc8d6ad8	-0.017262861
121	0xbd8733da	-0.06601687
122	0x3da91192	0.082553044
123	0xbdb3574b	-0.08756884
124	0xbd761a7a	-0.060083844
125	0x3d58195c	0.05275856
126	0xbd1d0b41	-0.03834081
127	0xbd82a654	-0.06379381
128	0xbd914a20	-0.07094216
129	0xbdceb997	-0.10093992
130	0x3d9bc521	0.07605959
131	0xbc20dd3e	-0.009818373
132	0xbda8bea0	-0.08239484
133	0x3d4ae156	0.049531303
134	0xbdba00f0	-0.0908221
135	0x3d60875f	0.0548166
136	0x3db26a5d	0.087116934
137	0x3aa02a97	0.0012219724
138	0x3d6bad89	0.057538543
139	0x3cc7a587	0.024370922
140	0xbd6cbebc	-0.057799086
141	0x3d424c8f	0.047436293
142	0xbdded0dc	-0.108796805
143	0x3dc9c25c	0.09851524
144	0x3dd6e47c	0.10492799
145	0x3ce1cd7a	0.0275638
146	0x3ddb6701	0.10713006
147	0xbdba4130	-0.09094465
148	0xbdac1286	-0.084019706
149	0x3cdeaf8c	0.027183317
150	0x3d4a4171	0.049378816
151	0x3d44ba36	0.048029147
152	0xbd4fb40e	-0.050708823
153	0x3dad40aa	0.08459599
154	0x3cca9d78	0.02473329
155	0x3bd22f9d	0.0064143674
156	0x3b6aaf6c	0.0035810126
157	0xbd82e8ea	-0.06392081
158	0x3c0bdbec	0.00853632
159	0xbc11caac	-0.008898418
160	0xbc65dd12	-0.014029758
161	0x3d24f214	0.040269926
162	0xbdf5572b	-0.119795166
163	0xbd1d0448	-0.03833416
164	0xbd818674	-0.06324473
165	0xbd307332	-0.04307861
166	0xbc459740	-0.012059987
167	0x3d853a86	0.06505303
168	0x3d5045ea	0.050847925
169	0xbdfc0dbb	-0.123073064
170	0xbcf1fc8d	-0.02953937
171	0xbdeab73f	-0.11460733
172	0x3db853d5	0.09000365
173	0xbd92549f	-0.071450464
174	0xbdb27196	-0.08713071
175	0xbd77e7f3	-0.06052394
176	0xbdc1af58	-0.09457272
177	0xbd8be7fd	-0.06831358
178	0x3d72bc28	0.05926147
179	0x3dbec8e5	0.09315661
180	0x3d843fde	0.06457494
181	0xbd38bd0d	-0.045102168
182	0xbd37242f	-0.04471224
183	0xbde4fa00	-0.11180496
184	0x3d71a786	0.058997653
185	0x3d56c2a6	0.052431725
186	0x3d9fd198	0.07803649
187	0xbd6e3641	-0.05815721
188	0xbdab8fc0	-0.083770275
189	0xbcffb129	-0.031212406
190	0xbddab7f2	-0.10679616
191	0x3d55a0fc	0.05215548
192	0xbe0381f0	-0.12842536
193	0x3d3e7d51	0.04650623
194	0x3d9a9fed	0.07550035
195	0x3dbd8479	0.09253783
196	0xbd46f7ac	-0.048576042
197	0xbda4bd7a	-0.08043952
198	0x3db309db	0.08742114
199	0xbd83244a	-0.06403406
200	0xbdceca62	-0.10097195
201	0xbc1e10c6	-0.009647554
202	0x3da154aa	0.078774765
203	0x3d865fcc	0.065612406
204	0xbd01cf8f	-0.031692084
205	0x3c28a567	0.010293341
206	0x3d924da1	0.07143713
207	0x3a576d66	0.0008217901
208	0xbc73e1d4	-0.014885385
209	0x3d991493	0.07474627
210	0xbcb6aa78	-0.022298083
211	0xbdbb4d44	-0.091455966
212	0xbdfbcc18	-0.12294787
213	0x3db77136	0.0895714
214	0x3d82c3b5	0.063849844
215	0x3d2581e8	0.04040709
216	0x3d4f2381	0.05057097
217	0x3d4f0732	0.05054397
218	0x3dc3dfeb	0.09564193
219	0xbdd32cbe	-0.10311268
220	0x3d8e7a29	0.06956894
221	0xbcf08f47	-0.029365195
222	0x3dabd90b	0.08391007
223	0xbcabeda2	-0.020987336
224	0xbd9a1426	-0.07523374
225	0xbe027c25	-0.1274267
226	0xbdc8b7ce	-0.09800683
227	0xbd879707	-0.06620603
228	0x3cf7a452	0.030229721
229	0xbdec36b6	-0.11533873
230	0xbd08339d	-0.033252347
231	0x3d875743	0.06608441
232	0xbd5393bd	-0.051654566
233	0xbcfbf8f8	-0.030758366
234	0xbb597095	-0.0033178676
235	0xbd305637	-0.04305097
236	0xbd60b7d8	-0.054862827
237	0xbb6df6fa	-0.003631054
238	0xbd864950	-0.06556952
239	0x3da0eba2	0.078574434
240	0xbdc0ce92	-0.094144
241	0xbdada12d	-0.084780075
242	0x3c9a9087	0.018867744
243	0xbccb7ec5	-0.024840722
244	0xbd6bee8f	-0.057600554
245	0x3d7a64c9	0.061131272
246	0x3dc11ec6	0.09429698
247	0xbe00a516	-0.12562975
248	0x3c7b53b0	0.015339777
249	0xbdf301ea	-0.118655995
250	0x3c5cb10c	0.013469946
251	0xbc75a899	-0.01499381
252	0x3c97f844	0.018551
253	0x3d90f7da	0.07078524
254	0x3d8af057	0.067841224
255	0x3d465b97	0.04842719

fc2.bias f4 [10]
0	0xbc8a3abe	-0.016873714
1	0xbce7b626	-0.028285097
2	0xbdc57846	-0.09642081
3	0xbddcd1f2	-0.107822314
4	0x3caafbf3	0.020872092
5	0xbc7ad7fe	-0.015310286
6	0xbd455ff6	-0.04818722
7	0xbda74049	-0.08166558
8	0x3c28a93f	0.010294258
9	0xbdb74ef4	-0.08950606
