classify-ckpt/model_epoch_32.pth (torch, 517704 bytes, 4 tensors)

fc1.weight f4 [80, 1600]
0.019619642 -0.013541979 -0.013161478 -0.021560868 0.006386583 0.020813724 0.013251498 -0.01897614
-0.007784951 0.0072862916 -0.017126458 0.019234389 -0.009460935 0.023106745 0.018124493 -0.023180513
-0.018755762 0.019886872 0.016519744 0.025895445 0.0015015496 0.017878829 -0.01818174 0.022306517
0.00040348605 0.024288634 -0.016012503 -0.018782174 -0.010045064 -0.015772011 -0.021387778 0.017960493
0.014156905 0.008078915 -0.006614023 -0.0005160213 0.0112244785 0.016850257 0.006980014 -0.007825903
-0.024686128 0.005919224 -0.004007134 0.011765725 0.003055744 -0.02333056 0.017726555 0.0034269036
0.022051413 -0.026134765 0.0080765905 0.013847107 -0.025779538 0.022272596 0.026919128 -0.0021600574
-0.018673604 -0.00045626462 0.017859623 0.028830549 0.013721248 -0.01925598 -0.019479174 0.02147228
0.00049245765 -0.0154964095 0.0047161668 0.0147081 0.00013878643 0.0065809647 0.016857408 0.0060893893
-0.011923325 0.0050148666 0.004589076 0.020611767 0.0043408754 0.013419163 0.0028933943 0.014843154
-0.028040996 -0.00756311 -0.030831851 -0.008067911 -0.015336994 -0.0009633557 0.007434961 -0.022587933
-0.00812025 0.0031285123 0.011334526 -0.027021583 -0.025248274 0.0028975504 0.017441496 -0.031744823
-0.014243303 0.026074057 -0.0022716564 0.019563884 -0.006646375 -0.018176202 -0.030746542 0.002672539
-0.01479239 -0.016731499 -0.007696151 -0.02200345 -0.024663117 -0.020854764 0.013651336 -0.009805866
0.012292324 -0.012658248 0.018749045 -0.01205594 -0.0122371055 -0.018864367 -0.010817267 -0.006392189
-0.00057874026 -0.012204361 0.02461932 -0.013108137 0.027546002 0.023948593 -0.02180331 -0.0058614286
0.023100669 -0.020773323 -0.011586873 -0.022161383 0.008383378 0.031968128 0.020719305 0.0056513688
0.021250462 0.022721376 0.008804858 -0.003654164 0.008785784 0.03963985 0.016436448 0.0030682092
0.020245306 0.008064374 0.023711482 -0.026676724 -0.010453743 0.002001953 0.0067926757 0.016422583
0.0033077807 0.011281761 -0.013717695 -0.020310342 0.0032628924 0.013363743 0.0037493228 -0.0022233396
0.0002806276 0.012428221 -0.010192305 -0.008304054 0.009879677 0.023929501 -0.018526766 0.011446843
-0.018914727 -0.010858576 -0.005410449 0.02230545 -0.00982186 0.008709803 -0.015127717 0.0067958147
0.008154179 0.0055368096 0.019563485 -0.00511485 0.0028444738 0.012530602 0.03239304 -0.0062331557
0.020010691 0.006025708 0.01267826 -0.02741542 0.024594832 -0.009962225 -0.028744489 0.0017961502
-0.019713117 0.0066955327 0.015081007 0.021219049 0.017759105 0.020916788 -0.014673486 0.0007947326
0.023943964 0.024565125 -0.015731705 0.018859848 -0.014308462 -0.019888595 -0.0010837168 -0.010477635
0.015712162 -0.02651038 0.016449882 -0.004679056 -0.0048606517 0.012394107 0.023403915 -5.913973e-05
0.020775044 0.012082072 0.014191768 0.023804685 0.01892975 0.0034892275 0.016555188 0.008798066
0.028083146 -0.005699104 -0.0005692482 0.018623851 0.020107681 -0.01404236 0.010288464 -0.017645603
-0.0030425906 -0.0022527964 0.019858062 0.021484653 0.014264223 -0.013707853 -0.0041615367 0.00207524
-0.002409339 0.018310828 -0.0040873173 -0.009014067 0.019112436 -0.01507284 -0.022287343 0.011314931
0.012498677 -0.0216595 0.022884732 -0.0008085983 0.01867501 -0.009182259 0.017952643 0.00037779787
00000000: 5fb9 a03c 2ddf 5dbc 3da3 57bc 6ba0 b0bc
00000010: 8b46 d13b 8b81 aa3c d01c 593c da73 9bbc
00000020: e718 ffbb d8c1 ee3b c94c 8cbc 7091 9d3c
00000030: 0a02 1bbc 5b4a bd3c d179 943c 0fe5 bdbc
00000040: afa5 99bc cbe9 a23c 6a54 873c af22 d43c
00000050: a5cf c43a 9f76 923c dff1 94bc 28bc b63c
00000060: fb8a d339 f5f8 c63c a72c 83bc 13dd 99bc
00000070: 0d94 24bc 4e34 81bc 6c35 afbc e221 933c
00000080: 5df2 673c 6d5d 043c 72ba d8bb 9a45 07ba
00000090: e0e6 373c 8d09 8a3c 9ab8 e43b 3738 00bc
000000a0: 903a cabc 0df6 c13b 474e 83bb 07c5 403c
000000b0: e142 483b bb1f bfbc 4837 913c e795 603b
000000c0: 2aa5 b43c 9318 d6bc ad53 043c fade 623c
000000d0: 9c2f d3bc 0575 b63c 8185 dc3c c08f 0dbb
000000e0: 63f9 98bc cd36 efb9 584e 923c 0b2e ec3c
000000f0: 16cf 603c b8be 9dbc ca92 9fbc a3e6 af3c
00000100: 4618 013a a7e4 7dbc 138a 9a3b 3efa 703c
00000110: 3387 1139 22a5 d73b 8c18 8a3c 8089 c73b
00000120: 0d5a 43bc c053 a43b f65f 963b 02da a83c
00000130: e73d 8e3b 0ddc 5b3c 1a9f 3d3b b330 733c
00000140: 3bb6 e5bc f7d3 f7bb 1493 fcbc 452f 04bc
00000150: 0448 7bbc b589 7cba f9a0 f33b 540a b9bc
00000160: cc0a 05bc ba07 4d3b 73b4 393c 5e5c ddbc
00000170: 78d5 cebc d4e4 3d3b 78e1 8e3c dc06 02bd
00000180: be5c 69bc 4399 d53c 12e0 14bb 7044 a03c
00000190: d6c9 d9bb 42e6 94bc 2ce0 fbbc c425 2f3b
000001a0: c85b 72bc 7f10 89bc fe2f fcbb 9440 b4bc
000001b0: 4e0a cabc 9cd7 aabc daa9 5f3c c8a8 20bc
000001c0: be65 493c 8a64 4fbc 9997 993c 4786 45bc
000001d0: 247e 48bc 7289 9abc e83a 31bc 9175 d1bb
000001e0: 9ab6 17ba cdf4 47bc 75ae c93c 83c3 56bc
000001f0: 27a8 e13c d72f c43c db9c b2bc 3a11 c0bb
00000200: 9d3d bd3c d12c aabc ded6 3dbc ca8b b5bc
00000210: 705a 093c 03f1 023d 88bb a93c 1e2f b93b
00000220: 7315 ae3c 2e22 ba3c 4042 103c b37a 6fbb
00000230: 40f2 0f3c 655d 223d bba5 863c 0214 493b
00000240: 7cd9 a53c 7020 043c 953e c23c 2589 dabc
00000250: 2d46 2bbc 3333 033b 1895 de3b a788 863c
00000260: 5ac7 583b 23d7 383c 2fc0 60bc e061 a6bc
00000270: 40d6 553b 9af3 5a3c 33b7 753b 73b5 11bb
00000280: 3321 9339 bd9f 4b3c a0fd 26bc ba0d 08bc
00000290: 5ede 213c cd07 c43c 72c5 97bc 8a8b 3b3c
000002a0: 0ff3 9abc 2be8 31bc 234a b1bb ebb9 b63c
000002b0: deeb 20bc 90b3 0e3c 3eda 77bc 6daf de3b
000002c0: 1b99 053c 206e b53b 9a43 a03c 799a a7bb
000002d0: 5a6a 3a3b 274d 4d3c 90ae 043d 803f ccbb
000002e0: 76ed a33c 4d73 c53b 7ab8 4f3c 4e96 e0bc
000002f0: 1a7b c93c 9a38 23bc 9079 ebbc cd6c eb3a
00000300: 677d a1bc 3366 db3b 5416 773c 92d3 ad3c
00000310: 8b7b 913c af59 ab3c 1069 70bc 9a55 503a
00000320: 2226 c43c cd3c c93c c7df 80bc f87f 9a3c
00000330: 0a6e 6abc 68ed a2bc 800b 8eba 63aa 2bbc
00000340: cbb6 803c 4c2c d9bc e7c1 863c c452 99bb
00000350: 1a46 9fbb a710 4b3c 91b9 bf3c cd0c 78b8
00000360: 6d30 aa3c e2f3 453c 9784 683c 0b02 c33c
00000370: 9012 9b3c 86ab 643b bf9e 873c c325 103c
00000380: a00e e63c 8dbf babb 9a39 15ba 0c91 983c
00000390: ddb8 a43c ed11 66bc f290 283c 838d 90bc
000003a0: 3366 47bb a7a3 13bb 60ad a23c 9500 b03c
000003b0: 7db4 693c e796 60bc 805d 88bb c000 083b
000003c0: 00e6 1dbb 9700 963c e7ee 85bb bdaf 13bc
000003d0: af91 9c3c 13f4 76bc f293 b6bc 4362 393c
000003e0: 40c7 4c3c 446f b1bc c378 bb3c 1df8 53ba
000003f0: 56fc 983c 3071 16bc 6c11 933c 2c13 c639

fc1.bias f4 [80]
-0.0024060186 -0.016067704 0.017956186 -0.0070745107 0.00797872 -0.010000987 0.009127896 0.011293702
0.005350145 -0.00021894724 0.004798641 0.021120971 -0.003543324 -0.014727861 0.023683818 -0.0128480345
0.015648503 0.013859612 0.031733308 0.0012228141 0.018745692 -0.0009036282 -0.0015665591 0.005148629
-0.011554868 -0.0043616532 -0.014208912 0.0032640693 -3.433071e-05 0.022319224 0.027841417 0.01991152
0.00048735994 -0.0033143156 0.011729029 -0.008949675 0.012785511 0.007416312 0.022821965 -0.011086904
0.0044194376 -0.021157261 0.007886698 -0.0014508304 -0.023782972 0.0003734263 0.0035186794 0.023632212
-0.0023013 0.027960122 -0.005121405 0.013402002 -0.0076812604 0.020007977 -0.013238584 0.018331882
0.016553363 -0.008301052 -0.0229191 0.0039009184 0.0064884587 -0.022157134 -0.008822369 -0.0012816975
-0.014918057 0.02481872 0.008837872 -0.0040555727 -0.01714064 -0.008485836 -0.0074527822 0.017198808
0.008253399 0.024716925 -0.021383025 0.019905467 -0.014248838 -0.0063584275 -0.02226683 0.0018585998
00000000: 4bae 1dbb 6ba0 83bc da18 933c 4cd1 e7bb
00000010: 2db9 023c 2edb 23bc 2c8d 153c 3809 393c
00000020: 4550 af3b 3495 65b9 eb3d 9d3b e305 ad3c
00000030: 1d37 68bb 204d 71bc 9104 c23c 9080 52bc
00000040: 4a31 803c 6d13 633c c9fa 013d d546 a03a
00000050: 9190 993c 76e1 6cba 0055 cdba d5b5 a83b
00000060: a150 3dbc 33ec 8ebb 7fcc 68bc ffe9 553b
00000070: 52fe 0fb8 ced6 b63c af13 e43c 7c1d a33c
00000080: 5884 ff39 fd34 59bb 1d2b 403c a8a1 12bc
00000090: 527a 513c 8904 f33b 21f5 ba3c d9a5 35bc
000000a0: eed0 903b fe51 adbc 3537 013c ca29 beba
000000b0: 82d4 c2bc 6ec8 c339 a599 663b 5798 c13c
000000c0: 68d1 16bb a00c e53c 75d1 a7bb 1294 5b3c
000000d0: 15b3 fbbb c5e7 a33c a5e6 58bc be2c 963c
000000e0: eb9a 873c 2301 08bc d6c0 bbbc 8da6 7f3b
000000f0: 239d d43b e182 b5bc b38b 10bc a2fe a7ba
00000100: de6a 74bc a150 cb3c b9cc 103c 9ce4 84bb
00000110: 876a 8cbc 2d08 0bbc 7836 f4bb 84e4 8c3c
00000120: 4439 073c 267b ca3c 742b afbc ca10 a33c
00000130: f573 69bc 5b5a d0bb ed68 b6bc 439c f33a

fc2.weight f4 [10, 80]
-0.028715447 -0.010702226 0.050849088 0.037342887 0.015926395 0.05061248 0.050319344 -0.031290714
-0.019792322 0.0091931755 -0.06887352 -0.09980927 -0.077344514 -0.02073071 -0.1177405 -0.09294082
0.07274124 0.09072099 -0.1199022 0.052147347 0.0024830415 -0.10450284 0.023619968 -0.067768045
0.08370113 0.031870607 0.013545134 -0.08186627 0.0638163 -0.06456184 -0.1057447 0.08366025
-0.05968238 -0.05342729 -0.072696246 0.06190341 0.090290084 0.08835205 0.060055837 -0.110788986
0.0010917805 0.08555164 -0.06217489 -0.10732989 0.017933333 -0.044584323 0.03932489 -0.029106278
0.03763213 -0.036378354 -0.016136529 -0.035250932 -0.09186151 -0.037563737 -0.06891067 -0.020121029
-0.045738626 -0.040529516 0.08389132 -0.097988 0.0680751 -0.010028538 -0.067205206 -0.11266731
0.036568236 0.036329996 0.06028212 0.107040085 -0.110183194 -0.0584493 0.08612492 -0.07797302
0.06780264 0.038695276 0.089595504 0.08141357 0.09335737 -0.030712996 -0.031816266 0.009580285
0.06273134 0.010997723 0.037787396 -0.086077355 0.09719571 -0.094544925 0.02568388 -0.110528044
-0.04498295 -0.105722286 -0.059104867 -0.117910504 -0.040528934 -0.083128214 0.00967801 -0.06009876
0.056176696 -0.10761793 0.0011828021 0.021308338 -0.02950881 -0.033251636 -0.0938238 0.08707983
0.05746488 -0.08749943 -0.012898653 -0.036769677 0.07256021 -0.050827265 -0.06016009 0.061648257
-0.122401595 -0.051121086 -0.007723355 0.014706968 -0.08576939 0.063583314 0.078328565 -0.07400875
-0.017404681 -0.063123986 0.08259152 -0.087536186 -0.060083844 0.05270887 -0.03807494 -0.060973607
-0.07090082 -0.09888582 0.07623333 -0.0069410023 -0.08212896 0.049481627 -0.09055621 0.054572683
0.08706726 0.0014878615 0.057804413 0.024370922 -0.05493213 0.05030527 -0.10725327 0.09851524
0.10510173 0.030367054 0.10698825 -0.09094465 -0.08337079 0.027254954 0.05218301 0.047979467
-0.051225793 0.08476974 0.027137574 0.00924617 0.0036221235 -0.062869385 0.008292406 -0.00863254
-0.011101264 0.043196883 -0.11686699 -0.035663478 -0.06279342 -0.040215246 -0.009143114 0.06795339
0.05375804 -0.12016461 -0.0266134 -0.114163965 0.09292821 -0.071450464 -0.08420325 -0.057597604
-0.09164399 -0.06549659 0.062185843 0.09606072 0.06750121 -0.042194158 -0.04471224 -0.10887627
0.0619198 0.055350963 0.080962196 -0.055237837 -0.08084118 -0.028286472 -0.10632979 0.055073936
-0.12551561 0.04650623 0.07842794 0.09253783 -0.04644177 -0.07751517 0.09034799 -0.061112657
-0.098048456 -0.00831028 0.07921855 0.06599836 -0.031692084 0.013218927 0.074361935 0.0037318936
-0.014414023 0.07754295 -0.019370664 -0.088552676 -0.120056696 0.09249649 0.06676297 0.04332641
0.05349639 0.05347072 0.09856897 -0.10311268 0.072477244 -0.026581163 0.08681977 -0.020987336
-0.07230627 -0.12479442 -0.095080085 -0.06620603 0.033149317 -0.11242421 -0.030346315 0.069003835
-0.048739146 -0.027830295 -0.0012212523 -0.04027842 -0.054393757 -0.0007125923 -0.06264516 0.081457466
-0.09121427 -0.08185039 0.021797389 -0.021928752 -0.057594594 0.063520074 0.097219914 -0.122769915
0.01824373 -0.1157778 0.016399201 -0.014987988 0.021478869 0.07078524 0.07077055 0.051355902
00000000: a83c ebbc 6458 2fbc 2247 503d dbf4 183d
00000010: 1278 823c 084f 4f3d a81b 4e3d b12a 00bd
00000020: 8223 a2bc f99e 163c 8f0d 8dbd cd68 ccbd
00000030: cd66 9ebd 73d3 a9bc ee21 f1bd c257 bebd
00000040: 5cf9 943d edcb b93d 498f f5bd 7598 553d
00000050: 86ba 223b 9605 d6bd aa7e c13c f9c9 8abd
00000060: 7f6b ab3d c18a 023d 69ec 5d3c 81a9 a7bd
00000070: 1fb2 823d ff38 84bd ad90 d8bd 1156 ab3d
00000080: 8375 74bd 93d6 5abd c5e1 94bd 6e8e 7d3d
00000090: 02ea b83d ebf1 b43d 1cfd 753d 56e5 e2bd
000000a0: 131a 8f3a b335 af3d 19ab 7ebd c6cf dbbd
000000b0: ede8 923c 0d9e 36bd 2313 213d 4a70 eebc
000000c0: 2624 1a3d 7801 15bd c130 84bc 4863 10bd
000000d0: e321 bcbd 6fdc 19bd 0a21 8dbd dbd4 a4bc
000000e0: 6d58 3bbd 4702 26bd 36cf ab3d efad c8bd
000000f0: f56a 8b3d bd4e 24bc e2a2 89bd 1ebe e6bd
00000100: 93c8 153d c3ce 143d 62ea 763d d537 db3d
00000110: baa7 e1bd 8868 6fbd 4362 b03d 52b0 9fbd
00000120: 1cdc 8a3d f07e 1e3d d97d b73d 28bc a63d
00000130: 2632 bf3d d299 fbbc c651 02bd a1f6 1c3c
00000140: 4a79 803d cb2f 343c f5c6 1a3d 5349 b0bd
00000150: 8b0e c73d c5a0 c1bd 0067 d23c 875c e2bd
00000160: 0b40 38bd ed84 d8bd f217 72bd 107b f1bd
00000170: ab01 26bd 203f aabd 8490 1e3c 1e2a 76bd
00000180: 8919 663d ca66 dcbd 4108 9b3a d38e ae3c
00000190: 76bc f1bc de32 08bd b126 c0bd e956 b23d
000001a0: 4b60 6b3d e732 b3bd df54 53bc cd9b 16bd
000001b0: 739a 943d 4030 50bd 6d6a 76bd e282 7c3d
000001c0: b0ad fabd 5864 51bd 3314 fdbb 7ff5 703c
000001d0: dda7 afbd f837 823d ba6a a03d e691 97bd
000001e0: 4394 8ebc 2647 81bd be25 a93d 2c46 b3bd
000001f0: 7a1a 76bd 42e5 573d 78f4 1bbd 76bf 79bd
00000200: 7334 91bd a684 cabd 3820 9c3d 5971 e3bb
00000210: 3a33 a8bd 3fad 4a3d 8975 b9bd 9b87 5f3d
00000220: 5250 b23d 5904 c33a 52c4 6c3d 87a5 c73c
00000230: 8300 61bd e60c 4e3d 9aa7 dbbd 5cc2 c93d
00000240: 933f d73d 54c4 f83c a81c db3d 3041 babd
00000250: 4ebe aabd c845 df3c dabd 553d 1e86 443d
00000260: 23d2 51bd c29b ad3d 9e4f de3c 3f7d 173c
00000270: 2661 6d3b aac1 80bd dfdc 073c 7f6f 0dbc
00000280: 13e2 35bc 37ef 303d f657 efbd de13 12bd
00000290: d699 80bd beb8 24bd 00cd 15bc 262b 8b3d
000002a0: 6431 5c3d dd18 f6bd 5804 dabc ccce e9bd
000002b0: 2551 be3d 9f54 92bd c172 acbd 77eb 6bbd
000002c0: d8af bbbd 1423 86bd 95b6 7e3d 7cbb c43d
000002d0: 133e 8a3d c8d3 2cbd 2f24 37bd 86fa debd
000002e0: 9e9f 7d3d b1b7 623d 82cf a53d 1241 62bd
000002f0: 1090 a5bd 08b9 e7bc 6fc3 d9bd 3595 613d
00000300: 2a87 00be 517d 3e3d d49e a03d 7984 bd3d
00000310: ba39 3ebd 46c0 9ebd 5e08 b93d 4451 7abd
00000320: a1cd c8bd d727 08bc 563d a23d 262a 873d
00000330: 8fcf 01bd 3394 583c 124b 983d c992 743b
00000340: cb28 6cbc d7ce 9e3d 3aaf 9ebc 1b5b b5bd
00000350: 49e0 f5bd cd6e bd3d 06bb 883d 0977 313d
00000360: 081f 5b3d 1d04 5b3d 87de c93d be2c d3bd
00000370: f36e 943d bdc0 d9bc 90ce b13d a2ed abbc
00000380: 4f15 94bd 3894 ffbd 59b9 c2bd 0797 87bd
00000390: 94c7 073d aa3e e6bd d698 f8bc e251 8d3d
000003a0: b3a2 47bd 5cfc e3bc 6d12 a0ba fcfa 24bd
000003b0: fdcb 5ebd 42cd 3aba 1b4c 80bd 2cd3 a63d
000003c0: 8cce babd 2da1 a7bd 7090 b23c eda3 b3bc
000003d0: 4fe8 6bbd d016 823d 3c1b c73d cb6e fbbd
000003e0: e073 953c e91c edbd 9e57 863c 2e90 75bc
000003f0: 74f4 af3c daf7 903d 26f0 903d 915a 523d

fc2.bias f4 [10]
-0.013944292 -0.028019242 -0.09350283 -0.104894936 0.020606225 -0.012381453 -0.045258675 -0.07874066
0.012857561 -0.08658605
00000000: 9a76 64bc 9c88 e5bc 697e bfbd 28d3 d6bd
00000010: 63ce a83c 94db 4abc 2961 39bd c842 a1bd
00000020: 85a8 523c 0754 b1bd
