classify-ckpt/model_epoch_22.pth (torch, 517704 bytes, 4 tensors)

fc1.weight f4 [80, 1600]
000000 5f b9 a0 3c 2d df 5d bc 3d a3 57 bc 6b a0 b0 bc
       0.019619642 -0.013541979 -0.013161478 -0.021560868
000010 c9 5d b2 3b 8b 81 aa 3c d0 1c 59 3c da 73 9b bc
       0.005443309 0.020813724 0.013251498 -0.01897614
000020 e7 18 ff bb 32 ac f6 3b c9 4c 8c bc 70 91 9d 3c
       -0.007784951 0.0075278515 -0.017126458 0.019234389
000030 e1 0b 19 bc 5b 4a bd 3c 21 29 94 3c 0f e5 bd bc
       -0.009341211 0.023106745 0.018086018 -0.023180513
000040 af a5 99 bc cb e9 a2 3c 6a 54 87 3c 10 f6 bf 3c
       -0.018755762 0.019886872 0.016519744 0.023432761
000050 9f 5b 78 ba 9f 76 92 3c df f1 94 bc 28 bc b6 3c
       -0.0009474102 0.017878829 -0.01818174 0.022306517
000060 92 80 0d ba f5 f8 c6 3c a7 2c 83 bc 51 84 98 bc
       -0.00053978816 0.024288634 -0.016012503 -0.01861778
000070 0d 94 24 bc f0 99 5e bc 6c 35 af bc e2 21 93 3c
       -0.010045064 -0.013586506 -0.021387778 0.017960493
000080 5d f2 67 3c 6d 5d 04 3c 35 fd d9 bb 9a 45 07 ba
       0.014156905 0.008078915 -0.006652499 -0.0005160213
000090 e0 e6 37 3c 8d 09 8a 3c 9a b8 e4 3b 37 38 00 bc
       0.0112244785 0.016850257 0.006980014 -0.007825903
0000a0 90 3a ca bc 0d f6 c1 3b 47 4e 83 bb 07 c5 40 3c
       -0.024686128 0.005919224 -0.004007134 0.011765725
0000b0 5d 71 0a 3b bb 1f bf bc 48 37 91 3c e7 95 60 3b
       0.0021124699 -0.02333056 0.017726555 0.0034269036
0000c0 2a a5 b4 3c fd 1d d4 bc ad 53 04 3c fa de 62 3c
       0.022051413 -0.025893206 0.0080765905 0.013847107
0000d0 88 34 d2 bc 05 75 b6 3c d1 34 dc 3c c0 8f 0d bb
       -0.025659814 0.022272596 0.026880654 -0.0021600574
0000e0 63 f9 98 bc cd 36 ef b9 1f 50 7c 3c 97 0e d8 3c
       -0.018673604 -0.00045626462 0.015399962 0.026374144
0000f0 67 af 38 3c b8 be 9d bc ca 92 9f bc a3 e6 af 3c
       0.011272288 -0.01925598 -0.019479174 0.02147228
000100 93 5b ec b9 a7 e4 7d bc 13 8a 9a 3b c1 ab 73 3c
       -0.00045081656 -0.0154964095 0.0047161668 0.014872492
000110 33 87 11 39 3b a1 0f 3c 8c 18 8a 3c 80 89 c7 3b
       0.00013878643 0.008766468 0.016857408 0.0060893893
000120 0d 5a 43 bc c0 53 a4 3b 33 1d 95 3b 02 da a8 3c
       -0.011923325 0.0050148666 0.0045506 0.020611767
000130 e7 3d 8e 3b 0d dc 5b 3c 1a 9f 3d 3b b3 30 73 3c
       0.0043408754 0.013419163 0.0028933943 0.014843154
000140 3b b6 e5 bc f7 d3 f7 bb 14 93 fc bc 45 2f 04 bc
       -0.028040996 -0.00756311 -0.030831851 -0.008067911
000150 32 5e 85 bc b5 89 7c ba f9 a0 f3 3b 54 0a b9 bc
       -0.016280267 -0.0009633557 0.007434961 -0.022587933
000160 cc 0a 05 bc 6d dc 5c 3b 73 b4 39 3c 5e 5c dd bc
       -0.00812025 0.003370072 0.011334526 -0.027021583
000170 64 da cd bc d4 e4 3d 3b c6 90 8e 3c dc 06 02 bd
       -0.02512855 0.0028975504 0.017403018 -0.031744823
000180 be 5c 69 bc fb 72 c1 3c 12 e0 14 bb fc 24 8c 3c
       -0.014243303 0.023614397 -0.0022716564 0.01710748
000190 d6 c9 d9 bb 19 f6 a8 bc 2c e0 fb bc c4 25 2f 3b
       -0.006646375 -0.020625161 -0.030746542 0.002672539
0001a0 35 fd 72 bc 7f 10 89 bc fe 2f fc bb d2 e7 b2 bc
       -0.014830877 -0.016731499 -0.007696151 -0.021839056
0001b0 4e 0a ca bc 46 f0 98 bc da a9 5f 3c c8 a8 20 bc
       -0.024663117 -0.018669259 0.013651336 -0.009805866
0001c0 be 65 49 3c 8a 64 4f bc e9 46 99 3c 47 86 45 bc
       0.012292324 -0.012658248 0.01871057 -0.01205594
0001d0 24 7e 48 bc 72 89 9a bc e8 3a 31 bc 91 75 d1 bb
       -0.0122371055 -0.018864367 -0.010817267 -0.006392189
0001e0 9a b6 17 ba cd f4 47 bc 75 ae c9 3c 83 c3 56 bc
       -0.00057874026 -0.012204361 0.02461932 -0.013108137
0001f0 f7 ed d9 3c d7 2f c4 3c db 9c b2 bc 3a 11 c0 bb
       0.026602728 0.023948593 -0.02180331 -0.0058614286
000200 9d 3d bd 3c 3b 32 a8 bc de d6 3d bc ca 8b b5 bc
       0.023100669 -0.020531764 -0.011586873 -0.022161383
000210 99 50 0b 3c f7 27 fe 3c d8 6a a9 3c e7 46 9a 3b
       0.008503103 0.031024916 0.02068083 0.0047081592
000220 73 15 ae 3c e6 fb a5 3c 40 42 10 3c 2b 3b c8 bb
       0.021250462 0.020261716 0.008804858 -0.006110569
000230 40 f2 0f 3c 7a 55 18 3d bb a5 86 3c 75 8e 46 3b
       0.008785784 0.03719089 0.016436448 0.0030297313
000240 4c 1f 9e 3c 0c 7f 03 3c 95 3e c2 3c 63 30 d9 bc
       0.019302033 0.008025896 0.023711482 -0.02651233
000250 2d 46 2b bc ed 36 89 3b 18 95 de 3b a7 88 86 3c
       -0.010453743 0.004187456 0.0067926757 0.016422583
000260 5a c7 58 3b 23 d7 38 3c 8f 61 61 bc e0 61 a6 bc
       0.0033077807 0.011281761 -0.01375617 -0.020310342
000270 40 d6 55 3b 9a f3 5a 3c 33 b7 75 3b 73 b5 11 bb
       0.0032628924 0.013363743 0.0037493228 -0.0022233396
000280 33 21 93 39 bd 9f 4b 3c a0 fd 26 bc ba 0d 08 bc
       0.0002806276 0.012428221 -0.010192305 -0.008304054
000290 fd 69 12 3c cd 07 c4 3c 72 c5 97 bc 8a 8b 3b 3c
       0.008936402 0.023929501 -0.018526766 0.011446843
0002a0 0f f3 9a bc fe f2 2d bc 23 4a b1 bb eb b9 b6 3c
       -0.018914727 -0.010617016 -0.005410449 0.02230545
0002b0 f9 5f 30 bc 90 b3 0e 3c 9e 7b 78 bc 6d af de 3b
       -0.010765069 0.008709803 -0.015166191 0.0067958147
0002c0 c9 49 ec 3b 20 6e b5 3b 9a 43 a0 3c 4b 18 f8 bb
       0.0072109443 0.0055368096 0.019563485 -0.0075712553
0002d0 5a 6a 3a 3b 27 4d 4d 3c 36 86 04 3d 80 3f cc bb
       0.0028444738 0.012530602 0.032354556 -0.0062331557
0002e0 46 33 9c 3c 4d 73 c5 3b 16 17 4f 3c 8c 3d df bc
       0.019067418 0.006025708 0.012639781 -0.027251028
0002f0 1a 7b c9 3c db d3 fe bb 90 79 eb bc cd 6c eb 3a
       0.024594832 -0.00777672 -0.028744489 0.0017961502
000300 67 7d a1 bc 33 66 db 3b f4 74 76 3c 92 d3 ad 3c
       -0.019713117 0.0066955327 0.015042532 0.021219049
000310 8b 7b 91 3c af 59 ab 3c 10 69 70 bc 9a 55 50 3a
       0.017759105 0.020916788 -0.014673486 0.0007947326
000320 22 26 c4 3c cd 3c c9 3c c7 df 80 bc f8 7f 9a 3c
       0.023943964 0.024565125 -0.015731705 0.018859848
000330 6b e2 79 bc 68 ed a2 bc 80 0b 8e ba 63 aa 2b bc
       -0.015251736 -0.019888595 -0.0010837168 -0.010477635
000340 cb b6 80 3c b6 31 d7 bc e7 c1 86 3c fb 3a b8 bb
       0.015712162 -0.026268821 0.016449882 -0.0056222654
000350 c9 59 9b bb a7 10 4b 3c e1 68 bf 3c cd 0c 78 b8
       -0.004740928 0.012394107 0.02336544 -5.913973e-05
000360 25 0a 96 3c c7 7f 36 3c 97 84 68 3c 97 e2 ae 3c
       0.018315384 0.011138863 0.014191768 0.02134828
000370 90 12 9b 3c f9 25 62 3b d1 1d 67 3c c3 25 10 3c
       0.01892975 0.0034507497 0.01410623 0.008798066
000380 70 54 de 3c 8d bf ba bb 9a 39 15 ba 5b 40 98 3c
       0.027139872 -0.005699104 -0.0005692482 0.018585375
000390 dd b8 a4 3c 40 43 42 bc f2 90 28 3c 83 8d 90 bc
       0.020107681 -0.011856854 0.010288464 -0.017645603
0003a0 33 66 47 bb a7 a3 13 bb b0 5c a2 3c 95 00 b0 3c
       -0.0030425906 -0.0022527964 0.019819587 0.021484653
0003b0 7d b4 69 3c e7 96 60 bc 80 5d 88 bb c0 00 08 3b
       0.014264223 -0.013707853 -0.0041615367 0.00207524
0003c0 00 e6 1d bb 97 00 96 3c e7 ee 85 bb bd af 13 bc
       -0.002409339 0.018310828 -0.0040873173 -0.009014067
0003d0 7f d7 94 3c 13 f4 76 bc f2 93 b6 bc 43 62 39 3c
       0.018169163 -0.01507284 -0.022287343 0.011314931
0003e0 40 c7 4c 3c ae 74 af bc b5 be b3 3c 1d f8 53 ba
       0.012498677 -0.021417942 0.021941522 -0.0008085983
0003f0 6a f7 99 3c 30 71 16 bc bc c0 92 3c d5 6f 08 bb
       0.018794734 -0.009182259 0.017914169 -0.002081861

fc1.bias f4 [80]
000000 90 34 20 bb 83 d8 87 bc 05 c8 92 3c 66 a3 e8 bb
       -0.0024445392 -0.016582733 0.017917642 -0.0070995567
000010 72 6e 03 3c 1c a7 2b bc f9 30 16 3c d2 43 19 3c
       0.008021938 -0.010476854 0.009166949 0.0093545485
000020 de 3b 3e 3b f4 61 10 bb 24 fb 9b 3b 44 8d ac 3c
       0.0029027383 -0.002203104 0.004760163 0.021063454
000030 3e f4 84 bb 20 4d 71 bc 4a 55 c2 3c f9 21 53 bc
       -0.0040574363 -0.014727861 0.02372231 -0.012886518
000040 09 82 80 3c fd 5e 62 3c 26 23 02 3d ce 56 a5 3a
       0.015687006 0.013816592 0.0317718 0.0012614371
000050 e0 3f 99 3c fd 05 e5 ba 00 55 cd ba 69 f8 a9 3b
       0.018707216 -0.0017473098 -0.0015665591 0.0051870835
000060 3c af 3c bc ff 2e 90 bb e6 6d 69 bc 3e e3 33 3b
       -0.0115163885 -0.0044001336 -0.014247393 0.002744868
000070 d6 c9 cf ba 8a 27 b7 3c 60 ec e3 3c 2c 6e a3 3c
       -0.0015852998 0.02235772 0.027822673 0.019949995
000080 6c b9 ae ba fd 34 59 bb 8e cc 40 3c a8 a1 12 bc
       -0.0013330407 -0.0033143156 0.01176752 -0.008949675
000090 e3 fc 58 3c 54 47 f4 3b d5 45 bb 3c 61 48 36 bc
       0.013243887 0.007454792 0.022860447 -0.011125655
0000a0 b5 13 92 3b f9 b2 ac bc 48 af 00 3c c6 ae b8 ba
       0.0044579157 -0.021081435 0.00785429 -0.0014090172
0000b0 82 d4 c2 bc 2b f4 d7 39 18 14 64 3b 5a 20 b6 3c
       -0.023782972 0.00041189915 0.0034802016 0.022232223
0000c0 77 92 15 bb 01 bc e4 3c a9 8e a6 bb f1 49 43 3c
       -0.0022822896 0.027921678 -0.0050829244 0.0119194845
0000d0 19 1f 05 bc 07 97 a3 3c 5a 88 59 bc 70 7d 96 3c
       -0.00812509 0.019969476 -0.013277138 0.01837036
0000e0 98 eb 87 3c 93 a2 08 bc 9b 11 bc bc 8d a6 7f 3b
       0.016591832 -0.008339542 -0.022957614 0.0039009184
0000f0 48 6f 93 3b f7 ec b8 bc aa aa 38 bc a2 fe a7 ba
       0.0044993497 -0.022573931 -0.011271158 -0.0012816975
000100 7a c9 73 bc 53 ab c7 3c 1a 6e 11 3c 9c e4 84 bb
       -0.014879579 0.024373686 0.008876348 -0.0040555727
000110 39 bb 8c bc 32 66 0a bc fb 7d 1a bc 3b 35 8d 3c
       -0.017179118 -0.008447217 -0.00942945 0.017237296
000120 03 81 00 3c c6 cb ca 3c a3 d9 ae bc 5d fe 9e 3c
       0.007843259 0.02475537 -0.021344012 0.0194084
000130 7c 34 69 bc 35 9d d1 bb 36 18 b6 bc 4a 8c ee 3a
       -0.014233705 -0.0063969144 -0.022228342 0.0018199768

fc2.weight f4 [10, 80]
000000 da 07 d7 bc cc ee 06 bc 87 61 5a 3d cf 0b 23 3d
       -0.026248861 -0.008235645 0.053315666 0.039806183
000010 55 5c 8a 3c bd 62 59 3d f2 35 58 3d b2 2e ec bc
       0.01688973 0.05307268 0.05278582 -0.02883086
000020 32 f7 8d bc b5 e6 3e 3c 61 00 88 bd 3c 79 ca bd
       -0.017329786 0.0116516845 -0.06640697 -0.09886405
000030 c5 59 99 bd 73 d3 a9 bc bf 14 ec bd a4 4a b9 bd
       -0.07487825 -0.02073071 -0.115273945 -0.0904744
000040 8f 06 9a 3d ef d7 be 3d 40 82 f0 bd 9b b2 5f 3d
       0.07520782 0.0931853 -0.11743593 0.05461369
000050 b6 2f a2 3b 8e fc d0 bd aa 7e c1 3c c6 bc 85 bd
       0.0049495352 -0.10204421 0.023619968 -0.06530146
000060 a2 78 b0 3d d3 a4 0c 3d d8 2a 83 3c 77 9c a2 bd
       0.08616759 0.034336876 0.01601164 -0.079399996
000070 52 bf 87 3d a1 57 7e bd a8 8d d6 bd 0e 63 b0 3d
       0.06628288 -0.06209529 -0.104762375 0.08612643
000080 d5 5c 6a bd 93 d6 5a bd 92 d4 8f bd 6e 8e 7d 3d
       -0.057217438 -0.05342729 -0.070229664 0.06190341
000090 50 3f bd 3d 18 ff b9 3d c0 0b 80 3d 33 d8 dd bd
       0.092405915 0.090818584 0.06252241 -0.10832252
0000a0 9e 2f 69 3b 0f 3d b4 3d b8 c9 7a bd ad 0c da bd
       0.003558136 0.088007085 -0.06122753 -0.10646949
0000b0 ed e8 92 3c d0 83 2c bd 4d 2d 2b 3d 86 46 da bc
       0.017933333 -0.042117894 0.04179125 -0.026644956
0000c0 32 34 1e 3d 7e e7 0a bd f3 f7 5f bc 54 4a 06 bd
       0.038623996 -0.033912174 -0.013669956 -0.03278573
0000d0 92 16 b7 bd 48 c2 0f bd ee 13 88 bd 0b a1 90 bc
       -0.08939852 -0.03509739 -0.06644426 -0.017654916
0000e0 35 3e 31 bd 00 e8 1b bd 64 dc b0 3d ef ad c8 bd
       -0.043272216 -0.03806305 0.08635786 -0.097988
0000f0 b2 75 90 3d 1e e6 f7 bb 70 96 84 bd 1e be e6 bd
       0.070536986 -0.007565274 -0.06474006 -0.11266731
000100 f6 e2 1f 3d 22 dd 1e 3d 61 82 80 3d d5 37 db 3d
       0.039034806 0.038785107 0.06274868 0.107040085
000110 a4 9a dc bd 3d 4e 65 bd 27 6b b5 3d 51 a3 9a bd
       -0.10771683 -0.055982817 0.08858328 -0.075506814
000120 d2 e8 8f 3d 59 99 28 3d 97 af bb 3d e8 c7 ab 3d
       0.07026829 0.04116187 0.091643505 0.083877385
000130 4b 38 c1 3d 39 66 e7 bc f5 6e f0 bc 69 5e 45 3c
       0.09434565 -0.028246986 -0.029349783 0.012046435
000140 77 8d 80 3d 22 9c 3c 3c 4c ef 1a 3d 2c 4e ab bd
       0.06276982 0.011511834 0.037825868 -0.083645195
000150 39 2c c7 3d 2a 46 bf bd ae b7 d2 3c 03 4d de bd
       0.09725232 -0.093395546 0.02572235 -0.108545326
000160 ca 36 2e bd 72 83 d3 bd 14 fd 6f bd 55 5e f1 bd
       -0.04253272 -0.103278056 -0.058590963 -0.117855705
000170 53 d9 25 bd 20 3f aa bd e0 31 1f 3c c7 01 76 bd
       -0.04049046 -0.083128214 0.009716481 -0.06006029
000180 e0 41 66 3d de 5d d7 bd 2a 13 a0 3a 83 df ae 3c
       0.056215167 -0.105159506 0.0012212743 0.021346813
000190 c8 6b f1 bc 24 ae 00 bd b1 26 c0 bd 15 6b b2 3d
       -0.02947034 -0.031416073 -0.0938238 0.087118305
0001a0 a2 88 6b 3d 4b 44 b1 bd 81 b3 52 bc 95 be 12 bd
       0.05750335 -0.08655604 -0.01286018 -0.035826284
0001b0 9f ae 94 3d e9 07 50 bd 27 2d 76 bd 39 ab 7c 3d
       0.07259869 -0.050788794 -0.060101654 0.06168673
0001c0 97 a2 f5 bd 58 64 51 bd 77 d1 fb bb 7f f5 70 3c
       -0.11993902 -0.051121086 -0.0076848823 0.014706968
0001d0 8f 5b ab bd 23 4c 82 3d e6 7e a0 3d 51 84 96 bd
       -0.08367073 0.06362178 0.07836704 -0.07349456
0001e0 95 43 8e bc ba 7a 78 bd 96 42 a9 3d 6b 2d b3 bd
       -0.01736621 -0.060663916 0.082646534 -0.08748897
0001f0 7a 1a 76 bd 99 0d 58 3d 20 cc 1b bd f3 b4 6f bd
       -0.060083844 0.052747343 -0.038036466 -0.058522176
000200 4d 15 91 bd 08 96 c8 bd 64 34 9c 3d 4d d7 92 bb
       -0.07084141 -0.09794241 0.0762718 -0.0044812323
000210 88 30 a4 bd 96 d5 4a 3d ed 86 b7 bd f2 af 5f 3d
       -0.08017069 0.049520098 -0.08961282 0.054611154
000220 7e 64 b2 3d 4f 0f c8 3a a9 ec 6c 3d 87 a5 c7 3c
       0.087105736 0.0015263351 0.057842884 0.024370922
000230 fb ee 56 bd f7 1e 58 3d b6 9e d6 bd 5c c2 c9 3d
       -0.052474003 0.052763905 -0.104794905 0.09851524
000240 bf 53 d7 3d e0 66 06 3d d4 30 db 3d 30 41 ba bd
       0.1051402 0.032812953 0.107026726 -0.09094465
000250 b1 cf a8 bd 76 96 df 3c 70 c4 5f 3d 75 ae 44 3d
       -0.08242739 0.027293425 0.054630697 0.048017938
000260 2a 85 4f bd ee af ad 3d bf f9 ec 3c fe ac 3f 3c
       -0.050664105 0.084808215 0.028927682 0.011698959
000270 cc 3f 71 3b 1b a6 7d bd 3b 7e 08 3c 2d f5 fb bb
       0.0036811708 -0.06192599 0.008330877 -0.0076891393
000280 48 7b 0d bc cd 05 3b 3d 5b 4b ea bd be 0f 08 bd
       -0.00863535 0.04565983 -0.11440154 -0.033218138
000290 12 92 7e bd b8 b1 1a bd 1f f0 da bb 1d 36 90 3d
       -0.062151022 -0.037767142 -0.0066814567 0.07041571
0002a0 93 48 66 3d 76 0d f1 bd e9 d2 c5 bc c3 85 e8 bd
       0.056221556 -0.117701456 -0.024148421 -0.11353638
0002b0 1f 5d c3 3d 9f 54 92 bd ef 65 a7 bd bc d2 61 bd
       0.09539246 -0.071450464 -0.08173739 -0.055132613
0002c0 f2 a2 b6 bd 50 1b 81 bd c2 67 84 3d 44 c6 c9 3d
       -0.08917798 -0.063040376 0.06465103 0.09852269
0002d0 4d 4a 8f 3d a4 bd 22 bd 2f 24 37 bd cb ed d9 bd
       0.069965936 -0.039731637 -0.04471224 -0.106410585
0002e0 a1 db 83 3d 81 cd 6c 3d bc db aa 3d 74 29 58 bd
       0.06438375 0.05781317 0.08342692 -0.052773908
0002f0 26 83 a0 bd 76 86 d3 bc 94 6a d8 bd ee ab 6b 3d
       -0.078375146 -0.025820952 -0.10567203 0.05753701
000300 7e 02 fc bd 51 7d 3e 3d 87 ab a5 3d 79 84 bd 3d
       -0.12305163 0.04650623 0.08089357 0.09253783
000310 76 7c 34 bd cf b3 99 bd d0 14 be 3d b2 39 70 bd
       -0.044064008 -0.07504999 0.092813134 -0.058648773
000320 51 c1 c3 bd 9e b0 ca bb 4a 87 a3 3d 19 50 88 3d
       -0.095583566 -0.006185605 0.07984789 0.066559024
000330 8f cf 01 bd c4 7a 80 3c 25 57 9d 3d 0b 03 cb 3b
       -0.031692084 0.01568354 0.07682637 0.006195431
000340 da 40 61 bc 97 d9 a3 3d 32 7d 8a bc a8 4f b0 bd
       -0.013748372 0.08000486 -0.0169054 -0.08608943
000350 00 e0 f0 bd 20 7a c2 3d 44 c4 8d 3d be 8d 3b 3d
       -0.117614746 0.0949595 0.069222 0.045789473
000360 42 37 65 3d 0d 1d 65 3d 66 ea ce 3d be 2c d3 bd
       0.0559609 0.055935908 0.10103302 -0.10311268
000370 66 7a 99 3d 48 a8 c5 bc 48 da b6 3d a2 ed ab bc
       0.07494049 -0.024128094 0.089283526 -0.020987336
000380 c5 08 8f bd f9 9a fa bd e7 ac bd bd 07 97 87 bd
       -0.069840945 -0.1223659 -0.09261494 -0.06620603
000390 9b da 11 3d a5 33 e1 bd 29 6c e4 bc 52 5d 92 3d
       0.03560887 -0.109961785 -0.027883606 0.07146706
0003a0 ac 8a 3d bd df c9 cf bc 45 ba 83 3a 3e ef 1a bd
       -0.046274826 -0.025364814 0.001005002 -0.037825815
0003b0 18 15 5c bd ad 5f e4 3a 63 80 76 bd ec d7 ab 3d
       -0.053731054 0.0017423533 -0.060181033 0.08390793
0003c0 66 c1 b5 bd 1a 94 a2 bd c8 c4 c6 3c 7a 72 9f bc
       -0.088747784 -0.079384044 0.024263754 -0.019463766
0003d0 4b dc 6b bd 7f e5 84 3d c6 20 cc 3d 7c 65 f6 bd
       -0.057583135 0.064890854 0.099671885 -0.12031075
0003e0 a8 a3 a9 3c 9f 12 e8 bd d9 8b 9a 3c af 61 75 bc
       0.02070792 -0.11331677 0.018865513 -0.014976903
0003f0 65 76 bf 3c da f7 90 3d 40 fd 95 3d 12 74 5c 3d
       0.023371885 0.07078524 0.07323694 0.05382163

fc2.bias f4 [10]
000000 e9 0d 3c bc ee 37 e5 bc 73 73 ba bd 78 c6 d1 bd
       -0.011477926 -0.02798077 -0.091040514 -0.10242933
000010 b5 7d a8 3c 71 73 22 bc f9 47 2f bd 74 36 9c bd
       0.020567754 -0.009915219 -0.042793248 -0.076275736
000020 77 5b 5e 3c 2b 73 ae bd
       0.013571612 -0.0851806
