classify-ckpt/model_epoch_75.pth (torch, 517704 bytes, 4 tensors)

fc1.weight f4 [80, 1600]
0	0x3ca0b95f	0.019619642
1	0xbc5ddf2d	-0.013541979
2	0xbc57a33d	-0.013161478
3	0xbcb0a06b	-0.021560868
4	0x3bd76750	0.006573595
5	0x3caa818b	0.020813724
6	0x3c591cd0	0.013251498
7	0xbc9b73da	-0.01897614
8	0xbbff18e7	-0.007784951
9	0x3bcefee4	0.0063170064
10	0xbc8e1431	-0.017343612
11	0x3c9d9170	0.019234389
12	0xbc218521	-0.009858401
13	0x3cbd4a5b	0.023106745
14	0x3c942eab	0.01808866
15	0xbcbde50f	-0.023180513
16	0xbc99a5af	-0.018755762
17	0x3ca2e9cb	0.019886872
18	0x3c87546a	0.016519744
19	0x3cee829d	0.029115016
20	0x3b936e7e	0.0044992557
21	0x3c92769f	0.017878829
22	0xbc94f1df	-0.01818174
23	0x3cb6bc28	0.022306517
24	0x3a1acbb3	0.00059049873
25	0x3cc6f8f5	0.024288634
26	0xbc832ca7	-0.016012503
27	0xbc9bd778	-0.019023642
28	0xbc24940d	-0.010045064
29	0xbc95e545	-0.0182978
30	0xbcb0fcd4	-0.021604933
31	0x3c9321e2	0.017960493
32	0x3c67f25d	0.014156905
33	0x3c045d6d	0.008078915
34	0xbbd9e715	-0.0066498616
35	0xba07459a	-0.0005160213
36	0x3c37e6e0	0.0112244785
37	0x3c8a098d	0.016850257
38	0x3be4b89a	0.006980014
39	0xbc003837	-0.007825903
40	0xbcca3a90	-0.024686128
41	0x3bc1f60d	0.005919224
42	0xbb834e47	-0.004007134
43	0x3c40c507	0.011765725
44	0x3b54846f	0.003242757
45	0xbcbf1fbb	-0.02333056
46	0x3c913748	0.017726555
47	0x3b6095e7	0.0034269036
48	0x3cb4a52a	0.022051413
49	0xbcde0950	-0.02710405
50	0x3c00c4de	0.007859437
51	0x3c62defa	0.013847107
52	0xbcd67126	-0.026177
53	0x3cb67505	0.022272596
54	0x3cdc3a5b	0.026883295
55	0xbb0d8fc0	-0.0021600574
56	0xbc98f963	-0.018673604
57	0xb9ef36cd	-0.00045626462
58	0x3cac4c5d	0.021032507
59	0x3d02fa6d	0.031977106
60	0x3c88f62f	0.016718952
61	0xbc9dbeb8	-0.01925598
62	0xbc9f92ca	-0.019479174
63	0x3cafe6a3	0.02147228
64	0x3a321e7c	0.00067947037
65	0xbc7de4a7	-0.0154964095
66	0x3b9a8a13	0.0047161668
67	0x3c6d0572	0.01446663
68	0x39118733	0.00013878643
69	0x3b84e142	0.004055173
70	0x3c885124	0.016640253
71	0x3bc78980	0.0060893893
72	0xbc435a0d	-0.011923325
73	0x3ba453c0	0.0050148666
74	0x3b953353	0.0045532375
75	0x3ca8da02	0.020611767
76	0x3b8e3de7	0.0043408754
77	0x3c5bdc0d	0.013419163
78	0x3b3d9f1a	0.0028933943
79	0x3c7330b3	0.014843154
80	0xbce77da3	-0.02825815
81	0xbbfef196	-0.007780264
82	0xbcfe5a7c	-0.031049006
83	0xbc07be14	-0.008285064
84	0xbc7837a0	-0.015149981
85	0xba9abb55	-0.0011805097
86	0x3bec835a	0.0072178068
87	0xbcbad1bc	-0.022805087
88	0xbc08999b	-0.008337404
89	0x3b0c5e7a	0.0021418617
90	0x3c3625a4	0.011117373
91	0xbcdf23c6	-0.027238738
92	0xbcd36b2b	-0.025807938
93	0x3b2fa997	0.0026803964
94	0x3c912ad4	0.017720617
95	0xbd02ea90	-0.031961977
96	0xbc6ceb8d	-0.014460457
97	0x3cef95de	0.029246267
98	0xbb231b4f	-0.0024888103
99	0x3cba0b3e	0.022710439
100	0xbbe0e775	-0.0068635293
101	0xbc78ceb6	-0.0151860025
102	0xbcfda794	-0.030963697
103	0x3b20ea87	0.0024553852
104	0xbc6dc90d	-0.014513266
105	0xbc8ad7e7	-0.016948653
106	0xbc01a6ce	-0.0079133045
107	0xbcb7d3bd	-0.022439832
108	0xbccbd1b6	-0.024880271
109	0xbcbfa7e2	-0.023395482
110	0x3c5c1b0b	0.013434182
111	0xbc243797	-0.010023019
112	0x3c45d6ef	0.01207517
113	0xbc52f359	-0.012875401
114	0x3c994c73	0.018713212
115	0xbc491516	-0.012273094
116	0xbc4c0cf3	-0.012454259
117	0xbc9c50da	-0.019081522
118	0xbc34c9b7	-0.011034421
119	0xbbd89330	-0.006609343
120	0xba17b69a	-0.00057874026
121	0xbc47f4cd	-0.012204361
122	0x3cc9ae75	0.02461932
123	0xbc56c383	-0.013108137
124	0x3ce33059	0.027733015
125	0x3cc42fd7	0.023948593
126	0xbcb29cdb	-0.02180331
127	0xbbc0113a	-0.0058614286
128	0x3cbd3d9d	0.023100669
129	0xbcb21d8e	-0.021742608
130	0xbc4165ad	-0.011804027
131	0xbcb58bca	-0.022161383
132	0x3c02d759	0.007985913
133	0x3d03b51b	0.032155138
134	0x3ca97062	0.020683471
135	0x3bbf4fef	0.0058383862
136	0x3cae1573	0.021250462
137	0x3cd42033	0.02589426
138	0x3c104240	0.008804858
139	0xba051122	-0.00050761004
140	0x3c0ff240	0.008785784
141	0x3d2ea4b7	0.042637553
142	0x3c86a5bb	0.016436448
143	0x3b46bf93	0.003032659
144	0x3ca761ae	0.02043232
145	0x3c038b56	0.008028826
146	0x3cc23e95	0.023711482
147	0xbcdc838a	-0.026918191
148	0xbc2b462d	-0.010453743
149	0xba095231	-0.0005238383
150	0x3bd77779	0.0065755215
151	0x3c8688a7	0.016422583
152	0x3b58c75a	0.0033077807
153	0x3c38d723	0.011281761
154	0xbc61567f	-0.013753532
155	0xbca661e0	-0.020310342
156	0x3b55d640	0.0032628924
157	0x3c5af39a	0.013363743
158	0x3b75b733	0.0037493228
159	0xbb11b573	-0.0022233396
160	0x39932133	0.0002806276
161	0x3c4b9fbd	0.012428221
162	0xbc26fda0	-0.010192305
163	0xbc080dba	-0.008304054
164	0x3c24eec2	0.01006669
165	0x3cc407cd	0.023929501
166	0xbc97c572	-0.018526766
167	0x3c3b8b8a	0.011446843
168	0xbc9af30f	-0.018914727
169	0xbc41c9a5	-0.011827861
170	0xbbb867c2	-0.0056276033
171	0x3cb6b9eb	0.02230545
172	0xbc1ddb76	-0.009634843
173	0x3c0eb390	0.008709803
174	0xbc78708e	-0.015163554
175	0x3bdeaf6d	0.0067958147
176	0x3c08a984	0.008341197
177	0x3bb56e20	0.0055368096
178	0x3ca0439a	0.019563485
179	0xbb00fe8c	-0.0019682972
180	0x3b3a6a5a	0.0028444738
181	0x3c4d4d27	0.012530602
182	0x3d04897e	0.032357685
183	0xbbcc3f80	-0.0062331557
184	0x3ca575a8	0.020197704
185	0x3bc5734d	0.006025708
186	0x3c4f2360	0.012642711
187	0xbce290b3	-0.027656889
188	0x3cc97b1a	0.024594832
189	0xbc4c9a88	-0.012488015
190	0xbced40f8	-0.028961644
191	0x3aeb6ccd	0.0017961502
192	0xbca17d67	-0.019713117
193	0x3bdb6633	0.0066955327
194	0x3c768004	0.01504517
195	0x3cadd392	0.021219049
196	0x3c917b8b	0.017759105
197	0x3cab59af	0.020916788
198	0xbc706910	-0.014673486
199	0x3a50559a	0.0007947326
200	0x3cc42622	0.023943964
201	0x3cc93ccd	0.024565125
202	0xbc80dfc7	-0.015731705
203	0x3c9a7ff8	0.018859848
204	0xbc675da6	-0.014121449
205	0xbca2ed68	-0.019888595
206	0xba8e0b80	-0.0010837168
207	0xbc2baa63	-0.010477635
208	0x3c80b6cb	0.015712162
209	0xbce11d09	-0.027479665
210	0x3c84fa7f	0.016232727
211	0xbb9331f3	-0.0044920384
212	0xbbac4c4a	-0.005258118
213	0x3c4b10a7	0.012394107
214	0x3cbf6e6b	0.023368081
215	0xb8780ccd	-5.913973e-05
216	0x3cc42e72	0.023947928
217	0x3c49044a	0.012269089
218	0x3c688497	0.014191768
219	0x3cdcc8d9	0.02695124
220	0x3c9b1290	0.01892975
221	0x3b625717	0.0034536773
222	0x3ca02d64	0.019552894
223	0x3c1025c3	0.008798066
224	0x3ce796d2	0.028270159
225	0xbbbabf8d	-0.005699104
226	0xba15399a	-0.0005692482
227	0x3c984681	0.018588306
228	0x3ca4b8dd	0.020107681
229	0xbc87b9ec	-0.016568147
230	0x3c250223	0.01007131
231	0xbc908d83	-0.017645603
232	0xbb476633	-0.0030425906
233	0xbb13a3a7	-0.0022527964
234	0x3ca2623a	0.019822229
235	0x3cb00095	0.021484653
236	0x3c69b47d	0.014264223
237	0xbc6096e7	-0.013707853
238	0xbb885d80	-0.0041615367
239	0x3b0800c0	0.00207524
240	0xbb1de600	-0.002409339
241	0x3c960097	0.018310828
242	0xbb85eee7	-0.0040873173
243	0xbc13afbd	-0.009014067
244	0x3c9e19e1	0.01929945
245	0xbc76f413	-0.01507284
246	0xbcb693f2	-0.022287343
247	0x3c396243	0.011314931
248	0x3c4cc740	0.012498677
249	0xbcb96001	-0.022628786
250	0x3cbd00f9	0.023071753
251	0xba867289	-0.0010257523
252	0x3c95bacc	0.018277548
253	0xbc167130	-0.009182259
254	0x3c92c646	0.01791681
255	0x3b68b2a0	0.003550686

fc1.bias f4 [80]
0	0xbb0b649d	-0.0021269687
1	0xbc815631	-0.01578817
2	0x3c9560dd	0.018234665
3	0xbbcc75ae	-0.0062396144
4	0x3c02444d	0.0079508545
5	0xbc2588c7	-0.010103411
6	0x3c162526	0.00916413
7	0x3c52514d	0.012836766
8	0x3c0a5c7a	0.0084449
9	0x3b3b923d	0.00286211
10	0x3ba6618c	0.0050775465
11	0x3cad59ce	0.021160986
12	0xbb55f08b	-0.0032644595
13	0xbc714d20	-0.014727861
14	0x3cc058c4	0.023479827
15	0xbc4e051f	-0.012574463
16	0x3c7e975c	0.015539017
17	0x3c718239	0.01474052
18	0x3d02201e	0.03176891
19	0x3a9199a5	0.0011108412
20	0x3c9b3d0e	0.018950012
21	0xb8b4a4ad	-8.613742e-05
22	0xbacd5500	-0.0015665591
23	0x3baf5f0f	0.005351908
24	0xbc40a88c	-0.011758935
25	0xbb883d0a	-0.004157667
26	0xbc643a7e	-0.013929961
27	0x3b62274f	0.0034508293
28	0x39b8a450	0.00035217637
29	0x3cb48dcd	0.022040272
30	0x3ce431db	0.027855804
31	0x3ca369ad	0.019947851
32	0x3b2b4266	0.0026132106
33	0xbb5934fd	-0.0033143156
34	0x3c3e58e6	0.011617875
35	0xbc12a1a8	-0.008949675
36	0x3c50fd70	0.012755737
37	0x3be9e020	0.0071373135
38	0x3cba0ad4	0.022710241
39	0xbc33d02f	-0.010974928
40	0x3b920031	0.004455589
41	0xbcae0caf	-0.021246282
42	0x3c0197ab	0.007909696
43	0xbac19cdf	-0.0014771483
44	0xbcc2d482	-0.023782972
45	0x39fe08b1	0.0004845313
46	0x3b73f9ba	0.0037227706
47	0x3cd84aa1	0.026402773
48	0xbb1792bf	-0.002312824
49	0x3ce3e27f	0.027817963
50	0xbbab7b99	-0.00523324
51	0x3c7ce13c	0.015434559
52	0xbbfb6c84	-0.007672848
53	0x3ca62b6a	0.020284373
54	0xbc5b470e	-0.01338364
55	0x3c993179	0.018700348
56	0x3c8883ff	0.016664503
57	0xbc036f29	-0.008022108
58	0xbcb977d5	-0.022640148
59	0x3b7fa68d	0.0039009184
60	0x3c1a7dd7	0.009429417
61	0xbcaf5e97	-0.021407409
62	0xbbebcced	-0.00719606
63	0xbaa7fea2	-0.0012816975
64	0xbc77c220	-0.015121967
65	0x3cd17531	0.025568577
66	0x3c0d7515	0.008633872
67	0xbb84e49c	-0.0040555727
68	0xbc8a21f7	-0.016861899
69	0xbc0cdd70	-0.008597717
70	0xbb99e716	-0.004696737
71	0x3c8d3172	0.017235491
72	0x3c06c6c7	0.008226103
73	0x3ccc25ba	0.024920333
74	0xbcadd8a9	-0.021221476
75	0x3ca4e282	0.020127539
76	0xbc699b11	-0.014258162
77	0xbbc9a571	-0.0061537554
78	0xbcb81390	-0.022470266
79	0x3b01230c	0.0019704727

fc2.weight f4 [10, 80]
0	0xbd030851	-0.031990353
1	0xbc650055	-0.01397713
2	0x3d42dd2a	0.0475742
3	0x3d0bb57d	0.034108628
4	0x3c76fa17	0.0150742745
5	0x3d41efb1	0.04734773
6	0x3d40b20e	0.047044806
7	0xbd0d4c0a	-0.034496345
8	0xbcbc9578	-0.023020491
9	0x3bc49d7b	0.0060002184
10	0xbd93c27d	-0.0721483
11	0xbdce20e7	-0.100648694
12	0xbda51b93	-0.080619
13	0xbca9d373	-0.02073071
14	0xbdf7d6de	-0.121015295
15	0xbdc50c9c	-0.09621546
16	0x3d8e445e	0.06946634
17	0x3db325aa	0.08747418
18	0xbdfc43d4	-0.12317625
19	0x3d482fb7	0.04887363
20	0xba4f88c7	-0.0007916805
21	0xbddcb192	-0.10776056
22	0x3cc17eaa	0.023619968
23	0xbd917ef7	-0.07104295
24	0x3da4b6b5	0.08042661
25	0x3cea42c4	0.02859629
26	0x3c284535	0.0102704065
27	0xbdae5e39	-0.08514065
28	0x3d77fa3a	0.06054137
29	0xbd8aede5	-0.06783656
30	0xbdda5c77	-0.106621675
31	0x3da4a1b3	0.08038654
32	0xbd80e5dc	-0.06293842
33	0xbd5ad693	-0.05342729
34	0xbd9b96c1	-0.075971134
35	0x3d7d8e6e	0.06190341
36	0x3db66f5b	0.08907958
37	0x3dae3d08	0.085077345
38	0x3d68932c	0.05678098
39	0xbde99a2f	-0.11406361
40	0xbb0f0636	-0.002182377
41	0x3da8bc21	0.08239008
42	0xbd810df3	-0.06301489
43	0xbddd5537	-0.10807269
44	0x3c92e8ed	0.017933333
45	0xbd44079c	-0.04785882
46	0x3d13a980	0.03605032
47	0xbd0467ba	-0.032325484
48	0x3d168440	0.036747217
49	0xbd2269d1	-0.039651696
50	0xbc9f04a7	-0.019411398
51	0xbd1dbaa4	-0.038508072
52	0xbdc2d639	-0.09513516
53	0xbd2745ee	-0.040838175
54	0xbd93d5de	-0.07218526
55	0xbcbfa6ba	-0.023394931
56	0xbd48c1fa	-0.049013115
57	0xbd336c13	-0.04380424
58	0x3da51a3d	0.08061645
59	0xbdc8adef	-0.097988
60	0x3d84cfa4	0.06484917
61	0xbc595895	-0.0132657485
62	0xbd904ecf	-0.070462815
63	0xbde6be1e	-0.11266731
64	0x3d085ea6	0.03329339
65	0x3d07c1e1	0.03314388
66	0x3d698080	0.057007313
67	0x3ddb37d5	0.107040085
68	0xbde85c8e	-0.113457784
69	0xbd7cd21a	-0.061723806
70	0x3da9d68e	0.08292876
71	0xbda664ca	-0.08124693
72	0x3d842a0d	0.06453333
73	0x3d1114f1	0.035420362
74	0x3db42d25	0.08797673
75	0x3da018c2	0.07817222
76	0x3dbd6422	0.092476144
77	0xbd0b3665	-0.03398742
78	0xbd0fbb63	-0.035090815
79	0x3bcea315	0.006306062
80	0x3d7fcde1	0.0624522
81	0x3c2ddc12	0.010611551
82	0x3d19a242	0.037508257
83	0xbdb611c0	-0.08890104
84	0x3dc6f7b7	0.097152166
85	0xbdc5bd10	-0.096552014
86	0x3cd93a82	0.026517157
87	0xbde6a569	-0.11262018
88	0xbd44def5	-0.04806419
89	0xbddebd0d	-0.10875902
90	0xbd73acdf	-0.059491035
91	0xbdf1916d	-0.11795316
92	0xbd279698	-0.0409151
93	0xbdaa3f20	-0.083128214
94	0x3c2392b3	0.009983706
95	0xbd77bf0b	-0.060484927
96	0x3d65a427	0.05606475
97	0xbde2f679	-0.11082167
98	0x3ab5b80c	0.0013864054
99	0x3cb56251	0.022141607
100	0xbcf4e654	-0.029894985
101	0xbd09a6c1	-0.033606295
102	0xbdc026b1	-0.0938238
103	0x3db21c36	0.08696787
104	0x3d6c35c8	0.057668477
105	0xbdb4c633	-0.08826866
106	0xbc59a898	-0.013284825
107	0xbd1830b9	-0.03715584
108	0x3d94081a	0.07228108
109	0xbd4eefb3	-0.050521564
110	0xbd7699f4	-0.060205415
111	0x3d7d5864	0.061851874
112	0xbe00a73c	-0.12563795
113	0xbd516458	-0.051121086
114	0xbc005fa8	-0.007835306
115	0x3c70f57f	0.014706968
116	0xbdb25597	-0.08707731
117	0x3d82d83b	0.06388899
118	0x3da10afd	0.07863424
119	0xbd985c5e	-0.07439493
120	0xbc8ce944	-0.017201073
121	0xbd87e4fb	-0.066354714
122	0x3da90f5b	0.08254882
123	0xbdb3592b	-0.08757242
124	0xbd761a7a	-0.060083844
125	0x3d585a24	0.05282034
126	0xbd1d8965	-0.038461108
127	0xbd835638	-0.06412929
128	0xbd914c82	-0.07094671
129	0xbdcf55a4	-0.101237565
130	0x3d9be586	0.076121375
131	0xbc2658fc	-0.0101530515
132	0xbda92312	-0.08258642
133	0x3d4ad36c	0.049518034
134	0xbdba4001	-0.09094239
135	0x3d60c828	0.054878384
136	0x3db28ac2	0.08717872
137	0x3a906626	0.0011016771
138	0x3d6b2f65	0.057418246
139	0x3cc7a587	0.024370922
140	0xbd6e1742	-0.05812765
141	0x3d40f3c0	0.047107458
142	0xbddf2bfc	-0.10897061
143	0x3dc9c25c	0.09851524
144	0x3dd704e1	0.104989775
145	0x3cdf3de7	0.027251197
146	0x3ddb8766	0.107191846
147	0xbdba4130	-0.09094465
148	0xbdac5197	-0.084139995
149	0x3cdf3120	0.027245104
150	0x3d48f6be	0.049063437
151	0x3d44faff	0.04809093
152	0xbd4f3f11	-0.050597254
153	0x3dad610f	0.08465778
154	0x3cc80055	0.02441422
155	0x3bc7a9db	0.0060932464
156	0x3b6a639e	0.0035764943
157	0xbd8327fc	-0.06404111
158	0x3c0cdf11	0.008598105
159	0xbc13c33c	-0.0090187155
160	0xbc6b82d0	-0.01437445
161	0x3d2388e1	0.03992546
162	0xbdf60bdf	-0.12013983
163	0xbd1e2457	-0.038608875
164	0xbd819e8c	-0.063290685
165	0xbd31cc65	-0.043407816
166	0xbc4b364e	-0.012403084
167	0x3d84895d	0.064715125
168	0x3d4ee0bd	0.050507296
169	0xbdfcc02a	-0.1234134
170	0xbcf4ce72	-0.029883597
171	0xbdeacf00	-0.11465263
172	0x3db79f7b	0.08965965
173	0xbd92549f	-0.071450464
174	0xbdb32630	-0.08747518
175	0xbd7950fb	-0.060868245
176	0xbdc26417	-0.09491747
177	0xbd8c8a66	-0.06862335
178	0x3d71538e	0.058917575
179	0x3dbe167a	0.09281631
180	0x3d838b54	0.06423059
181	0xbd3a22e0	-0.045443416
182	0xbd37242f	-0.04471224
183	0xbde5aebf	-0.11214971
184	0x3d703f2b	0.05865399
185	0x3d555aea	0.052088656
186	0x3d9f1d1b	0.07769223
187	0xbd6f9d5f	-0.05849969
188	0xbdac4484	-0.08411506
189	0xbd014180	-0.031556606
190	0xbddad0f0	-0.10684383
191	0x3d54392e	0.051812343
192	0xbe03db00	-0.1287651
193	0x3d3e7d51	0.04650623
194	0x3d99eb48	0.075155795
195	0x3dbd8479	0.09253783
196	0xbd479b21	-0.048731927
197	0xbda571c5	-0.080783404
198	0x3db25543	0.08707669
199	0xbd83d827	-0.06437712
200	0xbdcf7ea6	-0.10131578
201	0xbc1dd904	-0.00963426
202	0x3da13ce9	0.07872946
203	0x3d864b53	0.06557336
204	0xbd01cf8f	-0.031692084
205	0x3c23015f	0.009949057
206	0x3d919943	0.071093105
207	0x39fc26f9	0.00048094222
208	0xbc74abbe	-0.014933525
209	0x3d98630b	0.07440766
210	0xbcb97d09	-0.02264263
211	0xbdbbfeaf	-0.091794364
212	0xbdfc7b17	-0.12328165
213	0x3db6bcc1	0.08922721
214	0x3d821083	0.063508056
215	0x3d2419e2	0.040063746
216	0x3d4dba86	0.05022671
217	0x3d4d9e15	0.050199587
218	0x3dc32b51	0.09529746
219	0xbdd32cbe	-0.10311268
220	0x3d8dc7dc	0.06922886
221	0xbcf2fe3c	-0.029662244
222	0x3dab26b8	0.083569944
223	0xbcabeda2	-0.020987336
224	0xbd9ac8cc	-0.0755783
225	0xbe02bf4b	-0.12768285
226	0xbdc96c66	-0.098351285
227	0xbd879707	-0.06620603
228	0x3cf4d4ed	0.029886687
229	0xbdecea25	-0.11568097
230	0xbd0997e6	-0.033592127
231	0x3d86a346	0.06574111
232	0xbd54fa36	-0.051996432
233	0xbcfecbc0	-0.031103015
234	0xbb68e7be	-0.003553852
235	0xbd318d80	-0.043347836
236	0xbd60ea11	-0.054910723
237	0xbb82392f	-0.003974102
238	0xbd86fdb8	-0.06591362
239	0x3da03a68	0.0782364
240	0xbdc18366	-0.094488904
241	0xbdae5601	-0.08512498
242	0x3c97bd38	0.018522844
243	0xbcce4808	-0.025180832
244	0xbd6bef20	-0.057601094
245	0x3d793f2f	0.060851272
246	0x3dc06a0b	0.09395226
247	0xbe00fa4a	-0.12595478
248	0x3c75cac5	0.015001957
249	0xbdf3afa7	-0.118987374
250	0x3c570ab5	0.013125111
251	0xbc75aad5	-0.014994343
252	0x3c952573	0.018206334
253	0x3d90f7da	0.07078524
254	0x3d8a3b89	0.06749637
255	0x3d44f215	0.04808243

fc2.bias f4 [10]
0	0xbc8d0e01	-0.017218592
1	0xbce73494	-0.028223313
2	0xbdc62c07	-0.09676366
3	0xbddd8699	-0.10816688
4	0x3cab17bc	0.02088534
5	0xbc803f1a	-0.01565509
6	0xbd46c96d	-0.04853194
7	0xbda7f4c5	-0.08200983
8	0x3c230385	0.00994957
9	0xbdb8030c	-0.08984956
