classify-ckpt/model_epoch_48.pth (torch, 517704 bytes, 4 tensors)

fc1.weight f4 [80, 1600]
0.019619642 -0.013541979 -0.013161478 -0.021560868 0.006768732 0.020813724 0.013251498 -0.01897614
-0.007784951 0.006353941 -0.017343612 0.019234389 -0.009858401 0.023106745 0.018191682 -0.023180513
-0.018755762 0.019886872 0.016519744 0.027934896 0.0034628168 0.017878829 -0.01818174 0.022306517
0.00078563514 0.024288634 -0.016012503 -0.018990193 -0.010045064 -0.017404107 -0.021604933 0.017960493
0.014156905 0.008078915 -0.006546837 -0.0005160213 0.0112244785 0.016850257 0.006980014 -0.007825903
-0.024686128 0.005919224 -0.004007134 0.011765725 0.003437893 -0.02333056 0.017726555 0.0034269036
0.022051413 -0.027067116 0.007859437 0.013847107 -0.026177 0.022272596 0.026986318 -0.0021600574
-0.018673604 -0.00045626462 0.019883882 0.030836167 0.015682515 -0.01925598 -0.019479174 0.02147228
0.0008746068 -0.0154964095 0.0047161668 0.01450008 0.00013878643 0.0049488693 0.016640253 0.0060893893
-0.011923325 0.0050148666 0.004656262 0.020611767 0.0043408754 0.013419163 0.0028933943 0.014843154
-0.02825815 -0.007780264 -0.031049006 -0.008285064 -0.014954844 -0.0011805097 0.0072178068 -0.022805087
-0.008337404 0.0021787963 0.011117373 -0.027238738 -0.025807938 0.0026803964 0.017823646 -0.031961977
-0.014460457 0.028097643 -0.0024888103 0.021569502 -0.0068635293 -0.016222436 -0.030963697 0.0024553852
-0.014410237 -0.016948653 -0.0079133045 -0.022406382 -0.024880271 -0.022501789 0.013434182 -0.010023019
0.01207517 -0.012875401 0.018816235 -0.012273094 -0.012454259 -0.019081522 -0.011034421 -0.006609343
-0.00057874026 -0.012204361 0.02461932 -0.013108137 0.027928151 0.023948593 -0.02180331 -0.0058614286
0.023100669 -0.021705674 -0.011804027 -0.022161383 0.007985913 0.03235027 0.020786494 0.0060335086
0.021250462 0.024745636 0.008804858 -0.001648547 0.008785784 0.041601118 0.016436448 0.0031356832
0.020627456 0.00813185 0.023711482 -0.026884742 -0.010453743 0.00036985773 0.0065755215 0.016422583
0.0033077807 0.011281761 -0.013650508 -0.020310342 0.0032628924 0.013363743 0.0037493228 -0.0022233396
0.0002806276 0.012428221 -0.010192305 -0.008304054 0.010261827 0.023929501 -0.018526766 0.011446843
-0.018914727 -0.011790927 -0.0056276033 0.02230545 -0.009439722 0.008709803 -0.015060529 0.0067958147
0.008536317 0.0055368096 0.019563485 -0.003109234 0.0028444738 0.012530602 0.032460704 -0.0062331557
0.02039284 0.006025708 0.012745735 -0.02762344 0.024594832 -0.01159432 -0.028961644 0.0017961502
-0.019713117 0.0066955327 0.0151481945 0.021219049 0.017759105 0.020916788 -0.014673486 0.0007947326
0.023943964 0.024565125 -0.015731705 0.018859848 -0.013926311 -0.019888595 -0.0010837168 -0.010477635
0.015712162 -0.027442731 0.016232727 -0.004296916 -0.005258118 0.012394107 0.023471104 -5.913973e-05
0.022799304 0.01246421 0.014191768 0.025810303 0.01892975 0.0035567016 0.018516457 0.008798066
0.028465295 -0.005699104 -0.0005692482 0.01869133 0.020107681 -0.015674453 0.01007131 -0.017645603
-0.0030425906 -0.0022527964 0.019925252 0.021484653 0.014264223 -0.013707853 -0.0041615367 0.00207524
-0.002409339 0.018310828 -0.0040873173 -0.009014067 0.019494586 -0.01507284 -0.022287343 0.011314931
0.012498677 -0.022591852 0.023266874 -0.0010257523 0.018277548 -0.009182259 0.018019833 0.0024020604
00000000: 5fb9 a03c 2ddf 5dbc 3da3 57bc 6ba0 b0bc
00000010: 3dcc dd3b 8b81 aa3c d01c 593c da73 9bbc
00000020: e718 ffbb b834 d03b 3114 8ebc 7091 9d3c
00000030: 2185 21bc 5b4a bd3c b906 953c 0fe5 bdbc
00000040: afa5 99bc cbe9 a23c 6a54 873c b9d7 e43c
00000050: 6df0 623b 9f76 923c dff1 94bc 28bc b63c
00000060: 15f3 4d3a f5f8 c63c a72c 83bc 5291 9bbc
00000070: 0d94 24bc 0f93 8ebc d4fc b0bc e221 933c
00000080: 5df2 673c 6d5d 043c d986 d6bb 9a45 07ba
00000090: e0e6 373c 8d09 8a3c 9ab8 e43b 3738 00bc
000000a0: 903a cabc 0df6 c13b 474e 83bb 07c5 403c
000000b0: 464e 613b bb1f bfbc 4837 913c e795 603b
000000c0: 2aa5 b43c dbbb ddbc dec4 003c fade 623c
000000d0: 2671 d6bc 0575 b63c 6912 dd3c c08f 0dbb
000000e0: 63f9 98bc cd36 efb9 86e3 a23c 219c fc3c
000000f0: 9e78 803c b8be 9dbc ca92 9fbc a3e6 af3c
00000100: de45 653a a7e4 7dbc 138a 9a3b be91 6d3c
00000110: 3387 1139 202a a23b 2451 883c 8089 c73b
00000120: 0d5a 43bc c053 a43b 8f93 983b 02da a83c
00000130: e73d 8e3b 0ddc 5b3c 1a9f 3d3b b330 733c
00000140: a37d e7bc 96f1 febb 7c5a febc 14be 07bc
00000150: 2905 75bc 55bb 9aba 5a83 ec3b bcd1 babc
00000160: 9b99 08bc 23ca 0e3b a425 363c c623 dfbc
00000170: 2b6b d3bc 97a9 2f3b e502 923c 90ea 02bd
00000180: 8deb 6cbc 072d e63c 4f1b 23bb 86b2 b03c
00000190: 75e7 e0bb eae4 84bc 94a7 fdbc 87ea 203b
000001a0: ea18 6cbc e7d7 8abc cea6 01bc 978d b7bc
000001b0: b6d1 cbbc ac55 b8bc 0b1b 5c3c 9737 24bc
000001c0: efd6 453c 59f3 52bc 8124 9a3c 1615 49bc
000001d0: f30c 4cbc da50 9cbc b7c9 34bc 3093 d8bb
000001e0: 9ab6 17ba cdf4 47bc 75ae c93c 83c3 56bc
000001f0: 94c9 e43c d72f c43c db9c b2bc 3a11 c0bb
00000200: 9d3d bd3c 19d0 b1bc ad65 41bc ca8b b5bc
00000210: 59d7 023c b781 043d 7048 aa3c bdb4 c53b
00000220: 7315 ae3c 5cb7 ca3c 4042 103c 0f14 d8ba
00000230: 40f2 0f3c ef65 2a3d bba5 863c 0980 4d3b
00000240: e9fa a83c 733b 053c 953e c23c 643d dcbc
00000250: 2d46 2bbc 77e9 c139 7977 d73b a788 863c
00000260: 5ac7 583b 23d7 383c 61a6 5fbc e061 a6bc
00000270: 40d6 553b 9af3 5a3c 33b7 753b 73b5 11bb
00000280: 3321 9339 bd9f 4b3c a0fd 26bc ba0d 08bc
00000290: 3921 283c cd07 c43c 72c5 97bc 8a8b 3b3c
000002a0: 0ff3 9abc bb2e 41bc c267 b8bb ebb9 b63c
000002b0: 10a9 1abc 90b3 0e3c 70c0 76bc 6daf de3b
000002c0: e9db 0b3c 206e b53b 9a43 a03c 4ac4 4bbb
000002d0: 5a6a 3a3b 274d 4d3c 84f5 043d 803f ccbb
000002e0: e30e a73c 4d73 c53b 7dd3 503c 8d4a e2bc
000002f0: 1a7b c93c 1af6 3dbc f840 edbc cd6c eb3a
00000300: 677d a1bc 3366 db3b 2230 783c 92d3 ad3c
00000310: 8b7b 913c af59 ab3c 1069 70bc 9a55 503a
00000320: 2226 c43c cd3c c93c c7df 80bc f87f 9a3c
00000330: 2f2b 64bc 68ed a2bc 800b 8eba 63aa 2bbc
00000340: cbb6 803c 94cf e0bc 7ffa 843c 25cd 8cbb
00000350: 4a4c acbb a710 4b3c 7946 c03c cd0c 78b8
00000360: 9bc5 ba3c b036 4c3c 9784 683c 2170 d33c
00000370: 9012 9b3c 8d17 693b d3af 973c c325 103c
00000380: 0d30 e93c 8dbf babb 9a39 15ba 8f1e 993c
00000390: ddb8 a43c b667 80bc 2302 253c 838d 90bc
000003a0: 3366 47bb a7a3 13bb 483a a33c 9500 b03c
000003b0: 7db4 693c e796 60bc 805d 88bb c000 083b
000003c0: 00e6 1dbb 9700 963c e7ee 85bb bdaf 13bc
000003d0: 1cb3 9f3c 13f4 76bc f293 b6bc 4362 393c
000003e0: 40c7 4c3c 8c12 b9bc 2c9a be3c 8972 86ba
000003f0: ccba 953c 3071 16bc 549e 933c e36b 1d3b

fc1.bias f4 [80]
-0.002023929 -0.01568566 0.01833794 -0.006441651 0.007960013 -0.009934187 0.009002884 0.0121943215
0.0073229484 0.0017287821 0.0051807673 0.021147545 -0.0031612564 -0.014727861 0.02330182 -0.012465951
0.01526916 0.014455621 0.031665966 0.00084069814 0.01912781 -0.00035628295 -0.0015665591 0.005081718
-0.011936977 -0.003979574 -0.013826807 0.003644953 0.00034816682 0.021937167 0.027850913 0.019844722
0.0021736855 -0.0033143156 0.011347972 -0.008949675 0.012773159 0.007034187 0.022440225 -0.010704847
0.0043525435 -0.021234121 0.0079019535 -0.0014685618 -0.023782972 0.0003066681 0.0039007962 0.025284639
-0.002309137 0.028026925 -0.0055032824 0.014836655 -0.007301248 0.020387374 -0.013113472 0.018522277
0.016486494 -0.007918978 -0.022537066 0.0039009184 0.008374098 -0.021794982 -0.0077338354 -0.0012816975
-0.015300128 0.025381591 0.008455769 -0.0040555727 -0.01675851 -0.008867871 -0.0057705487 0.01713197
0.008123401 0.024650019 -0.021191228 0.020111877 -0.014255106 -0.0059763663 -0.022648703 0.002240603
00000000: e5a3 04bb 377f 80bc 7339 963c 7c14 d3bb
00000010: b76a 023c 00c3 22bc d580 133c b1ca 473c
00000020: 58f5 ef3b 4d98 e23a 6dc3 a93b 9e3d ad3c
00000030: 152d 4fbb 204d 71bc 75e3 be3c fd3d 4cbc
00000040: 802b 7a3c 45d7 6c3c 2cb4 013d 4c62 5c3a
00000050: edb1 9c3c 7dcb bab9 0055 cdba 8a84 a63b
00000060: 4f93 43bc 1667 82bb d589 62bc 2ae0 6e3b
00000070: 298a b639 93b5 b33c 9927 e43c 6691 a23c
00000080: 6474 0e3b fd34 59bb d8ec 393c a8a1 12bc
00000090: 8346 513c 0a7f e63b 90d4 b73c 6263 2fbc
000000a0: c89f 8e3b 2ef3 adbc 3277 013c c27c c0ba
000000b0: 82d4 c2bc 4cc8 a039 80a4 7f3b bb21 cf3c
000000c0: e454 17bb b998 e53c e154 b4bb 7115 733c
000000d0: 4f3f efbb 6c03 a73c e3d9 56bc 08bc 973c
000000e0: af0e 873c 9abe 01bc a79f b8bc 8da6 7f3b
000000f0: 8333 093c 648b b2bc 1d6c fdbb a2fe a7ba
00000100: 63ad 7abc 0eed cf3c 118a 0a3c 9ce4 84bb
00000110: 2549 89bc 8c4a 11bc df16 bdbb 5858 8c3c
00000120: 0318 053c d6ee c93c 3a99 adbc aac1 a43c
00000130: 408e 69bc 65d5 c3bb c689 b9bc 15d7 123b

fc2.weight f4 [10, 80]
-0.03077602 -0.012762797 0.048788525 0.03529737 0.015372668 0.048555315 0.048259035 -0.033323366
-0.021833822 0.007168923 -0.07093401 -0.10035427 -0.079404846 -0.02073071 -0.119801 -0.09500124
0.07068066 0.088670634 -0.121962234 0.05008763 0.00042257435 -0.10654677 0.023619968 -0.06982862
0.0816408 0.029810356 0.011484666 -0.08392653 0.061755717 -0.06662228 -0.10631385 0.08160043
-0.061735902 -0.05342729 -0.07475681 0.06190341 0.08930286 0.08629162 0.057995293 -0.112849385
-0.0009683304 0.08353116 -0.0627204 -0.107813865 0.017933333 -0.04664464 0.03726451 -0.031141743
0.03705769 -0.038438465 -0.018197078 -0.0373049 -0.093921386 -0.03962403 -0.07097105 -0.022180835
-0.047798935 -0.042589985 0.08183076 -0.097988 0.06603424 -0.012075186 -0.06925921 -0.11266731
0.034507696 0.034304272 0.05822161 0.107040085 -0.11224358 -0.060509603 0.084098466 -0.08003297
0.06574587 0.0366347 0.08834749 0.079365306 0.09278531 -0.032773294 -0.033876587 0.007520112
0.06234917 0.0106155565 0.037405234 -0.0879555 0.097167425 -0.0957941 0.026144844 -0.11179869
-0.046958536 -0.10767426 -0.05948703 -0.11793817 -0.040911097 -0.083128214 0.009611401 -0.060480922
0.055794537 -0.10964761 0.0011161916 0.021769293 -0.02989098 -0.033978604 -0.0938238 0.08669765
0.05739826 -0.08812578 -0.013280819 -0.03715184 0.072178036 -0.050893873 -0.06018949 0.06158165
-0.12444603 -0.051121086 -0.00810552 0.014706968 -0.08679811 0.06351669 0.07826194 -0.074390925
-0.017471291 -0.06516523 0.08256381 -0.08755972 -0.060083844 0.052642263 -0.038457103 -0.06297377
-0.07093061 -0.10043474 0.07585116 -0.008974683 -0.08251113 0.04941501 -0.09093839 0.054506075
0.087000646 0.0011056839 0.05742225 0.024370922 -0.05695881 0.048276704 -0.10837534 0.09851524
0.10471956 0.028373724 0.106921636 -0.09094465 -0.08399712 0.026872795 0.050192844 0.047912855
-0.051019344 0.08438756 0.025335254 0.0072379494 0.0035925074 -0.06389822 0.008225799 -0.009014706
-0.013160948 0.041138213 -0.11892646 -0.037609704 -0.063124225 -0.042251963 -0.011194618 0.06590894
0.051708765 -0.12221283 -0.028671656 -0.114488706 0.09087071 -0.071450464 -0.086262286 -0.059656043
-0.0937038 -0.06750807 0.060128663 0.094016135 0.065442786 -0.044240456 -0.04471224 -0.110936046
0.059864156 0.053296067 0.0789041 -0.05729242 -0.082901224 -0.03034459 -0.106671296 0.053020526
-0.12756573 0.04650623 0.07636884 0.09253783 -0.04808718 -0.07957225 0.08828939 -0.063168176
-0.1001051 -0.009771245 0.07889343 0.06571495 -0.031692084 0.01116109 0.07230434 0.0016825026
-0.014759254 0.07549075 -0.021429641 -0.0905994 -0.12209688 0.09043889 0.06471173 0.04127285
0.05143862 0.05141201 0.096510164 -0.10311268 0.070428774 -0.028577244 0.08477 -0.020987336
-0.07436528 -0.12671506 -0.097138636 -0.06620603 0.031094588 -0.11447529 -0.032393202 0.066949494
-0.05079093 -0.029889666 -0.0027758954 -0.04227146 -0.05473732 -0.002767132 -0.06470212 0.07941274
-0.09327469 -0.08391076 0.019737033 -0.02398124 -0.057599068 0.06175745 0.09516585 -0.124795176
0.016195418 -0.11781219 0.0143390875 -0.014992363 0.019419713 0.07078524 0.068710424 0.049296148
00000000: fe1d fcbc 0d1b 51bc 7ad6 473d fa93 103d
00000010: a5dd 7b3c f0e1 463d 44ab 453d 157e 08bd
00000020: d8dc b2bc 49e9 ea3b da45 91bd 8a86 cdbd
00000030: 029f a2bd 73d3 a9bc 3a5a f5bd 0390 c2bd
00000040: 06c1 903d f398 b53d 56c7 f9bd b028 4d3d
00000050: f88c dd39 3135 dabd aa7e c13c 4f02 8fbd
00000060: 4b33 a73d d934 f43c 2e2a 3c3c ace1 abbd
00000070: 90f3 7c3d 4371 88bd 13bb d9bd 201e a73d
00000080: c9de 7cbd 93d6 5abd 191a 99bd 6e8e 7d3d
00000090: 6be4 b63d a9b9 b03d 798c 6d3d 941d e7bd
000000a0: 8ed7 7dba 6312 ab3d 8e73 80bd 84cd dcbd
000000b0: ede8 923c 730e 3fbd aca2 183d f81c ffbc
000000c0: cec9 173d a771 1dbd 0a12 95bc 06cd 18bd
000000d0: db59 c0bd cf4c 22bd 4559 91bd 95b4 b5bc
000000e0: d1c8 43bd d672 2ebd e396 a73d efad c8bd
000000f0: f63c 873d 00d7 45bc c6d7 8dbd 1ebe e6bd
00000100: f157 0d3d a382 0c3d c879 6e3d d537 db3d
00000110: f6df e5bd ebd8 77bd d13b ac3d 53e8 a3bd
00000120: c5a5 863d 440e 163d 87ef b43d 478a a23d
00000130: 3906 be3d 4a3d 06bd 2dc2 0abd 466b f63b
00000140: d861 7f3d dfec 2d3c 3b36 193d 0322 b4bd
00000150: b7ff c63d b22f c4bd b62d d63c b6f6 e4bd
00000160: 9857 40bd 5384 dcbd aca8 73bd 9189 f1bd
00000170: 6592 27bd 203f aabd 2379 1d3c d8ba 77bd
00000180: d088 643d ed8e e0bd 2d4d 923a 8455 b23c
00000190: eedd f4bc 262d 0bbd b126 c0bd 8a8e b13d
000001a0: 701a 6b3d 4a7b b4bd cb97 59bc 872c 18bd
000001b0: 14d2 933d 1876 50bd 4189 76bd 0a3d 7c3d
000001c0: 8fdd febd 5864 51bd 04cd 04bc 7ff5 703c
000001d0: 35c3 b1bd 0a15 823d cc47 a03d 455a 98bd
000001e0: f41f 8fbc 5975 85bd 3717 a93d 8352 b3bd
000001f0: 7a1a 76bd 6a9f 573d 3285 1dbd 64f8 80bd
00000200: 1144 91bd bbb0 cdbd da57 9b3d 8c0a 13bc
00000210: 98fb a8bd 6567 4a3d e83d babd c341 5f3d
00000220: 652d b23d 98ec 903a 9833 6b3d 87a5 c73c
00000230: a44d 69bd cbbd 453d e4f3 ddbd 5cc2 c93d
00000240: 3577 d63d 0370 e83c bbf9 da3d 3041 babd
00000250: af06 acbd 5624 dc3c 0397 4d3d 4540 443d
00000260: a9f9 50bd 63d3 ac3d e18b cf3c 522c ed3b
00000270: 4670 6b3b 12dd 82bd 80c5 063c 6bb2 13bc
00000280: 04a1 57bc 8b80 283d b78f f3bd a20c 1abd
00000290: 4647 81bd 6510 2dbd a269 37bc 44fb 863d
000002a0: 92cc 533d b84a fabd d2e0 eabc 0e79 eabd
000002b0: 6c1a ba3d 9f54 92bd 48aa b0bd e559 74bd
000002c0: c7e7 bfbd ac41 8abd 7949 763d 888b c03d
000002d0: de06 863d 7b35 35bd 2f24 37bd 7032 e3bd
000002e0: 1e34 753d fa4c 5a3d 7998 a13d 75ab 6abd
000002f0: 1ec8 a9bd 3895 f8bc 7b76 dabd 0d2c 593d
00000300: 97a0 02be 517d 3e3d 4467 9c3d 7984 bd3d
00000310: 10f7 44bd c7f6 a2bd 11d1 b43d 515e 81bd
00000320: e703 cdbd 9217 20bc e192 a13d 8f95 863d
00000330: 8fcf 01bd 01dd 363c 4c14 943d 6b87 dc3a
00000340: ccd0 71bc e59a 9a3d 378d afbc 2e8c b9bd
00000350: ee0d fabd 0638 b93d 9587 843d b80d 293d
00000360: 4db1 523d 6695 523d 1fa7 c53d be2c d3bd
00000370: f63c 903d d31a eabc e59b ad3d a2ed abbc
00000380: d34c 98bd 98c1 01be 9ff0 c6bd 0797 87bd
00000390: 14ba fe3c 0572 eabd bcae 04bd d11c 893d
000003a0: 260a 50bd 2cdb f4bc cceb 35bb d724 2dbd
000003b0: 3d34 60bd c558 35bb 8c82 84bd 26a3 a23d
000003c0: cd06 bfbd 68d9 abbd 8faf a13c 4e74 c4bc
000003d0: 00ed 6bbd 61f5 7c3d 50e6 c23d 9d94 ffbd
000003e0: 41ac 843c 8447 f1bd 7eee 6a3c 87a2 75bc
000003f0: 1716 9f3c daf7 903d 0db8 8c3d c2ea 493d

fc2.bias f4 [10]
-0.016004484 -0.028401399 -0.09555613 -0.10695377 0.020988386 -0.014441208 -0.04731834 -0.0807977
0.011162984 -0.088639334
00000000: d61b 83bc 0daa e8bc efb2 c3bd 940a dbbd
00000010: d6ef ab3c d19a 6cbc e0d0 41bd 4479 a5bd
00000020: f3e4 363c 8a88 b5bd
