classify-ckpt/model_epoch_14.pth (torch, 517704 bytes, 4 tensors)

fc1.weight f4 [80, 1600]
0	0x3ca0b95f	0.019619642
1	0xbc5ddf2d	-0.013541979
2	0xbc57a33d	-0.013161478
3	0xbcb0a06b	-0.021560868
4	0x3b76d08f	0.0037660932
5	0x3caa818b	0.020813724
6	0x3c591cd0	0.013251498
7	0xbc9b73da	-0.01897614
8	0xbbff18e7	-0.007784951
9	0x3c1c5588	0.009541877
10	0xbc88e093	-0.016708648
11	0x3c9d9170	0.019234389
12	0xbc0b5139	-0.008503252
13	0x3cbd4a5b	0.023106745
14	0x3c92d9e6	0.017926168
15	0xbcbde50f	-0.023180513
16	0xbc99a5af	-0.018755762
17	0x3ca2e9cb	0.019886872
18	0x3c87546a	0.016519744
19	0x3ca66b2c	0.020314775
20	0xbb852524	-0.0040632654
21	0x3c92769f	0.017878829
22	0xbc94f1df	-0.01818174
23	0x3cb6bc28	0.022306517
24	0xbb114b27	-0.0022170038
25	0x3cc6f8f5	0.024288634
26	0xbc832ca7	-0.016012503
27	0xbc93a935	-0.01802502
28	0xbc24940d	-0.010045064
29	0xbc2b9c6a	-0.010474304
30	0xbcabc936	-0.020969968
31	0x3c9321e2	0.017960493
32	0x3c67f25d	0.014156905
33	0x3c045d6d	0.008078915
34	0xbbdf3a22	-0.00681235
35	0xba07459a	-0.0005160213
36	0x3c37e6e0	0.0112244785
37	0x3c8a098d	0.016850257
38	0x3be4b89a	0.006980014
39	0xbc003837	-0.007825903
40	0xbcca3a90	-0.024686128
41	0x3bc1f60d	0.005919224
42	0xbb834e47	-0.004007134
43	0x3c40c507	0.011765725
44	0x39e432db	0.0004352544
45	0xbcbf1fbb	-0.02333056
46	0x3c913748	0.017726555
47	0x3b6095e7	0.0034269036
48	0x3cb4a52a	0.022051413
49	0xbcc39e45	-0.02387918
50	0x3c0b2c1a	0.008494401
51	0x3c62defa	0.013847107
52	0xbccb5734	-0.024821855
53	0x3cb67505	0.022272596
54	0x3cdae596	0.026720803
55	0xbb0d8fc0	-0.0021600574
56	0xbc98f963	-0.018673604
57	0xb9ef36cd	-0.00045626462
58	0x3c493cf6	0.012282601
59	0x3cbe85d7	0.02325718
60	0x3c05a28f	0.008156433
61	0xbc9dbeb8	-0.01925598
62	0xbc9f92ca	-0.019479174
63	0x3cafe6a3	0.02147228
64	0xbb0b7675	-0.0021280323
65	0xbc7de4a7	-0.0154964095
66	0x3b9a8a13	0.0047161668
67	0x3c7d61f8	0.015465252
68	0x39118733	0.00013878643
69	0x3c429ec1	0.01187867
70	0x3c8d84c2	0.017275218
71	0x3bc78980	0.0060893893
72	0xbc435a0d	-0.011923325
73	0x3ba453c0	0.0050148666
74	0x3b8fe046	0.004390749
75	0x3ca8da02	0.020611767
76	0x3b8e3de7	0.0043408754
77	0x3c5bdc0d	0.013419163
78	0x3b3d9f1a	0.0028933943
79	0x3c7330b3	0.014843154
80	0xbce24a05	-0.027623186
81	0xbbea231e	-0.0071452996
82	0xbcf926de	-0.030414041
83	0xbbfaadb1	-0.0076501
84	0xbc931b2a	-0.017957289
85	0xba0f02eb	-0.0005455452
86	0x3c00a8e9	0.007852771
87	0xbcb59e1e	-0.022170123
88	0xbbfc64be	-0.007702439
89	0x3bb06f02	0.005384327
90	0x3c408ce0	0.011752337
91	0xbcd9f028	-0.026603773
92	0xbcc69192	-0.024239335
93	0x3b594686	0.0033153608
94	0x3c8d4186	0.017243158
95	0xbd0050c1	-0.031327013
96	0xbc628451	-0.013825492
97	0x3ca7e975	0.020497063
98	0xbaf2fcbf	-0.0018538459
99	0x3c653878	0.013990514
100	0xbbcc18fd	-0.006228565
101	0xbcc27c28	-0.023740843
102	0xbcf873f6	-0.030328732
103	0x3b4a8776	0.0030903495
104	0xbc759bd7	-0.014990768
105	0xbc85a449	-0.016313689
106	0xbbee7f25	-0.0072783404
107	0xbcac8eb0	-0.021064132
108	0xbcc69e18	-0.024245307
109	0xbc7ee29f	-0.01555696
110	0x3c668247	0.0140691465
111	0xbc19d05b	-0.009388055
112	0x3c503e2b	0.0127101345
113	0xbc488c1d	-0.012240437
114	0x3c97f7ae	0.01855072
115	0xbc3eadda	-0.011638129
116	0xbc41a5b7	-0.011819295
117	0xbc971d3c	-0.018446557
118	0xbc2a627b	-0.010399456
119	0xbbc3c4b8	-0.0059743784
120	0xba17b69a	-0.00057874026
121	0xbc47f4cd	-0.012204361
122	0x3cc9ae75	0.02461932
123	0xbc56c383	-0.013108137
124	0x3ccc3097	0.024925513
125	0x3cc42fd7	0.023948593
126	0xbcb29cdb	-0.02180331
127	0xbbc0113a	-0.0058614286
128	0x3cbd3d9d	0.023100669
129	0xbc97b283	-0.018517738
130	0xbc36fe71	-0.011169062
131	0xbcb58bca	-0.022161383
132	0x3c190b41	0.009341062
133	0x3cf06a91	0.02934769
134	0x3ca81b9d	0.02052098
135	0x3b46a29a	0.003030932
136	0x3cae1573	0.021250462
137	0x3c8c7251	0.017144354
138	0x3c104240	0.008804858
139	0xbc172f16	-0.009227535
140	0x3c0ff240	0.008785784
141	0x3d0b9244	0.034075037
142	0x3c86a5bb	0.016436448
143	0x3b3c1469	0.002869869
144	0x3c9061ec	0.017624818
145	0x3c00e089	0.007866033
146	0x3cc23e95	0.023711482
147	0xbcd45547	-0.02591957
148	0xbc2b462d	-0.010453743
149	0x3bef31f9	0.0072996584
150	0x3bec45f1	0.007210486
151	0x3c8688a7	0.016422583
152	0x3b58c75a	0.0033077807
153	0x3c38d723	0.011281761
154	0xbc640006	-0.013916021
155	0xbca661e0	-0.020310342
156	0x3b55d640	0.0032628924
157	0x3c5af39a	0.013363743
158	0x3b75b733	0.0037493228
159	0xbb11b573	-0.0022233396
160	0x39932133	0.0002806276
161	0x3c4b9fbd	0.012428221
162	0xbc26fda0	-0.010192305
163	0xbc080dba	-0.008304054
164	0x3bedde7a	0.0072591873
165	0x3cc407cd	0.023929501
166	0xbc97c572	-0.018526766
167	0x3c3b8b8a	0.011446843
168	0xbc9af30f	-0.018914727
169	0xbc0cf38f	-0.008602991
170	0xbba3994a	-0.0049926387
171	0x3cb6b9eb	0.02230545
172	0xbc4bdac6	-0.012442296
173	0x3c0eb390	0.008709803
174	0xbc7b1a15	-0.015326043
175	0x3bdeaf6d	0.0067958147
176	0x3b9b4ed4	0.0047396217
177	0x3bb56e20	0.0055368096
178	0x3ca0439a	0.019563485
179	0xbc2f1da6	-0.010688221
180	0x3b3a6a5a	0.0028444738
181	0x3c4d4d27	0.012530602
182	0x3d03de94	0.03219469
183	0xbbcc3f80	-0.0062331557
184	0x3c8e75e6	0.017390203
185	0x3bc5734d	0.006025708
186	0x3c4c7893	0.012479919
187	0xbcda6270	-0.026658267
188	0x3cc97b1a	0.024594832
189	0xbb98d8cf	-0.0046645175
190	0xbce80d5a	-0.028326679
191	0x3aeb6ccd	0.0017961502
192	0xbca17d67	-0.019713117
193	0x3bdb6633	0.0066955327
194	0x3c73d67c	0.01488268
195	0x3cadd392	0.021219049
196	0x3c917b8b	0.017759105
197	0x3cab59af	0.020916788
198	0xbc706910	-0.014673486
199	0x3a50559a	0.0007947326
200	0x3cc42622	0.023943964
201	0x3cc93ccd	0.024565125
202	0xbc80dfc7	-0.015731705
203	0x3c9a7ff8	0.018859848
204	0xbc8aae96	-0.016928952
205	0xbca2ed68	-0.019888595
206	0xba8e0b80	-0.0010837168
207	0xbc2baa63	-0.010477635
208	0x3c80b6cb	0.015712162
209	0xbcc6b1fe	-0.024254795
210	0x3c8a2e1d	0.016867692
211	0xbbef3096	-0.007299493
212	0xbb7fc8f1	-0.0039029683
213	0x3c4b10a7	0.012394107
214	0x3cbe19a6	0.02320559
215	0xb8780ccd	-5.913973e-05
216	0x3c79011f	0.015198021
217	0x3c1b04f9	0.009461635
218	0x3c688497	0.014191768
219	0x3c9559d7	0.018231316
220	0x3c9b1290	0.01892975
221	0x3b57abed	0.0032908872
222	0x3c3410f9	0.010990375
223	0x3c1025c3	0.008798066
224	0x3cd09710	0.025462657
225	0xbbbabf8d	-0.005699104
226	0xba15399a	-0.0005692482
227	0x3c96f11b	0.018425515
228	0x3ca4b8dd	0.020107681
229	0xbc0f45ba	-0.008744651
230	0x3c2f695f	0.010706275
231	0xbc908d83	-0.017645603
232	0xbb476633	-0.0030425906
233	0xbb13a3a7	-0.0022527964
234	0x3ca10d75	0.019659737
235	0x3cb00095	0.021484653
236	0x3c69b47d	0.014264223
237	0xbc6096e7	-0.013707853
238	0xbb885d80	-0.0041615367
239	0x3b0800c0	0.00207524
240	0xbb1de600	-0.002409339
241	0x3c960097	0.018310828
242	0xbb85eee7	-0.0040873173
243	0xbc13afbd	-0.009014067
244	0x3c871a1f	0.016491948
245	0xbc76f413	-0.01507284
246	0xbcb693f2	-0.022287343
247	0x3c396243	0.011314931
248	0x3c4cc740	0.012498677
249	0xbc9ef4f6	-0.019403916
250	0x3ca6014f	0.020264296
251	0xb9cce2a6	-0.00039078778
252	0x3ca0d4be	0.019632693
253	0xbc167130	-0.009182259
254	0x3c917181	0.017754318
255	0xbbaa5e3b	-0.0051992214

fc1.bias f4 [80]
0	0xbb2ab48c	-0.0026047556
1	0xbc9bfd95	-0.019041816
2	0x3c917856	0.017757576
3	0xbc0138de	-0.007887093
4	0x3c0418da	0.008062566
5	0xbc376ab2	-0.011194872
6	0x3c18d1c8	0.0093273595
7	0x3be2244f	0.006901301
8	0xb96000c1	-0.00021362586
9	0xbbae46d2	-0.005318501
10	0x3b96be2b	0.0046003065
11	0x3cabc32c	0.020967089
12	0xbb8a3133	-0.004217291
13	0xbc714d20	-0.014727861
14	0x3cc3a4a3	0.023882216
15	0xbc55c096	-0.013046404
16	0x3c81d14c	0.01584687
17	0x3c55a983	0.013040903
18	0x3d02cad4	0.031931713
19	0x3aba4f05	0.0014214223
20	0x3c97f0a1	0.018547358
21	0xbb9f569c	-0.0048626196
22	0xbacd5500	-0.0015665591
23	0x3baf32f9	0.0053466526
24	0xbc3a10bf	-0.011356532
25	0xbb956c0a	-0.0045599984
26	0xbc6c0c74	-0.014407266
27	0x3990d89e	0.00027627213
28	0xbb84e4cd	-0.0040555955
29	0x3cb876ee	0.022517648
30	0x3ce377ec	0.027767144
31	0x3ca4bd61	0.020109834
32	0xbb9186a3	-0.004441099
33	0xbb5934fd	-0.0033143156
34	0x3c436b1d	0.011927393
35	0xbc12a1a8	-0.008949675
36	0x3c5a5793	0.013326543
37	0x3bf98450	0.00761465
38	0x3cbc951a	0.023020316
39	0xbc38e894	-0.01128592
40	0x3b9750cb	0.0046177856
41	0xbcac07e4	-0.020999856
42	0x3bff4949	0.0077907187
43	0xbab1e7c7	-0.0013573103
44	0xbcc2d482	-0.023782972
45	0x3a15de1a	0.00057169946
46	0x3b258a48	0.0025259424
47	0x3c9c9ed4	0.019118704
48	0xbb156710	-0.0022797026
49	0x3cdeef75	0.027213791
50	0xbba151a4	-0.0049230624
51	0x3c1db3e6	0.009625411
52	0xbc03cf03	-0.008044961
53	0x3ca24774	0.019809462
54	0xbc5c2749	-0.013437101
55	0x3c9096bc	0.01765
56	0x3c8fbb4a	0.017545361
57	0xbc0b4142	-0.008499445
58	0xbcbd6118	-0.023117587
59	0x3b7fa68d	0.0039009184
60	0x3ab5724a	0.0013843265
61	0xbcbfcb44	-0.023412354
62	0xbc6bb786	-0.014387017
63	0xbaa7fea2	-0.0012816975
64	0xbc712b02	-0.0147197265
65	0x3cbba3ee	0.022905316
66	0x3c140c8f	0.009036197
67	0xbb84e49c	-0.0040555727
68	0xbc8e0a76	-0.017338973
69	0xbc07c6ba	-0.008287126
70	0xbc4d864b	-0.012544225
71	0x3c8e8487	0.017397178
72	0x3b9ae457	0.0047269273
73	0x3cc4dbec	0.024030648
74	0xbcaf7c82	-0.021421675
75	0x3c988957	0.018620176
76	0xbc69740c	-0.014248859
77	0xbbd6da73	-0.006556803
78	0xbcbaa874	-0.022785403
79	0x3ad98f89	0.0016598563

fc2.weight f4 [10, 80]
0	0xbcbd7b89	-0.023130195
1	0xbba7ac66	-0.005116987
2	0x3d6727af	0.05643433
3	0x3d2fd145	0.042924184
4	0x3c966203	0.018357283
5	0x3d662527	0.056187775
6	0x3d64fc01	0.055904392
7	0xbcd2a578	-0.025713667
8	0xbc68d91c	-0.014211919
9	0x3c71f7bb	0.014768536
10	0xbd819d50	-0.06328833
11	0xbdc78be8	-0.09743482
12	0xbd92f6ce	-0.071759805
13	0xbca9d373	-0.02073071
14	0xbde5b1ae	-0.1121553
15	0xbdb2e79b	-0.087355815
16	0x3da069a4	0.07832649
17	0x3dc53aca	0.09630354
18	0xbdea1f4c	-0.11431751
19	0x3d6c787d	0.057732094
20	0x3c043043	0.008068147
21	0xbdca9a45	-0.09892706
22	0x3cc17eaa	0.023619968
23	0xbd7eb362	-0.06218279
24	0x3db6dba5	0.089286126
25	0x3d196ad8	0.03745541
26	0x3c9cb712	0.019130263
27	0xbd9c3983	-0.07628157
28	0x3d8e2266	0.06940155
29	0xbd719182	-0.058976658
30	0xbdd38373	-0.10327806
31	0x3db6c5f5	0.08924476
32	0xbd5d9704	-0.054099098
33	0xbd5ad693	-0.05342729
34	0xbd89717f	-0.06711101
35	0x3d7d8e6e	0.06190341
36	0x3dc38e95	0.0954868
37	0x3dc06226	0.0939372
38	0x3d866ed3	0.06564107
39	0xbdd77528	-0.10520393
40	0x3bdac7dd	0.0066766576
41	0x3dba9f3b	0.09112402
42	0xbd74e854	-0.059791878
43	0xbdd753bf	-0.1051402
44	0x3c92e8ed	0.017933333
45	0xbd1fbdcc	-0.038999364
46	0x3d37f34a	0.044909753
47	0xbcc0bc53	-0.0235273
48	0x3d245b3b	0.040126067
49	0xbcfc431e	-0.030793723
50	0xbc2cdf5e	-0.010551302
51	0xbcf308e3	-0.029667323
52	0xbdb0b4e4	-0.08628252
53	0xbd02fc53	-0.031978916
54	0xbd81b0e4	-0.06332567
55	0xbc6e2cf8	-0.014537089
56	0xbd247838	-0.040153712
57	0xbd0f21ea	-0.034944452
58	0x3db73f77	0.08947652
59	0xbdc8adef	-0.097988
60	0x3d96d844	0.07365468
61	0xbb91ba8f	-0.0044472883
62	0xbd7c6708	-0.061621696
63	0xbde6be1e	-0.11266731
64	0x3d2ca91b	0.04215346
65	0x3d2b9e75	0.041899163
66	0x3d86e571	0.06586731
67	0x3ddb37d5	0.107040085
68	0xbdd6379e	-0.10459827
69	0xbd58882b	-0.052864235
70	0x3dbbcd1f	0.09169983
71	0xbd944063	-0.07238843
72	0x3d964bc3	0.07338669
73	0x3d355f83	0.04428054
74	0x3dc1fee4	0.09472445
75	0x3db22aad	0.08699546
76	0x3dc448f1	0.09584225
77	0xbccdda4d	-0.025128508
78	0xbcd6e322	-0.026231352
79	0x3c787650	0.015164927
80	0x3d80e143	0.06292965
81	0x3c3f3a82	0.011671664
82	0x3d1b96e4	0.037985697
83	0xbda4ee34	-0.08053246
84	0x3dc75b06	0.09734158
85	0xbdba5c42	-0.09099628
86	0x3cd406db	0.025882175
87	0xbdd93df6	-0.10607521
88	0xbd2173c8	-0.03941706
89	0xbdcd2299	-0.100163646
90	0xbd6f557b	-0.05843113
91	0xbdf131cf	-0.11777078
92	0xbd2531bb	-0.04033063
93	0xbdaa3f20	-0.083128214
94	0x3c21d03e	0.009876309
95	0xbd755a2f	-0.05990046
96	0x3d66e978	0.056374997
97	0xbdd0fb7f	-0.10204219
98	0x3ab504ab	0.0013810595
99	0x3cb02eb6	0.021506649
100	0xbcf01c99	-0.029310511
101	0xbce7d84c	-0.02830138
102	0xbdc026b1	-0.0938238
103	0x3db2bee2	0.08727814
104	0x3d6c303a	0.05766318
105	0xbdb0f07e	-0.0863962
106	0xbc501522	-0.012700351
107	0xbd0f29ec	-0.03495209
108	0x3d95026c	0.072758526
109	0xbd4f6052	-0.050628968
110	0xbd75cd96	-0.060010515
111	0x3d7a6305	0.06112959
112	0xbdef3fe4	-0.11682108
113	0xbd516458	-0.051121086
114	0xbbf694bc	-0.0075250547
115	0x3c70f57f	0.014706968
116	0xbda50f5a	-0.08059569
117	0x3d829ff0	0.06378162
118	0x3da0d2b3	0.07852688
119	0xbd963085	-0.07333473
120	0xbc8cf46c	-0.017206393
121	0xbd6bb567	-0.057546046
122	0x3da96f7d	0.08273218
123	0xbdb30643	-0.08741429
124	0xbd761a7a	-0.060083844
125	0x3d58b530	0.05290717
126	0xbd1b2488	-0.037876636
127	0xbd62f169	-0.055406008
128	0xbd90e468	-0.07074815
129	0xbdc38635	-0.09547082
130	0x3d9c8831	0.07643164
131	0xbab2ba05	-0.001363576
132	0xbd9dd103	-0.077058814
133	0x3d4b7d2d	0.049679924
134	0xbdb5ce09	-0.08877189
135	0x3d5cbc8d	0.053890754
136	0x3db2b84b	0.08726557
137	0x3add0252	0.0016861653
138	0x3d6d9441	0.058002714
139	0x3cc7a587	0.024370922
140	0xbd4a2a8c	-0.049356982
141	0x3d64e3a2	0.05588115
142	0xbdd03c63	-0.10167768
143	0x3dc9c25c	0.09851524
144	0x3dd7a78c	0.10530004
145	0x3d132739	0.035926078
146	0x3ddb84a1	0.10718656
147	0xbdba4130	-0.09094465
148	0xbda716c9	-0.08158643
149	0x3ce0e5a8	0.027453259
150	0x3d6c857b	0.057744484
151	0x3d45560d	0.048177768
152	0xbd456641	-0.04819322
153	0x3dae03bb	0.08496805
154	0x3d033a1d	0.032037843
155	0x3c72b96d	0.014814717
156	0x3b77513c	0.0037737628
157	0xbd76f34b	-0.060290616
158	0x3bfebacd	0.007773733
159	0xbbe064ed	-0.006847969
160	0xbbb4c77c	-0.0055169445
161	0x3d47ca57	0.04877695
162	0xbde3e87d	-0.11128328
163	0xbcf69904	-0.03010226
164	0xbd7a2f70	-0.061080396
165	0xbd0def6a	-0.03465215
166	0xbb6995f2	-0.0035642353
167	0x3d9698b0	0.073533416
168	0x3d730df8	0.059339494
169	0xbdeaaad5	-0.11458365
170	0xbcac479d	-0.021030242
171	0xbde66682	-0.112500206
172	0x3dc9bfcf	0.09851038
173	0xbd92549f	-0.071450464
174	0xbda102f8	-0.07861894
175	0xbd550d32	-0.052014537
176	0xbdb03ffb	-0.08605953
177	0xbd7571a7	-0.05992284
178	0x3d8acaa3	0.06776931
179	0x3dd028be	0.10164021
180	0x3d95ad03	0.0730839
181	0xbd15f87d	-0.03661393
182	0xbd37242f	-0.04471224
183	0xbdd38ae8	-0.10329229
184	0x3d8a3e0c	0.06750116
185	0x3d79924e	0.060930543
186	0x3db13e7d	0.08654497
187	0xbd4b63f4	-0.04965587
188	0xbd9a2036	-0.07525675
189	0xbcb9facd	-0.022702599
190	0xbdd63166	-0.10458641
191	0x3d787092	0.06065423
192	0xbdf59fa2	-0.11993338
193	0x3d3e7d51	0.04650623
194	0x3dac0e6b	0.084011875
195	0x3dbd8479	0.09253783
196	0xbd27bf16	-0.040953718
197	0xbd9350ef	-0.07193171
198	0x3dc47798	0.09593123
199	0xbd637435	-0.055530746
200	0xbdbd5e79	-0.09246535
201	0xbb491c13	-0.00306869
202	0x3da5a98f	0.08088981
203	0x3d8a4194	0.06750789
204	0xbd01cf8f	-0.031692084
205	0x3c9a0518	0.018801257
206	0x3da3b9d1	0.07994426
207	0x3c189777	0.009313456
208	0xbc4f3381	-0.012646557
209	0x3daa3c4a	0.083122805
210	0xbc61e3f8	-0.013787262
211	0xbda9ecdb	-0.0829713
212	0xbdea7ef5	-0.114499964
213	0x3dc8dc77	0.09807675
214	0x3d942658	0.07233876
215	0x3d485280	0.048906803
216	0x3d71fc8a	0.05907873
217	0x3d71e2ab	0.059054058
218	0x3dd54ccd	0.10415039
219	0xbdd32cbe	-0.10311268
220	0x3d9fdd16	0.07805841
221	0xbcac1f26	-0.021010946
222	0x3dbd3d0f	0.09240162
223	0xbcabeda2	-0.020987336
224	0xbd88a5f1	-0.06672276
225	0xbdf43b57	-0.11925381
226	0xbdb74a29	-0.08949692
227	0xbd879707	-0.06620603
228	0x3d1af42e	0.037830524
229	0xbddad10d	-0.106844045
230	0xbccae207	-0.024765981
231	0x3d98bfc8	0.07458454
232	0xbd30c4fd	-0.043156613
233	0xbcb63e8a	-0.022246618
234	0x3b86d922	0.0041152397
235	0xbd0e2b36	-0.034709178
236	0xbd579702	-0.052634247
237	0x3b80e07d	0.003933011
238	0xbd69bba8	-0.05706373
239	0x3db239d6	0.087024376
240	0xbdaf5e5a	-0.08562918
241	0xbd9c3119	-0.07626552
242	0x3ce050bb	0.027382245
243	0xbc85e6cd	-0.016345406
244	0xbd6bc2a8	-0.057558686
245	0x3d81e21a	0.063419536
246	0x3dc8c159	0.09802503
247	0xbdf00323	-0.11719348
248	0x3cc32f15	0.023826161
249	0xbde1b022	-0.11019923
250	0x3cb417d3	0.021984017
251	0xbc75004b	-0.014953683
252	0x3cb79094	0.022407807
253	0x3d90f7da	0.07078524
254	0x3d9c6030	0.07635534
255	0x3d659e61	0.056059245

fc2.bias f4 [10]
0	0xbc08f5ea	-0.008359412
1	0xbce3e8be	-0.027820941
2	0xbdb41121	-0.087923296
3	0xbdcb63ae	-0.09931122
4	0x3ca72e83	0.02040792
5	0xbbdeb7f0	-0.0067968294
6	0xbd228252	-0.039675064
7	0xbd99057b	-0.074717484
8	0x3c5ce078	0.013481252
9	0xbdb1f6f1	-0.086896785
