classify-ckpt/model_epoch_77.pth (torch, 517704 bytes, 4 tensors)

fc1.weight f4 [80, 1600]
000000 5f b9 a0 3c 2d df 5d bc 3d a3 57 bc 6b a0 b0 bc
       0.019619642 -0.013541979 -0.013161478 -0.021560868
000010 fd b2 d8 3b 8b 81 aa 3c d0 1c 59 3c da 73 9b bc
       0.006613134 0.020813724 0.013251498 -0.01897614
000020 e7 18 ff bb e4 fe ce 3b 31 14 8e bc 70 91 9d 3c
       -0.007784951 0.0063170064 -0.017343612 0.019234389
000030 21 85 21 bc 5b 4a bd 3c 96 81 94 3c 0f e5 bd bc
       -0.009858401 0.023106745 0.018128198 -0.023180513
000040 af a5 99 bc cb e9 a2 3c 6a 54 87 3c 5f d1 ee 3c
       -0.018755762 0.019886872 0.016519744 0.02915257
000050 e6 77 94 3b 9f 76 92 3c df f1 94 bc 28 bc b6 3c
       0.0045308946 0.017878829 -0.01818174 0.022306517
000060 1a 29 25 3a f5 f8 c6 3c a7 2c 83 bc 78 d7 9b bc
       0.0006300375 0.024288634 -0.016012503 -0.019023642
000070 0d 94 24 bc 76 23 96 bc d4 fc b0 bc e2 21 93 3c
       -0.010045064 -0.018327456 -0.021604933 0.017960493
000080 5d f2 67 3c 6d 5d 04 3c 68 9b d8 bb 9a 45 07 ba
       0.014156905 0.008078915 -0.0066103227 -0.0005160213
000090 e0 e6 37 3c 8d 09 8a 3c 9a b8 e4 3b 37 38 00 bc
       0.0112244785 0.016850257 0.006980014 -0.007825903
0000a0 90 3a ca bc 0d f6 c1 3b 47 4e 83 bb 07 c5 40 3c
       -0.024686128 0.005919224 -0.004007134 0.011765725
0000b0 c9 1b 57 3b bb 1f bf bc 48 37 91 3c e7 95 60 3b
       0.0032822958 -0.02333056 0.017726555 0.0034269036
0000c0 2a a5 b4 3c 50 09 de bc de c4 00 3c fa de 62 3c
       0.022051413 -0.02710405 0.007859437 0.013847107
0000d0 26 71 d6 bc 05 75 b6 3c 46 8d dc 3c c0 8f 0d bb
       -0.026177 0.022272596 0.026922833 -0.0021600574
0000e0 63 f9 98 bc cd 36 ef b9 02 99 ac 3c a0 1d 03 3d
       -0.018673604 -0.00045626462 0.021069054 0.032010674
0000f0 89 38 89 3c b8 be 9d bc ca 92 9f bc a3 e6 af 3c
       0.01675059 -0.01925598 -0.019479174 0.02147228
000100 e3 7b 3c 3a a7 e4 7d bc 13 8a 9a 3b 72 05 6d 3c
       0.00071900914 -0.0154964095 0.0047161668 0.01446663
000110 33 87 11 39 7d e8 83 3b 24 51 88 3c 80 89 c7 3b
       0.00013878643 0.0040255175 0.016640253 0.0060893893
000120 0d 5a 43 bc c0 53 a4 3b 00 7f 96 3b 02 da a8 3c
       -0.011923325 0.0050148666 0.0045927763 0.020611767
000130 e7 3d 8e 3b 0d dc 5b 3c 1a 9f 3d 3b b3 30 73 3c
       0.0043408754 0.013419163 0.0028933943 0.014843154
000140 a3 7d e7 bc 96 f1 fe bb 7c 5a fe bc 14 be 07 bc
       -0.02825815 -0.007780264 -0.031049006 -0.008285064
000150 ca 91 77 bc 55 bb 9a ba 5a 83 ec 3b bc d1 ba bc
       -0.015110442 -0.0011805097 0.0072178068 -0.022805087
000160 9b 99 08 bc 7a 5e 0c 3b a4 25 36 3c c6 23 df bc
       -0.008337404 0.0021418617 0.011117373 -0.027238738
000170 2b 6b d3 bc 97 a9 2f 3b c0 7d 91 3c 90 ea 02 bd
       -0.025807938 0.0026803964 0.017760158 -0.031961977
000180 8d eb 6c bc 83 e2 ef 3c 4f 1b 23 bb a3 51 ba 3c
       -0.014460457 0.029282814 -0.0024888103 0.022744006
000190 75 e7 e0 bb 01 4a 78 bc 94 a7 fd bc 87 ea 20 3b
       -0.0068635293 -0.015154363 -0.030963697 0.0024553852
0001a0 36 23 6d bc e7 d7 8a bc ce a6 01 bc bd d3 b7 bc
       -0.014473727 -0.016948653 -0.0079133045 -0.022439832
0001b0 b6 d1 cb bc 13 e6 bf bc 0b 1b 5c 3c 97 37 24 bc
       -0.024880271 -0.023425138 0.013434182 -0.010023019
0001c0 ef d6 45 3c 59 f3 52 bc 5e 9f 99 3c 16 15 49 bc
       0.01207517 -0.012875401 0.01875275 -0.012273094
0001d0 f3 0c 4c bc da 50 9c bc b7 c9 34 bc 30 93 d8 bb
       -0.012454259 -0.019081522 -0.011034421 -0.006609343
0001e0 9a b6 17 ba cd f4 47 bc 75 ae c9 3c 83 c3 56 bc
       -0.00057874026 -0.012204361 0.02461932 -0.013108137
0001f0 44 83 e3 3c d7 2f c4 3c db 9c b2 bc 3a 11 c0 bb
       0.027772553 0.023948593 -0.02180331 -0.0058614286
000200 9d 3d bd 3c 8e 1d b2 bc ad 65 41 bc ca 8b b5 bc
       0.023100669 -0.021742608 -0.011804027 -0.022161383
000210 59 d7 02 3c 91 de 03 3d 4d c3 a9 3c 9c 9b c0 3b
       0.007985913 0.032194678 0.02072301 0.005877925
000220 73 15 ae 3c d8 6c d4 3c 40 42 10 3c d4 88 f8 b9
       0.021250462 0.025930807 0.008804858 -0.0004740419
000230 40 f2 0f 3c e4 c5 2e 3d bb a5 86 3c eb 56 49 3b
       0.008785784 0.042669192 0.016436448 0.0030721973
000240 99 b4 a7 3c 2c 31 04 3c 95 3e c2 3c 8a 83 dc bc
       0.020471858 0.008068364 0.023711482 -0.026918191
000250 2d 46 2b bc 5a 18 11 ba 79 77 d7 3b a7 88 86 3c
       -0.010453743 -0.00055349397 0.0065755215 0.016422583
000260 5a c7 58 3b 23 d7 38 3c a9 b0 60 bc e0 61 a6 bc
       0.0033077807 0.011281761 -0.013713994 -0.020310342
000270 40 d6 55 3b 9a f3 5a 3c 33 b7 75 3b 73 b5 11 bb
       0.0032628924 0.013363743 0.0037493228 -0.0022233396
000280 33 21 93 39 bd 9f 4b 3c a0 fd 26 bc ba 0d 08 bc
       0.0002806276 0.012428221 -0.010192305 -0.008304054
000290 98 94 25 3c cd 07 c4 3c 72 c5 97 bc 8a 8b 3b 3c
       0.010106228 0.023929501 -0.018526766 0.011446843
0002a0 0f f3 9a bc a5 c9 41 bc c2 67 b8 bb eb b9 b6 3c
       -0.018914727 -0.011827861 -0.0056276033 0.02230545
0002b0 a0 35 1d bc 90 b3 0e 3c b8 ca 77 bc 6d af de 3b
       -0.009595305 0.008709803 -0.0151240155 0.0067958147
0002c0 5a 4f 09 3c 20 6e b5 3b 9a 43 a0 3c bc 96 fd ba
       0.008380735 0.0055368096 0.019563485 -0.001934729
0002d0 5a 6a 3a 3b 27 4d 4d 3c f4 b2 04 3d 80 3f cc bb
       0.0028444738 0.012530602 0.032397225 -0.0062331557
0002e0 93 c8 a5 3c 4d 73 c5 3b 36 c9 4f 3c b3 90 e2 bc
       0.020237243 0.006025708 0.01268225 -0.027656889
0002f0 1a 7b c9 3c eb 16 4d bc f8 40 ed bc cd 6c eb 3a
       0.024594832 -0.012517671 -0.028961644 0.0017961502
000300 67 7d a1 bc 33 66 db 3b da 25 77 3c 92 d3 ad 3c
       -0.019713117 0.0066955327 0.015084708 0.021219049
000310 8b 7b 91 3c af 59 ab 3c 10 69 70 bc 9a 55 50 3a
       0.017759105 0.020916788 -0.014673486 0.0007947326
000320 22 26 c4 3c cd 3c c9 3c c7 df 80 bc f8 7f 9a 3c
       0.023943964 0.024565125 -0.015731705 0.018859848
000330 d0 b7 66 bc 68 ed a2 bc 80 0b 8e ba 63 aa 2b bc
       -0.01408191 -0.019888595 -0.0010837168 -0.010477635
000340 cb b6 80 3c 09 1d e1 bc 7f fa 84 3c 46 e6 91 bb
       0.015712162 -0.027479665 0.016232727 -0.0044524996
000350 4a 4c ac bb a7 10 4b 3c 56 c1 bf 3c cd 0c 78 b8
       -0.005258118 0.012394107 0.02340762 -5.913973e-05
000360 17 7b c4 3c 20 aa 49 3c 97 84 68 3c 3e 0f dd 3c
       0.023984475 0.012308627 0.014191768 0.026984807
000370 90 12 9b 3c 6f ee 64 3b be 6f a0 3c c3 25 10 3c
       0.01892975 0.0034932157 0.019584533 0.008798066
000380 bd e9 e7 3c 8d bf ba bb 9a 39 15 ba 6c 99 98 3c
       0.028309697 -0.005699104 -0.0005692482 0.018627845
000390 dd b8 a4 3c 1d f8 87 bc 23 02 25 3c 83 8d 90 bc
       0.020107681 -0.016597802 0.01007131 -0.017645603
0003a0 33 66 47 bb a7 a3 13 bb 25 b5 a2 3c 95 00 b0 3c
       -0.0030425906 -0.0022527964 0.019861767 0.021484653
0003b0 7d b4 69 3c e7 96 60 bc 80 5d 88 bb c0 00 08 3b
       0.014264223 -0.013707853 -0.0041615367 0.00207524
0003c0 00 e6 1d bb 97 00 96 3c e7 ee 85 bb bd af 13 bc
       -0.002409339 0.018310828 -0.0040873173 -0.009014067
0003d0 cc 6c 9e 3c 13 f4 76 bc f2 93 b6 bc 43 62 39 3c
       0.019338988 -0.01507284 -0.022287343 0.011314931
0003e0 40 c7 4c 3c 01 60 b9 bc e4 53 bd 3c 89 72 86 ba
       0.012498677 -0.022628786 0.023111291 -0.0010257523
0003f0 cc ba 95 3c 30 71 16 bc 31 19 93 3c c7 17 6b 3b
       0.018277548 -0.009182259 0.017956348 0.0035872327

fc1.bias f4 [80]
000000 49 cd 08 bb 49 03 81 bc c5 b3 95 3c 3b 55 cb bb
       -0.0020874313 -0.015748637 0.018274197 -0.0062052286
000010 a1 43 02 3c 06 e3 24 bc 51 7f 15 3c 45 5c 52 3c
       0.007950694 -0.010063892 0.009124593 0.012839382
000020 df d7 0a 3c 32 f1 3b 3b 39 ad a7 3b 4e 5a ad 3c
       0.008474319 0.00286777 0.0051170853 0.021161225
000030 35 59 53 bb 20 4d 71 bc da 05 c0 3c 49 5f 4d bc
       -0.0032249216 -0.014727861 0.02344029 -0.012534925
000040 8d f1 7d 3c d3 97 71 3c aa f6 01 3d f7 6a 8c 3a
       0.015499485 0.01474567 0.031729378 0.001071303
000050 f9 8f 9b 3c 8e c7 03 b9 00 55 cd ba 70 13 ae 3b
       0.01898955 -0.00012567473 -0.0015665591 0.0053123757
000060 62 4e 41 bc 5e f1 86 bb a8 94 63 bc 2f be 64 3b
       -0.011798473 -0.0041181287 -0.013890423 0.0034903397
000070 69 5d cd 39 e3 3a b4 3c 0a 32 e4 3c c3 16 a3 3c
       0.00039170243 0.022000736 0.027855892 0.019908315
000080 da dd 2c 3b fd 34 59 bb 14 b3 3d 3c a8 a1 12 bc
       0.002637735 -0.0033143156 0.01157834 -0.008949675
000090 37 f1 50 3c 73 94 e8 3b ea b7 b9 3c 5b 2a 33 bc
       0.012752823 0.0070977747 0.022670705 -0.010935391
0000a0 88 b4 90 3b 92 0d ae bc 3e 98 01 3c e8 a1 c1 ba
       0.0044160523 -0.021246705 0.0079098325 -0.0014772983
0000b0 82 d4 c2 bc 22 4e e9 39 14 91 76 3b 8b 9d d8 3c
       -0.023782972 0.00044499437 0.0037623094 0.02644231
0000c0 cf 93 17 bb 67 35 e4 3c 44 c7 ac bb a3 63 7d 3c
       -0.0023128872 0.027857495 -0.0052727778 0.01546565
0000d0 f9 20 fa bb 53 7e a6 3c 38 a1 5a bc 8e de 98 3c
       -0.007633325 0.020323908 -0.013344102 0.01866081
0000e0 17 31 88 3c 53 c9 02 bc eb 24 b9 bc 8d a6 7f 3b
       0.01662497 -0.00798257 -0.022600612 0.0039009184
0000f0 0b c0 1a 3c e2 56 af bc 85 b3 ea bb a2 fe a7 ba
       0.009445201 -0.021403734 -0.0071625137 -0.0012816975
000100 f6 67 78 bc 47 7a d1 3c 3f cf 0c 3c 9c e4 84 bb
       -0.015161505 0.025571002 0.008594333 -0.0040555727
000110 0c cf 89 bc 44 83 0d bc 4e af 99 bb 88 de 8c 3c
       -0.01682236 -0.008637253 -0.0046900874 0.017195955
000120 01 21 06 3c d5 d2 cb 3c 9b cf ad bc 6e dc a4 3c
       0.00818658 0.024880806 -0.021217158 0.02012464
000130 4a 9b 69 bc c6 59 c8 bb 7a 66 b8 bc 5c ba 03 3b
       -0.014258215 -0.0061142175 -0.022509802 0.0020100093

fc2.weight f4 [10, 80]
000000 c7 31 03 bd 2b a6 65 bc b4 b3 42 3d 30 8d 0b 3d
       -0.032029893 -0.014016668 0.04753466 0.034070194
000010 6f e1 76 3c 53 c6 41 3d 98 88 40 3d cb 72 0d bd
       0.015068396 0.047308277 0.047005266 -0.034533303
000020 3c e5 bc bc e6 69 c3 3b 37 d7 93 bd f1 23 ce bd
       -0.023058526 0.005963552 -0.07218783 -0.10065449
000030 4d 30 a5 bd 73 d3 a9 bc 98 eb f7 bd 56 21 c5 bd
       -0.08065853 -0.02073071 -0.12105483 -0.09625499
000040 a4 2f 8e 3d 5b 11 b3 3d 8e 58 fc bd 43 06 48 3d
       0.069426805 0.08743545 -0.12321578 0.048834097
000050 16 e6 59 ba 4c c6 dc bd aa 7e c1 3c b1 93 91 bd
       -0.00083121785 -0.107800096 0.023619968 -0.07108248
000060 fb a1 a4 3d dc ef e9 3c 60 9f 27 3c f3 72 ae bd
       0.08038708 0.028556757 0.010230869 -0.085180186
000070 c4 d0 77 3d 9f 02 8b bd a9 5f da bd f9 8c a4 3d
       0.06050183 -0.06787609 -0.10662777 0.08034701
000080 4a fa 80 bd 93 d6 5a bd 7b ab 9b bd 6e 8e 7d 3d
       -0.06297739 -0.05342729 -0.07601067 0.06190341
000090 07 6d b6 3d 4e 28 ae 3d b6 69 68 3d e9 ae e9 bd
       0.08907514 0.08503781 0.05674144 -0.114103146
0000a0 77 9d 11 bb 4e a9 a8 3d fd 10 81 bd d9 57 dd bd
       -0.00222191 0.08235417 -0.063020684 -0.10807771
0000b0 ed e8 92 3c 10 31 44 bd 0c 80 13 3d 0f 91 04 bd
       0.017933333 -0.047898352 0.036010787 -0.0323649
0000c0 cd 7d 16 3d 43 93 22 bd 92 57 9f bc 8f e3 1d bd
       0.036741067 -0.03969122 -0.019450936 -0.038547095
0000d0 f2 ea c2 bd 62 6f 27 bd 98 ea 93 bd a4 f9 bf bc
       -0.095174685 -0.040877707 -0.072224796 -0.023434468
0000e0 6e eb 48 bd 89 95 33 bd 83 05 a5 3d ef ad c8 bd
       -0.04905265 -0.04384378 0.08057692 -0.097988
0000f0 c0 bb 84 3d ec f9 59 bc 43 63 90 bd 1e be e6 bd
       0.06481123 -0.013304215 -0.07050183 -0.11266731
000100 30 35 08 3d e2 9a 07 3d 0a 57 69 3d d5 37 db 3d
       0.03325385 0.033106692 0.056967773 0.107040085
000110 48 71 e8 bd 8f fb 7c bd 34 c3 a9 3d 84 79 a6 bd
       -0.11349732 -0.061763342 0.08289185 -0.08128646
000120 58 15 84 3d 7b eb 10 3d 7d 28 b4 3d 85 04 a0 3d
       0.064493835 0.03538082 0.08796785 0.07813362
000130 ed 60 bd 3d d9 5f 0b bd d8 e4 0f bd 74 57 cd 3b
       0.09247003 -0.034026954 -0.03513035 0.0062665287
000140 6b a4 7f 3d 3b 36 2d 3c cc 78 19 3d a9 20 b6 bd
       0.06241266 0.010572012 0.037468717 -0.08892948
000150 92 f7 c6 3d ca d1 c5 bd 6e 8d d9 3c f0 b8 e6 bd
       0.09715189 -0.09659155 0.026556697 -0.11265743
000160 15 01 45 bd 23 cd de bd 55 d6 73 bd 92 91 f1 bd
       -0.048096735 -0.108789705 -0.059530575 -0.117953435
000170 0e c0 27 bd 20 3f aa bd dc ec 22 3c 81 e8 77 bd
       -0.040954642 -0.083128214 0.009944167 -0.060524467
000180 b1 7a 65 3d 51 0a e3 bd 58 89 b0 3a 2d 60 b5 3c
       0.05602521 -0.11085952 0.0013468666 0.022140587
000190 40 39 f5 bc 37 d0 09 bd b1 26 c0 bd 7c 07 b2 3d
       -0.029934525 -0.033645835 -0.0938238 0.08692834
0001a0 52 0c 6c 3d ed da b4 bd 6f 4e 5a bc 2f 5a 18 bd
       0.057628937 -0.08830819 -0.013324364 -0.03719538
0001b0 60 f3 93 3d 29 19 4f bd 42 9a 76 bd 54 57 7d 3d
       0.072241545 -0.050561104 -0.060205705 0.06185086
0001c0 53 b1 00 be 58 64 51 bd 7f 05 01 bc 7f f5 70 3c
       -0.12567644 -0.051121086 -0.0078748455 0.014706968
0001d0 f9 58 b2 bd 81 c3 82 3d 43 f6 a0 3d 18 71 98 bd
       -0.087083764 0.06384946 0.07859471 -0.07443446
0001e0 30 3c 8d bc 18 f9 87 bd 36 0f a9 3d 4a 59 b3 bd
       -0.017240614 -0.06639308 0.082548544 -0.08757265
0001f0 7a 1a 76 bd ae 30 58 3d db b2 1d bd f2 6a 83 bd
       -0.060083844 0.0527808 -0.038500648 -0.064168826
000200 aa 4c 91 bd 5e 6a cf bd cc d0 9b 3d 36 f8 26 bc
       -0.07094701 -0.1012771 0.07608184 -0.010191014
000210 cc 37 a9 bd f6 a9 4a 3d bb 54 ba bd b2 9e 60 3d
       -0.082625955 0.049478494 -0.09098192 0.054838844
000220 08 76 b2 3d 6f 37 8b 3a ef 05 6b 3d 87 a5 c7 3c
       0.08713919 0.0010621379 0.057378706 0.024370922
000230 50 3e 6e bd 6e cc 40 3d da 3f df bd 5c c2 c9 3d
       -0.058164895 0.04706996 -0.109008506 0.09851524
000240 27 f0 d6 3d 7e f3 de 3c ac 72 db 3d 30 41 ba bd
       0.10495024 0.027215715 0.10715231 -0.09094465
000250 51 66 ac bd 34 de de 3c 11 d2 48 3d 89 d1 44 3d
       -0.08417953 0.027205564 0.04902846 0.04805139
000260 9b 15 4f bd 55 4c ad 3d 42 b3 c7 3c 60 77 c6 3b
       -0.050557714 0.08461825 0.024377469 0.006056711
000270 bb 5e 6a 3b b6 3c 83 bd d1 da 0c 3c 13 69 14 bc
       0.003576203 -0.06408064 0.008597092 -0.009058255
000280 96 28 6c bc 72 5f 23 3d 97 20 f6 bd cb 43 1e bd
       -0.014413973 0.039885946 -0.12017935 -0.03863887
000290 2a a0 81 bd 0c f5 31 bd aa db 4b bc 69 75 84 3d
       -0.06329377 -0.043446586 -0.012442509 0.06467707
0002a0 5d b8 4e 3d 4f d4 fc bd 47 21 f5 bc 98 d0 ea bd
       0.05046879 -0.12345182 -0.029923094 -0.11465567
0002b0 c8 8a b7 3d 9f 54 92 bd e7 3a b3 bd 67 7a 79 bd
       0.08962017 -0.071450464 -0.08751469 -0.060907748
0002c0 d1 78 c2 bd af 9c 8c bd 2c 2a 71 3d ed 01 be 3d
       -0.094957 -0.068658225 0.05887811 0.09277711
0002d0 9e 76 83 3d ec 4b 3a bd 2f 24 37 bd 79 c3 e5 bd
       0.06419109 -0.04548256 -0.04471224 -0.11218924
0002e0 ca 15 70 3d 90 31 55 3d 66 08 9f 3d 9a c6 6f bd
       0.05861453 0.05204922 0.07765274 -0.05853901
0002f0 3e 59 ac bd e8 6a 01 bd 9f d2 da bd d5 0f 54 3d
       -0.08415459 -0.031596094 -0.10684704 0.05177291
000300 17 e5 03 be 51 7d 3e 3d 90 d6 99 3d 79 84 bd 3d
       -0.1288036 0.04650623 0.07511628 0.09253783
000310 65 ac 47 bd 75 86 a5 bd 8c 40 b2 3d d0 ec 83 bd
       -0.048748393 -0.08082286 0.087037176 -0.06441653
000320 57 93 cf bd d7 dd 1d bc 51 3b a1 3d f6 49 86 3d
       -0.10135525 -0.00963541 0.07872642 0.06557076
000330 8f cf 01 bd b2 5b 22 3c 90 84 91 3d 15 b3 e7 39
       -0.031692084 0.009909557 0.071053624 0.0004419318
000340 56 b9 74 bc 71 4e 98 3d e8 cf b9 bc b8 12 bc bd
       -0.014936766 0.074368365 -0.022682145 -0.09183258
000350 77 8f fc bd 0c a8 b6 3d e0 fb 81 3d 87 f0 23 3d
       -0.12332051 0.08918771 0.063468695 0.040024307
000360 1b 91 4d 3d a8 74 4d 3d 9a 16 c3 3d be 2c d3 bd
       0.05018721 0.05016008 0.09525795 -0.10311268
000370 b5 b3 8d 3d f8 43 f3 bc 86 12 ab 3d a2 ed ab bc
       0.06919042 -0.029695496 0.083531424 -0.020987336
000380 84 dd 9a bd af c6 02 be 1d 81 c9 bd 07 97 87 bd
       -0.07561782 -0.12771104 -0.098390795 -0.06620603
000390 3c 82 f4 3c ca fe ec bd 15 c0 09 bd 97 8e 86 3d
       0.029847257 -0.11572035 -0.03363045 0.065701656
0003a0 4a 23 55 bd a2 1e ff bc fa ba 6a bb 22 b0 31 bd
       -0.052035607 -0.031142537 -0.0035817013 -0.043380864
0003b0 73 ed 60 bd 0a 84 83 bb 6b 12 87 bd d9 25 a0 3d
       -0.05491395 -0.004013543 -0.0659531 0.07819719
0003c0 20 98 c1 bd bb 6a ae bd 4e 6a 97 3c 90 99 ce bc
       -0.09452844 -0.08516451 0.018483307 -0.025219709
0003d0 29 ef 6b bd 21 16 79 3d 52 55 c0 3d a6 03 01 be
       -0.057601128 0.06081212 0.093912736 -0.12599048
0003e0 b8 29 75 3c 13 c3 f3 bd e6 64 56 3c f9 aa 75 bc
       0.01496356 -0.11902442 0.0130855795 -0.014994376
0003f0 90 d2 94 3c da f7 90 3d cf 26 8a 3d a2 c8 44 3d
       0.01816681 0.07078524 0.067456834 0.0480429

fc2.bias f4 [10]
000000 eb 60 8d bc 80 87 e7 bc b1 40 c6 bd 51 9b dd bd
       -0.017258128 -0.028262854 -0.09680308 -0.1082064
000010 a8 6a ab 3c 00 92 80 bc df f2 46 bd 7a 09 a8 bd
       0.020924881 -0.015694618 -0.048571464 -0.082049325
000020 be 5d 22 3c ba 17 b8 bd
       0.009910045 -0.089889005
