classify-ckpt/model_epoch_93.pth (torch, 517704 bytes, 4 tensors)

fc1.weight f4 [80, 1600]
00000000: 5fb9 a03c 2ddf 5dbc 3da3 57bc 6ba0 b0bc
00000010: 187a d83b 8b81 aa3c d01c 593c da73 9bbc
00000020: e718 ffbb 3873 ce3b 3114 8ebc 7091 9d3c
00000030: 2185 21bc 5b4a bd3c 5d73 943c 0fe5 bdbc
00000040: afa5 99bc cbe9 a23c 6a54 873c 296a f03c
00000050: 0bab 993b 9f76 923c dff1 94bc 28bc b63c
00000060: fc61 233a f5f8 c63c a72c 83bc 78d7 9bbc
00000070: 0d94 24bc d62d 97bc d4fc b0bc e221 933c
00000080: 5df2 673c 6d5d 043c 50d4 d8bb 9a45 07ba
00000090: e0e6 373c 8d09 8a3c 9ab8 e43b 3738 00bc
000000a0: 903a cabc 0df6 c13b 474e 83bb 07c5 403c
000000b0: 04aa 563b bb1f bfbc 4837 913c e795 603b
000000c0: 2aa5 b43c 3a2c debc dec4 003c fade 623c
000000d0: 2671 d6bc 0575 b63c 0d7f dc3c c08f 0dbb
000000e0: 63f9 98bc cd36 efb9 3f20 ae3c 50dd 033d
000000f0: 5485 8a3c b8be 9dbc ca92 9fbc a3e6 af3c
00000100: c5b4 3a3a a7e4 7dbc 138a 9a3b 7205 6d3c
00000110: 3387 1139 fa7d 7f3b 2451 883c 8089 c73b
00000120: 0d5a 43bc c053 a43b 1846 963b 02da a83c
00000130: e73d 8e3b 0ddc 5b3c 1a9f 3d3b b330 733c
00000140: a37d e7bc 96f1 febb 7c5a febc 14be 07bc
00000150: 3dae 77bc 55bb 9aba 5a83 ec3b bcd1 babc
00000160: 9b99 08bc 2247 0b3b a425 363c c623 dfbc
00000170: 2b6b d3bc 97a9 2f3b 876f 913c 90ea 02bd
00000180: 8deb 6cbc c069 f13c 4f1b 23bb fed0 bb3c
00000190: 75e7 e0bb 6db0 75bc 94a7 fdbc 87ea 203b
000001a0: a93f 6dbc e7d7 8abc cea6 01bc bdd3 b7bc
000001b0: b6d1 cbbc 73f0 c0bc 0b1b 5c3c 9737 24bc
000001c0: efd6 453c 59f3 52bc 2591 993c 1615 49bc
000001d0: f30c 4cbc da50 9cbc b7c9 34bc 3093 d8bb
000001e0: 9ab6 17ba cdf4 47bc 75ae c93c 83c3 56bc
000001f0: 0d75 e33c d72f c43c db9c b2bc 3a11 c0bb
00000200: 9d3d bd3c 7840 b2bc ad65 41bc ca8b b5bc
00000210: 59d7 023c 74d7 033d 14b5 a93c b962 c03b
00000220: 7315 ae3c 15f4 d53c 4042 103c e1b1 98b9
00000230: 40f2 0f3c 486c 2f3d bba5 863c 1be5 483b
00000240: 62a6 a73c b714 043c 953e c23c 8a83 dcbc
00000250: 2d46 2bbc 5a64 32ba 7977 d73b a788 863c
00000260: 5ac7 583b 23d7 383c 1dcd 60bc e061 a6bc
00000270: 40d6 553b 9af3 5a3c 33b7 753b 73b5 11bb
00000280: 3321 9339 bd9f 4b3c a0fd 26bc ba0d 08bc
00000290: 2578 253c cd07 c43c 72c5 97bc 8a8b 3b3c
000002a0: 0ff3 9abc 7b0f 42bc c267 b8bb ebb9 b63c
000002b0: 1352 1dbc 90b3 0e3c 2ce7 77bc 6daf de3b
000002c0: e732 093c 206e b53b 9a43 a03c ffa0 e5ba
000002d0: 5a6a 3a3b 274d 4d3c d6ab 043d 803f ccbb
000002e0: 5cba a53c 4d73 c53b c1ac 4f3c b390 e2bc
000002f0: 1a7b c93c a92b 4fbc f840 edbc cd6c eb3a
00000300: 677d a1bc 3366 db3b 6609 773c 92d3 ad3c
00000310: 8b7b 913c af59 ab3c 1069 70bc 9a55 503a
00000320: 2226 c43c cd3c c93c c7df 80bc f87f 9a3c
00000330: 43d4 66bc 68ed a2bc 800b 8eba 63aa 2bbc
00000340: cbb6 803c f33f e1bc 7ffa 843c 291f 92bb
00000350: 4a4c acbb a710 4b3c 1db3 bf3c cd0c 78b8
00000360: 5402 c63c ad8d 493c 9784 683c 998e de3c
00000370: 9012 9b3c 9f7c 643b 89bc a13c c325 103c
00000380: 86db e73c 8dbf babb 9a39 15ba 338b 983c
00000390: ddb8 a43c 7d02 89bc 2302 253c 838d 90bc
000003a0: 3366 47bb a7a3 13bb eca6 a23c 9500 b03c
000003b0: 7db4 693c e796 60bc 805d 88bb c000 083b
000003c0: 00e6 1dbb 9700 963c e7ee 85bb bdaf 13bc
000003d0: 955e 9e3c 13f4 76bc f293 b6bc 4362 393c
000003e0: 40c7 4c3c eb82 b9bc ac45 bd3c 8972 86ba
000003f0: ccba 953c 3071 16bc f80a 933c be51 773b
0.019619642 -0.013541979 -0.013161478 -0.021560868 0.0066063516 0.020813724 0.013251498 -0.01897614
-0.007784951 0.0063003562 -0.017343612 0.019234389 -0.009858401 0.023106745 0.018121416 -0.023180513
-0.018755762 0.019886872 0.016519744 0.029347496 0.0046895794 0.017878829 -0.01818174 0.022306517
0.00062325574 0.024288634 -0.016012503 -0.019023642 -0.010045064 -0.018454473 -0.021604933 0.017960493
0.014156905 0.008078915 -0.0066171065 -0.0005160213 0.0112244785 0.016850257 0.006980014 -0.007825903
-0.024686128 0.005919224 -0.004007134 0.011765725 0.0032755146 -0.02333056 0.017726555 0.0034269036
0.022051413 -0.027120698 0.007859437 0.013847107 -0.026177 0.022272596 0.026916051 -0.0021600574
-0.018673604 -0.00045626462 0.02125561 0.032193482 0.016909279 -0.01925598 -0.019479174 0.02147228
0.00071222737 -0.0154964095 0.0047161668 0.01446663 0.00013878643 0.0038985 0.016640253 0.0060893893
-0.011923325 0.0050148666 0.0045859925 0.020611767 0.0043408754 0.013419163 0.0028933943 0.014843154
-0.02825815 -0.007780264 -0.031049006 -0.008285064 -0.015117225 -0.0011805097 0.0072178068 -0.022805087
-0.008337404 0.0021252115 0.011117373 -0.027238738 -0.025807938 0.0026803964 0.017753376 -0.031961977
-0.014460457 0.02946937 -0.0024888103 0.022926804 -0.0068635293 -0.014995676 -0.030963697 0.0024553852
-0.01448051 -0.016948653 -0.0079133045 -0.022439832 -0.024880271 -0.023552155 0.013434182 -0.010023019
0.01207517 -0.012875401 0.018745968 -0.012273094 -0.012454259 -0.019081522 -0.011034421 -0.006609343
-0.00057874026 -0.012204361 0.02461932 -0.013108137 0.027765775 0.023948593 -0.02180331 -0.0058614286
0.023100669 -0.021759257 -0.011804027 -0.022161383 0.007985913 0.032187894 0.020716228 0.0058711437
0.021250462 0.026117364 0.008804858 -0.0002912423 0.008785784 0.042827874 0.016436448 0.0030654136
0.02046508 0.008061579 0.023711482 -0.026918191 -0.010453743 -0.00068051147 0.0065755215 0.016422583
0.0033077807 0.011281761 -0.013720778 -0.020310342 0.0032628924 0.013363743 0.0037493228 -0.0022233396
0.0002806276 0.012428221 -0.010192305 -0.008304054 0.0100994455 0.023929501 -0.018526766 0.011446843
-0.018914727 -0.011844511 -0.0056276033 0.02230545 -0.009602088 0.008709803 -0.015130799 0.0067958147
0.0083739525 0.0055368096 0.019563485 -0.0017519294 0.0028444738 0.012530602 0.032390438 -0.0062331557
0.020230465 0.006025708 0.012675465 -0.027656889 0.024594832 -0.012644687 -0.028961644 0.0017961502
-0.019713117 0.0066955327 0.015077924 0.021219049 0.017759105 0.020916788 -0.014673486 0.0007947326
0.023943964 0.024565125 -0.015731705 0.018859848 -0.014088693 -0.019888595 -0.0010837168 -0.010477635
0.015712162 -0.027496314 0.016232727 -0.004459281 -0.005258118 0.012394107 0.023400838 -5.913973e-05
0.024171032 0.012301845 0.014191768 0.027167605 0.01892975 0.003486432 0.01974322 0.008798066
0.02830292 -0.005699104 -0.0005692482 0.018621063 0.020107681 -0.01672482 0.01007131 -0.017645603
-0.0030425906 -0.0022527964 0.019854985 0.021484653 0.014264223 -0.013707853 -0.0041615367 0.00207524
-0.002409339 0.018310828 -0.0040873173 -0.009014067 0.01933221 -0.01507284 -0.022287343 0.011314931
0.012498677 -0.022645434 0.023104511 -0.0010257523 0.018277548 -0.009182259 0.017949566 0.003773793

fc1.bias f4 [80]
00000000: 1c3f 09bb 8311 81bc 86a5 953c 8b9a cabb
00000010: 643e 023c c9ff 24bc c59b 153c e189 533c
00000020: 76b8 0d3c 0b5f 463b 5374 a73b 325e ad3c
00000030: 07cb 53bb 204d 71bc 1414 c03c bd7b 4dbc
00000040: 130e 7e3c 8f6a 723c c8fd 013d 914e 8d3a
00000050: c181 9b3c ac54 f9b8 0055 cdba 814c ae3b
00000060: ee31 41bc 472a 87bb 1cb1 63bc 114c 643b
00000070: 15c0 d539 1d49 b43c 7733 e43c fe24 a33c
00000080: 1e2d 333b fd34 59bb 90cf 3d3c a8a1 12bc
00000090: 92c7 503c 58cd e83b 25c6 b93c ce46 33bc
000000a0: 78ed 903b 9707 aebc b99c 013c 13c9 c1ba
000000b0: 82d4 c2bc 40dd ec39 491f 763b 33c5 d93c
000000c0: 149c 17bb 2327 e43c 588e acbb 61b9 7e3c
000000d0: 275a fabb 1370 a63c acbd 5abc c7ec 983c
000000e0: 5f3f 883c c8e5 02bc 2633 b9bc 8da6 7f3b
000000f0: 9938 1d3c 33f5 aebc 7363 e8bb a2fe a7ba
00000100: 824b 78bc d4e4 d13c b3eb 0c3c 9ce4 84bb
00000110: 45dd 89bc ce66 0dbc 67f3 94bb c5ec 8c3c
00000120: 913d 063c 26e1 cb3c 32e4 adbc d8f8 a43c
00000130: 049d 69bc af92 c8bb 3f58 b8bc 8448 033b
-0.0020942157 -0.01575542 0.018267404 -0.0061829737 0.007949445 -0.01007075 0.009131377 0.012911291
0.008649936 0.0030269052 0.0051103025 0.02116308 -0.0032317059 -0.014727861 0.023447074 -0.012541709
0.015506285 0.014795913 0.031736165 0.0010780861 0.01898277 -0.000118890166 -0.0015665591 0.0053191786
-0.011791689 -0.004124913 -0.013897207 0.0034835378 0.00040769638 0.02200752 0.027856572 0.0199151
0.0027340124 -0.0033143156 0.011585131 -0.008949675 0.012742894 0.007104557 0.02267749 -0.010942174
0.0044228397 -0.021243853 0.007910901 -0.0014784656 -0.023782972 0.00045178272 0.0037555269 0.02658329
-0.0023133801 0.027850693 -0.005265992 0.015547127 -0.0076401415 0.020317113 -0.013350885 0.018667592
0.01663178 -0.007989354 -0.022607397 0.0039009184 0.009596013 -0.021357154 -0.0070919334 -0.0012816975
-0.015154721 0.025621809 0.008601117 -0.0040555727 -0.016829142 -0.008630468 -0.0045456174 0.017202744
0.0081933895 0.024887633 -0.021226976 0.02013819 -0.014258627 -0.0061210017 -0.022503017 0.0020032236

fc2.weight f4 [10, 80]
00000000: a408 04bd 9801 69bc d7dc 413d 89bd 0a3d
00000010: 5f2d 763c 30f0 403d c3b1 3f3d 1f3d 0ebd
00000020: 2383 bebc 0b1c bd3b a342 94bd 2b3a cebd
00000030: b69b a5bd 73d3 a9bc 0557 f8bd c08c c5bd
00000040: 37c4 8d3d 7aa8 b23d f4c3 fcbd 782f 473d
00000050: 08ce 87ba b031 ddbd aa7e c13c 1eff 91bd
00000060: 9236 a43d 3d42 e83c fe43 243c 5cde aebd
00000070: e7f9 763d 0b6e 8bbd ef76 dabd 9521 a43d
00000080: 0564 81bd 93d6 5abd e816 9cbd 6e8e 7d3d
00000090: b561 b63d e2bc ad3d da92 673d 531a eabd
000000a0: 450a 1fbb f147 a83d 3527 81bd 406b ddbd
000000b0: ede8 923c e407 45bd 37a9 123d ef66 05bd
000000c0: dd4e 163d 036a 23bd 4905 a1bc 31b7 1ebd
000000d0: 5156 c3bd 3546 28bd 0156 94bd 44a7 c1bc
000000e0: 42c2 49bd 616c 34bd 169a a43d efad c8bd
000000f0: 7454 843d a43a 5dbc 12cd 90bd 1ebe e6bd
00000100: 545e 073d 69d2 063d 2f80 683d d537 db3d
00000110: b2dc e8bd 64d2 7dbd 0e5e a93d eae4 a6bd
00000120: 1faa 833d 9e14 103d 3714 b43d 189c 9f3d
00000130: 8d49 bd3d ab36 0cbd adbb 10bd 02a1 c63b
00000140: 88ab 7f3d ae52 2d3c e97f 193d eb69 b6bd
00000150: 70f6 c63d 4713 c6bd 5b16 da3c 5c02 e7bd
00000160: b7b8 45bd fe25 dfbd aee8 73bd b192 f1bd
00000170: 67d2 27bd 203f aabd 4f09 233c dafa 77bd
00000180: ce81 653d 0770 e3bd e338 b63a 27bb b53c
00000190: f35d f5bc 1ac9 09bd b126 c0bd 090b b23d
000001a0: 6f13 6c3d 1ae4 b4bd fd31 5abc 886c 18bd
000001b0: edf6 933d 0c12 4fbd a29c 76bd cb9b 7d3d
000001c0: 7be5 00be 5864 51bd 0ce9 00bc 7ff5 703c
000001d0: b969 b2bd 0ec7 823d d0f9 a03d 457a 98bd
000001e0: 3ae1 8cbc d660 88bd 170e a93d 3c5a b3bd
000001f0: 7a1a 76bd cb37 583d 34c5 1dbd 60d6 83bd
00000200: de4d 91bd cdd5 cfbd 59d4 9b3d a228 2abc
00000210: 8464 a9bd 13b1 4a3d e85d babd 2ecc 603d
00000220: 9579 b23d 42ec 883a 0c0d 6b3d 87a5 c73c
00000230: d908 6fbd bb01 403d 2d6e dfbd 5cc2 c93d
00000240: b4f3 d63d ea74 dd3c 3976 db3d 3041 babd
00000250: 806f acbd 6dec de3c e511 483d a6d8 443d
00000260: 23d1 4ebd e24f ad3d 7b70 c63c 0f55 c03b
00000270: 8738 6a3b 6f69 83bd afec 0d3c f73c 15bc
00000280: 7483 6fbc d688 223d f08b f6bd aedc 1ebd
00000290: 4eac 81bd 08c5 32bd a432 4fbc 680d 843d
000002a0: 45e5 4d3d b93d fdbd 3ace f6bc 94dc eabd
000002b0: 9c1f b73d 9f54 92bd 33a6 b3bd ec50 7abd
000002c0: 33e4 c2bd 0cf8 8cbd f053 703d f897 bd3d
000002d0: 580b 833d 1720 3bbd 2f24 37bd db2e e6bd
000002e0: ad3f 6f3d af5b 543d 299d 9e3d ee9b 70bd
000002f0: a3c4 acbd 5441 02bd 3ddf dabd 093a 533d
00000300: ae19 04be 517d 3e3d 3f6b 993d 7984 bd3d
00000310: dd01 48bd 90f1 a5bd 42d5 b13d b057 84bd
00000320: 72fe cfbd 332d 1cbc 562f a13d ac3f 863d
00000330: 8fcf 01bd c001 1f3c 6319 913d 531a 7b39
00000340: 3c1f 75bc 6ee4 973d 2e7d bbbc 3c7b bcbd
00000350: f1f7 fcbd d33c b63d 4b91 813d a01a 233d
00000360: a1ba 4c3d 1a9e 4c3d 4eab c23d be2c d3bd
00000370: 5f4a 8d3d 8ba7 f4bc 47a9 aa3d a2ed abbc
00000380: d748 9bbd 23ec 02be 66ec c9bd 0797 87bd
00000390: 85d6 f23c 6f69 edbd 7992 0abd a023 863d
000003a0: e7f7 55bd 0466 00bd ba46 70bb 525a 32bd
000003b0: cc06 61bd 4033 8abb 997d 87bd 3cbc 9f3d
000003c0: 8a03 c2bd 24d6 aebd a3bc 953c 993e d0bc
000003d0: 70ef 6bbd 794d 783d f6e9 bf3d 4935 01be
000003e0: 91e7 713c 8628 f4bd ba09 533c 10ac 75bc
000003f0: 2825 933c daf7 903d 68bb 893d e3f1 433d
-0.032234803 -0.014221571 0.04732975 0.03387216 0.015025466 0.04710406 0.046800386 -0.03472626
-0.02325589 0.0057711652 -0.072392724 -0.100696884 -0.0808634 -0.02073071 -0.12125973 -0.096459866
0.06922191 0.087235406 -0.123420626 0.048629254 -0.0010361085 -0.10800493 0.023619968 -0.07128738
0.08018221 0.028351897 0.010025976 -0.085385054 0.06029692 -0.068080984 -0.10667216 0.08014218
-0.06317905 -0.05342729 -0.076215565 0.06190341 0.08905355 0.08483292 0.056536533 -0.11430802
-0.0024267596 0.08216847 -0.06306306 -0.10811472 0.017933333 -0.04810323 0.035805907 -0.03256887
0.036696304 -0.039896023 -0.01965584 -0.038748924 -0.09537948 -0.04108258 -0.072429664 -0.023639329
-0.049257524 -0.04404867 0.08037202 -0.097988 0.06461421 -0.013502751 -0.07070364 -0.11266731
0.033048943 0.032915507 0.05676287 0.107040085 -0.11370219 -0.061968222 0.08269893 -0.08149131
0.064289324 0.035175912 0.08792918 0.077934444 0.09242544 -0.034231823 -0.03533523 0.006061674
0.062419444 0.010578794 0.0374755 -0.08906921 0.09714973 -0.096716456 0.026621988 -0.11279747
-0.04827186 -0.10895918 -0.059548073 -0.11795557 -0.04097214 -0.083128214 0.00995095 -0.060541965
0.056031995 -0.11105352 0.0013902452 0.022183968 -0.029952025 -0.03363905 -0.0938238 0.08693511
0.05763572 -0.088325694 -0.013317582 -0.03721288 0.07224832 -0.05055432 -0.06020797 0.061916154
-0.1258754 -0.051121086 -0.007868063 0.014706968 -0.08711571 0.06385623 0.07860148 -0.07445196
-0.01719724 -0.06659095 0.082546405 -0.08757445 -0.060083844 0.052787583 -0.038518146 -0.06437373
-0.0709493 -0.10148201 0.076088615 -0.010385664 -0.08271125 0.049485277 -0.090999424 0.05488222
0.08714596 0.0010446387 0.05738549 0.024370922 -0.058358047 0.04687665 -0.10909686 0.09851524
0.104957014 0.027033288 0.107159086 -0.09094465 -0.084197044 0.027212346 0.04884519 0.048058175
-0.050492417 0.08462502 0.024223557 0.005869515 0.003573926 -0.06416594 0.008662387 -0.009108773
-0.014618743 0.03968128 -0.1203841 -0.038784675 -0.06331693 -0.043644935 -0.012646351 0.064478695
0.050267477 -0.12365288 -0.030127633 -0.11467853 0.08941576 -0.071450464 -0.08771934 -0.06111233
-0.09516182 -0.06883249 0.0586738 0.09257501 0.06398648 -0.0456849 -0.04471224 -0.11239406
0.058410335 0.05184525 0.0774482 -0.058742456 -0.08435943 -0.031800583 -0.106871106 0.05156902
-0.12900421 0.04650623 0.07491159 0.09253783 -0.048829902 -0.08102715 0.08683254 -0.064620376
-0.101559535 -0.009532261 0.07870357 0.06555113 -0.031692084 0.009705007 0.0708492 0.00023947032
-0.01496106 0.074166164 -0.022886839 -0.092031926 -0.123519786 0.0889832 0.063265406 0.039820313
0.04998267 0.049955465 0.0950533 -0.10311268 0.06898951 -0.029865047 0.08333068 -0.020987336
-0.075822525 -0.12785392 -0.098595425 -0.06620603 0.029643307 -0.115923755 -0.033831093 0.06549764
-0.05223837 -0.03134729 -0.003666325 -0.043543167 -0.054938123 -0.0042175353 -0.06615753 0.07799575
-0.09473331 -0.08536938 0.018278426 -0.025420474 -0.057601392 0.06062076 0.093707964 -0.12617983
0.014764682 -0.11921792 0.012880737 -0.014994636 0.017962053 0.07078524 0.06725198 0.047838103

fc2.bias f4 [10]
00000000: 8d0e 8fbc 4779 e7bc 87ab c6bd a206 debd
00000010: 6f5c ab3c 863f 82bc 9bc9 47bd af74 a8bd
00000020: ed02 1f3c b882 b8bd
-0.017462993 -0.028256072 -0.09700685 -0.10841109 0.0209181 -0.015899431 -0.04877625 -0.08225381
0.009705287 -0.090093076
