classify-ckpt/model_epoch_10.pth (torch, 517704 bytes, 4 tensors)

fc1.weight f4 [80, 1600]
00000000: 5fb9 a03c 2ddf 5dbc 3da3 57bc 6ba0 b0bc
00000010: 0124 9d3b 8b81 aa3c d01c 593c da73 9bbc
00000020: e718 ffbb a4e4 3e3c 2198 77bc 7091 9d3c
00000030: 0044 0abc 5b4a bd3c 8722 a43c 0fe5 bdbc
00000040: afa5 99bc cbe9 a23c 6a54 873c e921 953c
00000050: 6049 cabb 9f76 923c dff1 94bc 28bc b63c
00000060: 66a7 9bba f5f8 c63c a72c 83bc 935c 8ebc
00000070: 0d94 24bc b10b 09bc b3b4 9ebc e221 933c
00000080: 5df2 673c 6d5d 043c 9c17 9abb 9a45 07ba
00000090: e0e6 373c 8d09 8a3c 9ab8 e43b 3738 00bc
000000a0: 903a cabc 0df6 c13b 474e 83bb 07c5 403c
000000b0: 9dfb bf3a bb1f bfbc 4837 913c e795 603b
000000c0: 2aa5 b43c b756 b2bc 1d55 253c fade 623c
000000d0: 97d0 cabc 0575 b63c 372e ec3c c08f 0dbb
000000e0: 63f9 98bc cd36 efb9 93aa 263c 9f16 b63c
000000f0: e220 c63b b8be 9dbc ca92 9fbc a3e6 af3c
00000100: 02fe 8fba a7e4 7dbc 138a 9a3b 9dfd 833c
00000110: 3387 1139 7a2f 653c 4599 9a3c 8089 c73b
00000120: 0d5a 43bc c053 a43b cc02 d53b 02da a83c
00000130: e73d 8e3b 0ddc 5b3c 1a9f 3d3b b330 733c
00000140: 8235 d5bc 16d1 b5bb 5b12 ecbc a95b c6bb
00000150: 04d2 81bc a9c6 893a ecd1 1a3c 9b89 a8bc
00000160: b612 c8bb 9292 f53b e3b5 5a3c a5db ccbc
00000170: 0476 bdbc 4bf5 a03b bf8a 9e3c 008d f3bc
00000180: 4e5b 48bc cead 963c 82d2 86b9 065a 543c
00000190: f5c6 97bb 7273 cabc 735f ebbc c395 993b
000001a0: 6c09 53bc 8e1f 71bc 1d2d babb ab91 9fbc
000001b0: 9589 b9bc 9350 5cbc a555 803c b04e ffbb
000001c0: 2e67 6a3c 1a63 2ebc e540 a93c d784 24bc
000001d0: b47c 27bc b908 8abc 7839 10bc b072 8fbb
000001e0: 9ab6 17ba cdf4 47bc 75ae c93c 83c3 56bc
000001f0: 859f d43c d72f c43c db9c b2bc 3a11 c0bb
00000200: 9d3d bd3c f56a 86bc 6ed5 1cbc ca8b b5bc
00000210: 7a18 1a3c 80d9 f83c 3e64 b93c 090d 853b
00000220: 7315 ae3c 4052 763c 4042 103c 880d 28bc
00000230: 40f2 0f3c bced 023d bba5 863c 442b a33b
00000240: dad0 983c 1271 233c 953e c23c a508 cfbc
00000250: 2d46 2bbc b529 1a3c fc4b 103c a788 863c
00000260: 5ac7 583b 23d7 383c c36e 41bc e061 a6bc
00000270: 40d6 553b 9af3 5a3c 33b7 753b 73b5 11bb
00000280: 3321 9339 bd9f 4b3c a0fd 26bc ba0d 08bc
00000290: 1acd 073c cd07 c43c 72c5 97bc 8a8b 3b3c
000002a0: 0ff3 9abc e5c8 d4bb 858e 5ebb ebb9 b63c
000002b0: e5fc 3abc 90b3 0e3c d288 58bc 6daf de3b
000002c0: 523f 6c3b 206e b53b 9a43 a03c 18fc 3fbc
000002d0: 5a6a 3a3b 274d 4d3c c285 fe3c 803f ccbb
000002e0: d4e4 963c 4d73 c53b 1c09 6f3c ce15 d5bc
000002f0: 1a7b c93c bb6e 27bb d7f8 dabc cd6c eb3a
00000300: 677d a1bc 3366 db3b df33 8b3c 92d3 ad3c
00000310: 8b7b 913c af59 ab3c 1069 70bc 9a55 503a
00000320: 2226 c43c cd3c c93c c7df 80bc f87f 9a3c
00000330: a83f 82bc 68ed a2bc 800b 8eba 63aa 2bbc
00000340: cbb6 803c 706a b5bc a042 973c da74 cdbb
00000350: 0c94 7bbb a710 4b3c 4762 cf3c cd0c 78b8
00000360: bc6e 563c d7e2 2b3c 9784 683c 9fea 8c3c
00000370: 9012 9b3c 06f7 b03b db7e 113c c325 103c
00000380: fe05 d93c 8dbf babb 9a39 15ba 6039 a83c
00000390: ddb8 a43c 026a d9bb 6292 493c 838d 90bc
000003a0: 3366 47bb a7a3 13bb 1656 b23c 9500 b03c
000003b0: 7db4 693c e796 60bc 805d 88bb c000 083b
000003c0: 00e6 1dbb 9700 963c e7ee 85bb bdaf 13bc
000003d0: 0d89 8f3c 13f4 76bc f293 b6bc 4362 393c
000003e0: 40c7 4c3c 68ad 8dbc 3e70 ae3c 750f 9e3a
000003f0: 5b5b a13c 3071 16bc 22ba a23c 0283 efbb
0.019619642 -0.013541979 -0.013161478 -0.021560868 0.0047955518 0.020813724 0.013251498 -0.01897614
-0.007784951 0.011651192 -0.015111954 0.019234389 -0.008439064 0.023106745 0.020035995 -0.023180513
-0.018755762 0.019886872 0.016519744 0.018204646 -0.0061732978 0.017878829 -0.01818174 0.022306517
-0.001187545 0.024288634 -0.016012503 -0.017378127 -0.010045064 -0.008364604 -0.019373273 0.017960493
0.014156905 0.008078915 -0.0047025215 -0.0005160213 0.0112244785 0.016850257 0.006980014 -0.007825903
-0.024686128 0.005919224 -0.004007134 0.011765725 0.001464713 -0.02333056 0.017726555 0.0034269036
0.022051413 -0.021769864 0.010091093 0.013847107 -0.024757667 0.022272596 0.02883063 -0.0021600574
-0.018673604 -0.00045626462 0.010172504 0.022227583 0.0060464004 -0.01925598 -0.019479174 0.02147228
-0.0010985734 -0.0154964095 0.0047161668 0.016112143 0.00013878643 0.01398837 0.018871913 0.0060893893
-0.011923325 0.0050148666 0.0065005776 0.020611767 0.0043408754 0.013419163 0.0028933943 0.014843154
-0.026026491 -0.0055486066 -0.028817346 -0.006053407 -0.015847214 0.0010511476 0.009449463 -0.020573428
-0.006105746 0.007494279 0.013349029 -0.025007078 -0.023127563 0.0049120537 0.019353269 -0.02973032
-0.0122288 0.018393423 -0.00025715312 0.012960916 -0.004631872 -0.024713252 -0.028732037 0.0046870424
-0.012880664 -0.014716996 -0.0056816475 -0.01947864 -0.022648612 -0.013446945 0.015665838 -0.0077913627
0.0143068265 -0.010643745 0.020660827 -0.010041437 -0.010222603 -0.016849862 -0.008802764 -0.0043776855
-0.00057874026 -0.012204361 0.02461932 -0.013108137 0.025954971 0.023948593 -0.02180331 -0.0058614286
0.023100669 -0.016408423 -0.00957237 -0.022161383 0.00940525 0.03037715 0.022630807 0.004060392
0.021250462 0.015034258 0.008804858 -0.010257132 0.008785784 0.031965002 0.016436448 0.004979523
0.018654276 0.0099756885 0.023711482 -0.025272677 -0.010453743 0.009409358 0.008807179 0.016422583
0.0033077807 0.011281761 -0.011806193 -0.020310342 0.0032628924 0.013363743 0.0037493228 -0.0022233396
0.0002806276 0.012428221 -0.010192305 -0.008304054 0.008288646 0.023929501 -0.018526766 0.011446843
-0.018914727 -0.006493675 -0.003395946 0.02230545 -0.011412834 0.008709803 -0.013216214 0.0067958147
0.0036048484 0.0055368096 0.019563485 -0.011717819 0.0028444738 0.012530602 0.03106964 -0.0062331557
0.01841966 0.006025708 0.014589574 -0.026011374 0.024594832 -0.0025548178 -0.026729984 0.0017961502
-0.019713117 0.0066955327 0.016992508 0.021219049 0.017759105 0.020916788 -0.014673486 0.0007947326
0.023943964 0.024565125 -0.015731705 0.018859848 -0.015899494 -0.019888595 -0.0010837168 -0.010477635
0.015712162 -0.02214548 0.018464386 -0.0062700333 -0.0038387803 0.012394107 0.025315417 -5.913973e-05
0.013087925 0.010491095 0.014191768 0.01720172 0.01892975 0.0054005412 0.008880342 0.008798066
0.026492115 -0.005699104 -0.0005692482 0.020535171 0.020107681 -0.0066349516 0.012302967 -0.017645603
-0.0030425906 -0.0022527964 0.021769565 0.021484653 0.014264223 -0.013707853 -0.0041615367 0.00207524
-0.002409339 0.018310828 -0.0040873173 -0.009014067 0.017521406 -0.01507284 -0.022287343 0.011314931
0.012498677 -0.0172946 0.021293756 0.001205905 0.019696882 -0.009182259 0.019864146 -0.0073093185

fc1.bias f4 [80]
00000000: 320d 75bb 94ef 9bbc 8c95 903c 6b2d 01bc
00000010: 13fb 023c 8225 49bc 0df4 073c fff7 e13b
00000020: aeff a2ba 4502 d0bb 2e7a b83b 4fa0 aa3c
00000030: 84aa 54bb 204d 71bc a35b b23c 99d1 45bc
00000040: b5b3 733c beb4 553c 0627 fd3c 6584 34ba
00000050: 925f a03c 8d11 c1bb 0055 cdba 3b32 543b
00000060: 02a2 5cbc 3861 67bb c22e 5bbc 6056 f0ba
00000070: d49f a6bb cc2d a73c 9f02 e23c a4dd 9b3c
00000080: 8563 b1bb fd34 59bb e58c 323c a8a1 12bc
00000090: 2275 4a3c 0760 b43b 074c ab3c 4cfa 28bc
000000a0: 1ce5 6e3b ac96 abbc 3cf6 fa3b 9d9b b1ba
000000b0: 82d4 c2bc 022a d2b9 6343 653b 8030 943c
000000c0: 86e0 1cbb 74f5 de3c 4930 c1bb 0445 f63b
000000d0: b291 15bc 018b b33c 4b49 4bbc 2128 883c
000000e0: a04c 873c 38a4 f6bb ca69 b5bc 8da6 7f3b
000000f0: ab09 ba39 2bc6 bfbc c924 87bc a2fe a7ba
00000100: 83d5 89bc 6915 bc3c 51f4 e23b 9ce4 84bb
00000110: d512 86bc 7258 2abc e963 5ebc 0e8d 863c
00000120: ca80 2b3b f994 b33c daed afbc d98f 983c
00000130: e573 6cbc 5cfc b6bb 7517 c3bc 0903 773b
-0.0037391898 -0.019035138 0.017649435 -0.007884364 0.007994431 -0.012277009 0.008297932 0.0068960185
-0.0012435818 -0.006347927 0.0056297993 0.020828394 -0.0032450268 -0.014727861 0.021772211 -0.012073898
0.014874388 0.013043581 0.030902397 -0.00068861834 0.019576821 -0.005891985 -0.0015665591 0.0032378573
-0.01346636 -0.003530575 -0.013377847 -0.0018336289 -0.005084971 0.02040758 0.02758914 0.019026585
-0.005413475 -0.0033143156 0.01089785 -0.008949675 0.012357028 0.0055046114 0.020910276 -0.010313582
0.0036452478 -0.02094587 0.007658748 -0.0013550405 -0.023782972 -0.0004008562 0.0034982793 0.018089533
-0.0023937537 0.02721665 -0.0058956486 0.0075155515 -0.009128975 0.021916868 -0.012407611 0.016620697
0.01651603 -0.0075269006 -0.02214517 0.0039009184 0.00035483888 -0.023409924 -0.016497033 -0.0012816975
-0.016825443 0.022959428 0.0069260974 -0.0040555727 -0.016366402 -0.010397064 -0.013573625 0.016424682
0.0026169294 0.021921622 -0.021475721 0.01862328 -0.014431928 -0.005584283 -0.023814896 0.0037691018

fc2.weight f4 [10, 80]
00000000: 3332 acbc 1810 45bb 53cc 6f3d e775 383d
00000010: db6b a13c 65c9 6e3d 99a0 6d3d 6c5c c1bc
00000020: 9f46 46bc c844 8a3c f595 7abd 3bd8 c4bd
00000030: 82a4 8ebd 73d3 a9bc 595f e1bd 4995 aebd
00000040: f9bb a43d 1d8d c93d facc e5bd 111d 753d
00000050: dfc2 263c 0148 c6bd aa7e c13c ca0e 76bd
00000060: e42d bb3d 7f0f 223d 6400 ae3c 31e7 97bd
00000070: b874 923d d8ec 68bd 87be d0bd 4318 bb3d
00000080: 5df2 54bd 93d6 5abd 2b1f 85bd 6e8e 7d3d
00000090: 23e0 c73d 7ab4 c43d 27c1 8a3d d522 d3bd
000000a0: 93f6 0f3c 82f1 be3d d17b 6fbd f2bb d4bd
000000b0: ede8 923c 3119 17bd df97 403d 2273 afbc
000000c0: 58f3 293d cef9 eabc d54c 0abc 90bf e1bc
000000d0: b562 acbd 85b0 f4bc 28bd 7abd 859b 4bbc
000000e0: a2d3 1bbd 487d 06bd c791 bb3d efad c8bd
000000f0: 902a 9b3d 352b 19bb 5fc2 73bd 1ebe e6bd
00000100: be4d 353d f841 343d c437 8b3d d537 db3d
00000110: 51e5 d1bd 88e3 4fbd 501f c03d 16ee 8fbd
00000120: 179e 9a3d 2804 3e3d 6f50 c63d ff7c b63d
00000130: 1212 c73d 2391 bcbc 649a c5bc 6a84 8d3c
00000140: d81d 793d cfa7 1c3c 36f2 123d 089c a0bd
00000150: 03a1 c73d 140a b6bd 030f cc3c b5eb d4bd
00000160: 51cf 18bd 7ad0 c8bd 27fa 77bd d9ef f0bd
00000170: 64d6 2dbd 203f aabd 947d fe3b dbfe 7dbd
00000180: ca44 5e3d 34a9 ccbd 352e c33a 7111 b13c
00000190: f9b2 00bd a78f d6bc b126 c0bd 8a6c ae3d
000001a0: 67a1 6c3d d342 b5bd d4a7 72bc c0b9 0abd
000001b0: 14b0 903d 285c 53bd be40 75bd 1f67 763d
000001c0: 93ed eabd 5864 51bd 13dd 1dbc 7ff5 703c
000001d0: d1bd a0bd 05a2 803d 5b80 9c3d da82 9abd
000001e0: bd11 8cbc d210 63bd 1eb2 a93d abca b2bd
000001f0: 7a1a 76bd 8710 503d 33c9 23bd ed4c 5abd
00000200: dd9b 90bd e633 bfbd d935 983d 2eb2 433a
00000210: fa7e 99bd 81d8 423d 5e20 babd b462 613d
00000220: f765 ae3d e94c deb9 94ef 643d 87a5 c73c
00000230: 0186 41bd 3688 6d3d 1aea cbbd 5cc2 c93d
00000240: 3455 d33d 35cb 1b3d 4a32 d73d 3041 babd
00000250: 1f69 abbd 51c8 e13c 9429 753d 69c7 453d
00000260: a7c1 3cbd 63b1 a93d b070 073d 9aa5 8a3c
00000270: c321 803b f697 7fbd cb95 b93b 1ac5 12bc
00000280: aa44 5fbb 596e 503d 2f96 dfbd ec4f e5bc
00000290: ce7d 75bd 014b 05bd 8699 beba fbea 9a3d
000002a0: 95b2 7b3d 8c58 e6bd 57fe 9abc 2b1d e4bd
000002b0: 1d12 ce3d 9f54 92bd a2b0 9cbd 9768 4cbd
000002c0: a9ed abbd 06cd 6cbd f61c 8f3d 0b7b d43d
000002d0: 4fff 993d ec53 0dbd 2f24 37bd b038 cfbd
000002e0: 4290 8e3d 731b 813d cd90 b53d 53bf 42bd
000002f0: ebcd 95bd 7db1 a8bc 14d6 d3bd 918a 803d
00000300: 4f4d f1bd 517d 3e3d bd60 b03d 7984 bd3d
00000310: cf1a 1fbd 9cfe 8ebd e6c9 c83d 93cf 5abd
00000320: 260c b9bd 414a 7bba 94f5 a73d 696e 8c3d
00000330: 8fcf 01bd 0b4e ab3c 1b0c a83d f329 3b3c
00000340: 6a1c 3cbc 9c8e ae3d 9e51 3fbc 889a a5bd
00000350: bb2c e6bd 692e cd3d 9c78 983d 07f7 503d
00000360: 1ca1 7a3d 4787 7a3d 049f d93d be2c d3bd
00000370: 642f a43d f0d5 9abc 608f c13d a2ed abbc
00000380: a353 84bd 5ee9 efbd e1f7 b2bd 0797 87bd
00000390: 8a98 233d be7e d6bd f298 b9bc 1112 9d3d
000003a0: 5820 28bd 5ff5 a4bc 55f8 cb3b a386 05bd
000003b0: 85d7 52bd 2df9 c53b 4517 61bd 1b8c b63d
000003c0: 7160 adbd eade 97bd eede df3c fc3a 69bc
000003d0: 468d 6bbd 711a 843d 0e6f c43d 3105 eebd
000003e0: 6278 d43c da5d ddbd 700f bc3c d537 74bc
000003f0: bf44 ae3c daf7 903d 175e 9e3d 2c66 653d
-0.02102003 -0.0030069407 0.058544468 0.045034315 0.01970475 0.058297534 0.058014486 -0.02360364
-0.012101798 0.0168785 -0.061178166 -0.09611555 -0.06964971 -0.02073071 -0.11004514 -0.08524568
0.080436654 0.09841368 -0.11220737 0.059842173 0.010178297 -0.096817024 0.023619968 -0.060072698
0.09139612 0.03956556 0.02124042 -0.07417143 0.071511686 -0.056866497 -0.1019259 0.09135487
-0.051988948 -0.05342729 -0.065000854 0.06190341 0.097595476 0.09604736 0.06775122 -0.10309378
0.008786815 0.09323408 -0.05846769 -0.1038741 0.017933333 -0.03688926 0.047019836 -0.021417204
0.041491836 -0.02868357 -0.00844117 -0.027557164 -0.08417264 -0.029869327 -0.06121555 -0.012427215
-0.038043626 -0.03283432 0.09158664 -0.097988 0.075764775 -0.00233717 -0.05951154 -0.11266731
0.044263594 0.044008225 0.06797746 0.107040085 -0.10248817 -0.0507541 0.093809724 -0.07027833
0.075496845 0.046390682 0.0968331 0.0891056 0.097202435 -0.023018425 -0.02412147 0.017275054
0.060819477 0.009561493 0.03587552 -0.078422606 0.097475074 -0.08888641 0.024909502 -0.1039652
-0.037307087 -0.09805389 -0.0605413 -0.11764497 -0.042440787 -0.083128214 0.007766435 -0.062010627
0.05426482 -0.099932104 0.001489109 0.021614762 -0.03142068 -0.026191546 -0.0938238 0.08516796
0.057771113 -0.08850636 -0.014810521 -0.03386855 0.07064834 -0.05160156 -0.059876196 0.060156938
-0.11471095 -0.051121086 -0.009635228 0.014706968 -0.078487046 0.06280903 0.07641669 -0.07544489
-0.017098302 -0.055435963 0.08285926 -0.08730062 -0.060083844 0.05079701 -0.0399868 -0.05329602
-0.070609786 -0.09336071 0.074321456 0.00074652105 -0.07494922 0.047569755 -0.09088205 0.05502577
0.08515542 -0.00042400442 0.055892542 0.024370922 -0.047246937 0.05799123 -0.09956761 0.09851524
0.103189856 0.03803559 0.10507639 -0.09094465 -0.0836966 0.027561339 0.059854105 0.048285875
-0.04608312 0.08285787 0.03306645 0.016924668 0.0039102747 -0.06240078 0.0056636087 -0.0089581255
-0.0034068027 0.050886486 -0.10917317 -0.027992211 -0.05993443 -0.032542232 -0.0014541603 0.0756435
0.061449606 -0.11247358 -0.018920107 -0.11138376 0.100620486 -0.071450464 -0.076508775 -0.049904432
-0.083949395 -0.057812713 0.06987946 0.10375031 0.075193994 -0.034503862 -0.04471224 -0.10118234
0.06961109 0.06304064 0.08865509 -0.047545742 -0.07314666 -0.020592446 -0.103435665 0.062764294
-0.117823236 0.04650623 0.08612201 0.09253783 -0.038843926 -0.06982157 0.09804134 -0.053420614
-0.0903552 -0.0009585955 0.08201137 0.068569966 -0.031692084 0.020911237 0.08205434 0.011423576
-0.011481384 0.08523294 -0.011677174 -0.08086115 -0.112390004 0.10018618 0.074448794 0.051016834
0.061188802 0.061164167 0.10626033 -0.10311268 0.080168515 -0.018900841 0.09451175 -0.020987336
-0.06461265 -0.11714433 -0.087386854 -0.06620603 0.039940394 -0.10473393 -0.022655938 0.076694615
-0.04104647 -0.020136533 0.006224672 -0.032599103 -0.051475067 0.006041667 -0.054953832 0.08913442
-0.0846566 -0.07415564 0.02732798 -0.014235254 -0.057507776 0.06450356 0.095914945 -0.11622084
0.02593631 -0.108089164 0.02295658 -0.0149058895 0.021273015 0.07078524 0.0773279 0.05600564

fc2.bias f4 [10]
00000000: e9c6 ccbb 0b32 f5bc dbbe afbd ca65 c9bd
00000010: d277 b83c 8afc bcbb b8dd 19bd 8858 9bbd
00000020: a4d3 5c3c 7ff5 b1bd
-0.006249298 -0.029931089 -0.08581325 -0.09833868 0.022518072 -0.0057674097 -0.037564963 -0.07585245
0.013478193 -0.08689403
