classify-ckpt/model_epoch_0.pth (torch, 517696 bytes, 4 tensors)

fc1.weight f4 [80, 1600]
0.019619642 -0.013541979 -0.013161478 -0.021560868 -0.0014316768 0.020813724 0.013251498 -0.01897614
-0.007784951 0.013016445 -0.010526009 0.019234389 -0.0031416744 0.023106745 0.015278686 -0.023180513
-0.018755762 0.019886872 0.016519744 0.015394635 -0.013797255 0.017878829 -0.01818174 0.022306517
-0.007414773 0.024288634 -0.016012503 -0.0143392775 -0.010045064 -0.0013394712 -0.01478733 0.017960493
0.014156905 0.008078915 -0.009459832 -0.0005160213 0.0112244785 0.016850257 0.006980014 -0.007825903
-0.024686128 0.005919224 -0.004007134 0.011765725 -0.0047625154 -0.02333056 0.017726555 0.0034269036
0.022051413 -0.02040461 0.014677038 0.013847107 -0.019460276 0.022272596 0.024073321 -0.0021600574
-0.018673604 -0.00045626462 0.0025485333 0.022578053 -0.0015775576 -0.01925598 -0.019479174 0.02147228
-0.0073258015 -0.0154964095 0.0047161668 0.019150993 0.00013878643 0.021013504 0.023457857 0.0060893893
-0.011923325 0.0050148666 0.0017432669 0.020611767 0.0043408754 0.013419163 0.0028933943 0.014843154
-0.021440547 -0.0009626609 -0.024231402 -0.0014674616 -0.01290264 0.0056370934 0.014035408 -0.015987484
-0.0015198004 0.012080224 0.017934974 -0.020421134 -0.016865795 0.009497999 0.022297846 -0.025144376
-0.0076428545 0.018743882 0.0043287924 0.013311385 -4.5926514e-05 -0.023165382 -0.024146093 0.009272988
-0.0099360915 -0.010131051 -0.0010957015 -0.015419446 -0.018062668 -0.005823027 0.020251783 -0.003205417
0.01889277 -0.0060578 0.023605432 -0.005455492 -0.0056366576 -0.012263916 -0.004216818 0.00020826046
-0.00057874026 -0.012204361 0.02461932 -0.013108137 0.01972774 0.023948593 -0.02180331 -0.0058614286
0.023100669 -0.015043169 -0.0049864245 -0.022161383 0.01470264 0.024149967 0.017873498 -0.0021667897
0.021250462 0.0074102874 0.008804858 -0.009906664 0.008785784 0.024341045 0.016436448 0.0002221281
0.012427047 0.005218294 0.023711482 -0.022233827 -0.010453743 0.01643449 0.013393124 0.016422583
0.0033077807 0.011281761 -0.016563501 -0.020310342 0.0032628924 0.013363743 0.0037493228 -0.0022233396
0.0002806276 0.012428221 -0.010192305 -0.008304054 0.0020614178 0.023929501 -0.018526766 0.011446843
-0.018914727 -0.0051284223 0.0011899996 0.02230545 -0.01764001 0.008709803 -0.017973524 0.0067958147
-0.004019127 0.0055368096 0.019563485 -0.01136735 0.0028444738 0.012530602 0.023445675 -0.0062331557
0.012192431 0.006025708 0.009832179 -0.022972524 0.024594832 0.0044703158 -0.02214404 0.0017961502
-0.019713117 0.0066955327 0.012235198 0.021219049 0.017759105 0.020916788 -0.014673486 0.0007947326
0.023943964 0.024565125 -0.015731705 0.018859848 -0.022126725 -0.019888595 -0.0010837168 -0.010477635
0.015712162 -0.020780226 0.02305033 -0.012497214 0.0014586091 0.012394107 0.020558108 -5.913973e-05
0.005463954 0.0042639137 0.014191768 0.01755219 0.01892975 0.00064314547 0.0012563841 0.008798066
0.020264884 -0.005699104 -0.0005692482 0.015777828 0.020107681 0.00039018109 0.016888913 -0.017645603
-0.0030425906 -0.0022527964 0.017012255 0.021484653 0.014264223 -0.013707853 -0.0041615367 0.00207524
-0.002409339 0.018310828 -0.0040873173 -0.009014067 0.011294178 -0.01507284 -0.022287343 0.011314931
0.012498677 -0.015929347 0.015066573 0.005791851 0.024994273 -0.009182259 0.015106837 -0.014933289
00000000: 5fb9 a03c 2ddf 5dbc 3da3 57bc 6ba0 b0bc
00000010: 1aa7 bbba 8b81 aa3c d01c 593c da73 9bbc
00000020: e718 ffbb ed42 553c 4875 2cbc 7091 9d3c
00000030: 8de4 4dbb 5b4a bd3c 7453 7a3c 0fe5 bdbc
00000040: afa5 99bc cbe9 a23c 6a54 873c c739 7c3c
00000050: e20d 62bc 9f76 923c dff1 94bc 28bc b63c
00000060: a0f7 f2bb f5f8 c63c a72c 83bc 4aef 6abc
00000070: 0d94 24bc 3291 afba 8f46 72bc e221 933c
00000080: 5df2 673c 6d5d 043c 69fd 1abc 9a45 07ba
00000090: e0e6 373c 8d09 8a3c 9ab8 e43b 3738 00bc
000000a0: 903a cabc 0df6 c13b 474e 83bb 07c5 403c
000000b0: e00e 9cbb bb1f bfbc 4837 913c e795 603b
000000c0: 2aa5 b43c 9227 a7bc f677 703c fade 623c
000000d0: 286b 9fbc 0575 b63c 6a35 c53c c08f 0dbb
000000e0: 63f9 98bc cd36 efb9 4b05 273b 9cf5 b83c
000000f0: 0dc6 ceba b8be 9dbc ca92 9fbc a3e6 af3c
00000100: 470d f0bb a7e4 7dbc 138a 9a3b 8be2 9c3c
00000110: 3387 1139 8324 ac3c b12a c03c 8089 c73b
00000120: 0d5a 43bc c053 a43b 557e e43a 02da a83c
00000130: e73d 8e3b 0ddc 5b3c 1a9f 3d3b b330 733c
00000140: 16a4 afbc 145b 7cba ef80 c6bc d757 c0ba
00000150: 9865 53bc 5eb7 b83b c5f4 653c 2ff8 82bc
00000160: 0a34 c7ba 22ec 453c 5eec 923c 394a a7bc
00000170: 232a 8abc 7f9d 1b3c f9a9 b63c 94fb cdbc
00000180: e970 fabb c58c 993c 8bd8 8d3b ff17 5a3c
00000190: 38a1 40b8 54c5 bdbc 07ce c5bc bbed 173c
000001a0: fdca 22bc b5fc 25bc a49d 8fba d8a1 7cbc
000001b0: 29f8 93bc 17cf bebb 11e7 a53c f911 52bb
000001c0: 03c5 9a3c 8280 c6bb 2e60 c13c fcc3 b2bb
000001d0: b6b3 b8bb 98ee 48bc 3c2d 8abb 7e60 5a39
000001e0: 9ab6 17ba cdf4 47bc 75ae c93c 83c3 56bc
000001f0: 129c a13c d72f c43c db9c b2bc 3a11 c0bb
00000200: 9d3d bd3c a077 76bc 2965 a3bb ca8b b5bc
00000210: 57e3 703c 27d6 c53c 716b 923c b300 0ebb
00000220: 7315 ae3c ffd1 f23b 4042 103c 8f4f 22bc
00000230: 40f2 0f3c df66 c73c bba5 863c 0feb 6839
00000240: d09a 4b3c 39fe aa3b 953e c23c b723 b6bc
00000250: 2d46 2bbc a0a1 863c d56e 5b3c a788 863c
00000260: 5ac7 583b 23d7 383c 2eb0 87bc e061 a6bc
00000270: 40d6 553b 9af3 5a3c 33b7 753b 73b5 11bb
00000280: 3321 9339 bd9f 4b3c a0fd 26bc ba0d 08bc
00000290: da18 073b cd07 c43c 72c5 97bc 8a8b 3b3c
000002a0: 0ff3 9abc 530c a8bb c3f9 9b3a ebb9 b63c
000002b0: c881 90bc 90b3 0e3c 363d 93bc 6daf de3b
000002c0: e2b2 83bb 206e b53b 9a43 a03c 1f3e 3abc
000002d0: 5a6a 3a3b 274d 4d3c 2511 c03c 803f ccbb
000002e0: c3c2 473c 4d73 c53b 2617 213c e030 bcbc
000002f0: 1a7b c93c ba7b 923b 6b67 b5bc cd6c eb3a
00000300: 677d a1bc 3366 db3b 2476 483c 92d3 ad3c
00000310: 8b7b 913c af59 ab3c 1069 70bc 9a55 503a
00000320: 2226 c43c cd3c c93c c7df 80bc f87f 9a3c
00000330: 1b43 b5bc 68ed a2bc 800b 8eba 63aa 2bbc
00000340: cbb6 803c 4b3b aabc 0cd4 bc3c 1dc1 4cbc
00000350: cd2e bf3a a710 4b3c 7a69 a83c cd0c 78b8
00000360: f80a b33b 4db8 8b3b 9784 683c 9cc9 8f3c
00000370: 9012 9b3c c398 283a 41ad a43a c325 103c
00000380: 8b02 a63c 8dbf babb 9a39 15ba 8140 813c
00000390: ddb8 a43c 3891 cc39 9e5a 8a3c 838d 90bc
000003a0: 3366 47bb a7a3 13bb 495d 8b3c 9500 b03c
000003b0: 7db4 693c e796 60bc 805d 88bb c000 083b
000003c0: 00e6 1dbb 9700 963c e7ee 85bb bdaf 13bc
000003d0: 370b 393c 13f4 76bc f293 b6bc 4362 393c
000003e0: 40c7 4c3c 437e 82bc cad9 763c 91c9 bd3b
000003f0: cac0 cc3c 3071 16bc ab82 773c c1aa 74bc

fc1.bias f4 [80]
-0.009892927 -0.018813774 0.015427467 -0.0127777085 0.0020235553 -0.0122395065 0.008373579 0.0010771614
-0.007062548 -0.012645098 0.0043067 0.014846285 -0.004827465 -0.014727861 0.014148333 -0.018068885
0.008965294 0.009865001 0.02460546 -0.004073541 0.013349604 -0.006855189 -0.0015665591 0.0014706383
-0.013032079 -0.00813772 -0.017800055 -0.007557561 -0.009481964 0.0127836345 0.021323608 0.019158997
-0.013037432 -0.0033143156 0.0064057284 -0.008949675 0.012324675 -0.002119258 0.017917093 -0.014736045
-0.002718095 -0.024365146 0.0016539311 -0.006568729 -0.023782972 -0.003147923 0.0020831618 0.018840874
-0.008509544 0.023871025 -0.0044593983 0.0016966107 -0.011269191 0.019058473 -0.015186026 0.018251596
0.013201007 -0.010798325 -0.020439576 0.0039009184 -0.0057215965 -0.0248821 -0.022316001 0.0005707814
-0.016762735 0.023784876 0.0071386383 -0.0040555727 -0.01786713 -0.012171446 -0.01987076 0.013389951
-0.005007023 0.021984283 -0.022580814 0.016992271 -0.020794895 -0.0038100404 -0.022111079 0.0010366243
00000000: f115 22bc 581f 9abc 7dc3 7c3c 9859 51bc
00000010: a09d 043b 3688 48bc 5631 093c 8a2f 8d3a
00000020: f26c e7bb 632d 4fbc 381f 8d3b d53d 733c
00000030: b62f 9ebb 204d 71bc 69ce 673c 3305 94bc
00000040: 2be3 123c d0a0 213c 6491 c93c 577b 85bb
00000050: 4cb8 5a3c 7ea1 e0bb 0055 cdba 6fc2 c03a
00000060: 8084 55bc 1254 05bc 6cd1 91bc 6ba5 f7bb
00000070: 3d5a 1bbc 7372 513c d9ae ae3c 54f3 9c3c
00000080: f49a 55bc fd34 59bb 25e7 d13b a8a1 12bc
00000090: 6fed 493c 40e3 0abb dec6 923c 746f 71bc
000000a0: 1122 32bb 6a99 c7bc b8c8 d83a 7e3e d7bb
000000b0: 82d4 c2bc 624d 4ebb a885 083b 2d58 9a3c
000000c0: 9d6b 0bbc 2b8d c33c 2520 92bb cf60 de3a
000000d0: 6aa2 38bc 8420 9c3c cfce 78bc 5f84 953c
000000e0: 0949 583c 75eb 30bc e670 a7bc 8da6 7f3b
000000f0: 3b7c bbbb 8cd5 cbbc 0cd0 b6bc 7ea0 153a
00000100: 0152 89bc 80d8 c23c 3deb e93b 9ce4 84bb
00000110: 165e 92bc bf6a 47bc 01c8 a2bc 8661 5b3c
00000120: f411 a4bb 6218 b43c 66fb b8bc 6033 8b3c
00000130: 0e5a aabc dfb1 79bb 4b22 b5bc 57df 873a

fc2.weight f4 [10, 80]
-0.01339604 0.00461701 0.06616844 0.052658282 0.0271359 0.065921366 0.065638416 -0.01597974
-0.0044778194 0.024502445 -0.05355418 -0.088698 -0.062025752 -0.02073071 -0.10242115 -0.0776217
0.08806065 0.10603767 -0.10458338 0.06746611 0.01780226 -0.08919305 0.023619968 -0.05244873
0.09901957 0.047189545 0.028864406 -0.06654749 0.079135664 -0.049242508 -0.094497845 0.098978825
-0.04436496 -0.05342729 -0.057376865 0.06190341 0.10521934 0.10367134 0.0753752 -0.0954698
0.016410803 0.10085803 -0.051048167 -0.09647019 0.017933333 -0.02926545 0.05464378 -0.01379323
0.04892816 -0.021059576 -0.00081719167 -0.019933173 -0.07654878 -0.022245472 -0.05359158 -0.004803276
-0.030419696 -0.02521034 0.09921062 -0.097988 0.08338874 0.005286807 -0.051887553 -0.110814825
0.05188757 0.051614445 0.07560144 0.107040085 -0.094864205 -0.043130126 0.10143364 -0.06265439
0.08312083 0.054014646 0.103857905 0.09672958 0.10463275 -0.015394479 -0.016497694 0.024899032
0.06402903 0.009337163 0.03538009 -0.07079873 0.10359078 -0.08126254 0.031272937 -0.09634136
-0.02968314 -0.09042999 -0.055784162 -0.11156622 -0.036213487 -0.083128214 0.013993751 -0.060606055
0.05747443 -0.092308134 0.009113092 0.029238699 -0.03001612 -0.018567612 -0.0938238 0.08304355
0.060429256 -0.08374926 -0.010053403 -0.026244648 0.07042392 -0.045374215 -0.05377278 0.06645401
-0.10708697 -0.051121086 -0.004877984 0.014706968 -0.07086319 0.06903637 0.07592128 -0.06921758
-0.009474322 -0.047811996 0.08894284 -0.081245966 -0.060083844 0.050572637 -0.037112083 -0.045672055
-0.06448095 -0.08573673 0.07572605 0.008370494 -0.06732538 0.04544536 -0.089477345 0.06125302
0.09138271 0.0043331273 0.057297103 0.024370922 -0.039622985 0.0656152 -0.091943644 0.10036771
0.10459444 0.04373621 0.106480956 -0.09094465 -0.08048729 0.03378865 0.06747794 0.055909827
-0.038459152 0.08426236 0.040091246 0.024548573 0.010018723 -0.060996145 0.008615429 -0.00273084
0.004217183 0.058510296 -0.10154921 -0.02226825 -0.052544728 -0.024918323 0.0043648034 0.073201045
0.06907358 -0.104849614 -0.011296121 -0.104010046 0.10634444 -0.071450464 -0.0688848 -0.042280465
-0.07632541 -0.05018873 0.07750344 0.10595455 0.072751425 -0.032299712 -0.04471224 -0.09355844
0.06451143 0.07066456 0.09627906 -0.039921794 -0.065522715 -0.012968458 -0.09604954 0.066868484
-0.11019925 0.04650623 0.08832625 0.09253783 -0.031219976 -0.06219758 0.1056653 -0.04579663
-0.08273122 0.001245632 0.08938742 0.07592752 -0.031692084 0.028535053 0.08967828 0.019047558
-0.004085539 0.09285693 -0.0059532044 -0.073237166 -0.104766086 0.10780996 0.07665301 0.051960643
0.06214918 0.06336839 0.10580738 -0.10311268 0.087792486 -0.01127686 0.102135725 -0.01913485
-0.058888674 -0.10952953 -0.081662886 -0.06620603 0.0449773 -0.09710995 -0.015032007 0.07159494
-0.03342249 -0.012512599 0.013249712 -0.026875116 -0.044086233 0.0026328755 -0.04733008 0.09305337
-0.07703261 -0.066531725 0.031934213 -0.0066112746 -0.051809337 0.07212749 0.094520144 -0.10859691
0.03356029 -0.10046519 0.030580573 -0.009240145 0.02226452 0.07078524 0.08323715 0.060611866
00000000: 107b 5bbc 494a 973b 5283 873d 36b0 573d
00000010: 1b4c de3c c801 873d 6f6d 863d f2e7 82bc
00000020: acba 92bb 5ab9 c83c a15b 5bbd 4ca7 b5bd
00000030: b70e 7ebd 73d3 a9bc 2ec2 d1bd 20f8 9ebd
00000040: 2459 b43d 472a d93d d02f d6bd ac2b 8a3d
00000050: 0cd6 913c d9aa b6bd aa7e c13c 7bd4 56bd
00000060: c6ca ca3d d349 413d 0c75 ec3c 0d4a 88bd
00000070: e111 a23d 83b2 49bd 1688 c1bd 69b5 ca3d
00000080: 08b8 35bd 93d6 5abd 0104 6bbd 6e8e 7d3d
00000090: 3d7d d73d a451 d43d 505e 9a3d ac85 c3bd
000000a0: f36f 863c a88e ce3d e217 51bd 2a92 c5bd
000000b0: ede8 923c 19be efbc 28d2 5f3d 00fd 61bc
000000c0: e568 483d 2285 acbc ce38 56ba e54a a3bc
000000d0: 9bc5 9cbd 233c b6bc d882 5bbd cd64 9dbb
000000e0: ba32 f9bc ea85 cebc f02e cb3d efad c8bd
000000f0: b7c7 aa3d f43c ad3b 0b88 54bd e2f2 e2bd
00000100: 1088 543d ab69 533d eed4 9a3d d537 db3d
00000110: 2a48 c2bd 37a9 30bd 71bc cf3d f250 80bd
00000120: 413b aa3d 763e 5d3d 74b3 d43d 281a c63d
00000130: b249 d63d 2039 7cbc 2c26 87bc 0ef9 cb3c
00000140: a721 833d e6fa 183c b7ea 103d edfe 90bd
00000150: 6727 d43d f96c a6bd 0d18 003d 9e4e c5bd
00000160: 0e2a f3bc 5c33 b9bd ef7d 64bd d57c e4bd
00000170: 9854 14bd 203f aabd 0c46 653c 0e3e 78bd
00000180: 4f6a 6b3d 0c0c bdbd 144f 153c ff85 ef3c
00000190: 5ee4 f5bc 1b1b 98bc b126 c0bd bd12 aa3d
000001a0: ab84 773d bb84 abbd 07b7 24bc 04ff d6bc
000001b0: 6b3a 903d 50da 39bd d940 5cbd 0a19 883d
000001c0: 6a50 dbbd 5864 51bd 7fd7 9fbb 7ff5 703c
000001d0: b820 91bd f162 8d3d 9e7c 9b3d f2c1 8dbd
000001e0: 303a 1bbc 83d6 43bd aa27 b63d 4964 a6bd
000001f0: 7a1a 76bd 4125 4f3d d702 18bd 9f12 3bbd
00000200: 970e 84bd bd96 afbd 4216 9b3d 6524 093c
00000210: e4e1 89bd ea24 3a3d e63f b7bd 72e4 7a3d
00000220: dc26 bb3d e8fc 8d3b 5eb0 6a3d 87a5 c73c
00000230: b64b 22bd 4361 863d f34c bcbd 968d cd3d
00000240: 9c35 d63d bd24 333d b012 da3d 3041 babd
00000250: 85d6 a4bd f865 0a3d e031 8a3d b401 653d
00000260: 5887 1dbd bf91 ac3d b836 243d 171a c93c
00000270: 9225 243c 18d7 79bd ba27 0d3c e4f7 32bb
00000280: 4c30 8a3b 7ea8 6f3d 08f9 cfbd e86b b6bc
00000290: 2439 57bd 8321 ccbc a006 8f3b 6eea 953d
000002a0: 7376 8d3d 65bb d6bd 5e13 39bc 3803 d5bd
000002b0: 1dcb d93d 9f54 92bd 7913 8dbd 482e 2dbd
000002c0: 7f50 9cbd b392 4dbd 20ba 9e3d b3fe d83d
000002d0: b3fe 943d b44c 04bd 2f24 37bd 919b bfbd
000002e0: 921e 843d 95b8 903d f52d c53d 0985 23bd
000002f0: c630 86bd a879 54bc 9fb5 c4bd 58f2 883d
00000300: 25b0 e1bd 517d 3e3d 65e4 b43d 7984 bd3d
00000310: 09c1 ffbc e4c2 7ebd 0c67 d83d 3f95 3bbd
00000320: fc6e a9bd 7944 a33a c010 b73d e37f 9b3d
00000330: 8fcf 01bd 58c2 e93c 3fa9 b73d a009 9c3c
00000340: fcdf 85bb c62b be3d 1913 c3bb 5efd 95bd
00000350: 9a8f d6bd 78cb dc3d 41fc 9c3d afd4 543d
00000360: 2390 7e3d 49c7 813d 8ab1 d83d be2c d3bd
00000370: 8ccc b33d 94c2 38bc 892c d13d b0c0 9cbc
00000380: 4035 71bd 0551 e0bd df3e a7bd 0797 87bd
00000390: 1e3a 383d 95e1 c6bd cf48 76bc 5ea0 923d
000003a0: 05e6 08bd a501 4dbc 5215 593c 3429 dcbc
000003b0: c493 34bd 528c 2c3b 30dd 41bd c492 be3d
000003c0: 46c3 9dbd c941 88bd 73cd 023d 64a3 d8bb
000003d0: 0736 54bd 94b7 933d c793 c13d 0f68 debd
000003e0: 8476 093d b2c0 cdbd 1c84 fa3c fa63 17bc
000003f0: 1564 b63c daf7 903d 3d78 aa3d 2644 783d

fc2.bias f4 [10]
0.0013746782 -0.023703799 -0.078189276 -0.09071469 0.022837495 -0.007318717 -0.031840988 -0.08227896
0.010615048 -0.09304782
00000000: 8c2e b43a 782e c2bc b321 a0bd a0c8 b9bd
00000010: b315 bb3c d9d1 efbb b26b 02bd df81 a8bd
00000020: bdea 2d3c db8f bebd
