classify-ckpt/model_epoch_78.pth (torch, 517704 bytes, 4 tensors)

fc1.weight f4 [80, 1600]
0.019619642 -0.013541979 -0.013161478 -0.021560868 0.006631432 0.020813724 0.013251498 -0.01897614
-0.007784951 0.0063170064 -0.017343612 0.019234389 -0.009858401 0.023106745 0.018146494 -0.023180513
-0.018755762 0.019886872 0.016519744 0.029170185 0.004545855 0.017878829 -0.01818174 0.022306517
0.00064833584 0.024288634 -0.016012503 -0.019023642 -0.010045064 -0.018342322 -0.021604933 0.017960493
0.014156905 0.008078915 -0.006592025 -0.0005160213 0.0112244785 0.016850257 0.006980014 -0.007825903
-0.024686128 0.005919224 -0.004007134 0.011765725 0.0033005942 -0.02333056 0.017726555 0.0034269036
0.022051413 -0.02710405 0.007859437 0.013847107 -0.026177 0.022272596 0.02694113 -0.0021600574
-0.018673604 -0.00045626462 0.021086128 0.032027546 0.016765552 -0.01925598 -0.019479174 0.02147228
0.0007373075 -0.0154964095 0.0047161668 0.01446663 0.00013878643 0.0040106513 0.016640253 0.0060893893
-0.011923325 0.0050148666 0.004611074 0.020611767 0.0043408754 0.013419163 0.0028933943 0.014843154
-0.02825815 -0.007780264 -0.031049006 -0.008285064 -0.015092144 -0.0011805097 0.0072178068 -0.022805087
-0.008337404 0.0021418617 0.011117373 -0.027238738 -0.025807938 0.0026803964 0.017778456 -0.031961977
-0.014460457 0.029299889 -0.0024888103 0.022760876 -0.0068635293 -0.015139402 -0.030963697 0.0024553852
-0.014455428 -0.016948653 -0.0079133045 -0.022439832 -0.024880271 -0.023440003 0.013434182 -0.010023019
0.01207517 -0.012875401 0.018771047 -0.012273094 -0.012454259 -0.019081522 -0.011034421 -0.006609343
-0.00057874026 -0.012204361 0.02461932 -0.013108137 0.027790852 0.023948593 -0.02180331 -0.0058614286
0.023100669 -0.021742608 -0.011804027 -0.022161383 0.007985913 0.032212976 0.020741306 0.005896223
0.021250462 0.025947882 0.008804858 -0.0004571712 0.008785784 0.042684153 0.016436448 0.003090494
0.020490156 0.008086661 0.023711482 -0.026918191 -0.010453743 -0.0005683604 0.0065755215 0.016422583
0.0033077807 0.011281761 -0.013695696 -0.020310342 0.0032628924 0.013363743 0.0037493228 -0.0022233396
0.0002806276 0.012428221 -0.010192305 -0.008304054 0.010124527 0.023929501 -0.018526766 0.011446843
-0.018914727 -0.011827861 -0.0056276033 0.02230545 -0.009577007 0.008709803 -0.015105718 0.0067958147
0.008399033 0.0055368096 0.019563485 -0.0019178584 0.0028444738 0.012530602 0.03241552 -0.0062331557
0.020255541 0.006025708 0.0127005465 -0.027656889 0.024594832 -0.012532538 -0.028961644 0.0017961502
-0.019713117 0.0066955327 0.015103006 0.021219049 0.017759105 0.020916788 -0.014673486 0.0007947326
0.023943964 0.024565125 -0.015731705 0.018859848 -0.014063612 -0.019888595 -0.0010837168 -0.010477635
0.015712162 -0.027479665 0.016232727 -0.004434202 -0.005258118 0.012394107 0.023425916 -5.913973e-05
0.02400155 0.012326925 0.014191768 0.027001677 0.01892975 0.0035115124 0.019599494 0.008798066
0.028327996 -0.005699104 -0.0005692482 0.018646142 0.020107681 -0.016612668 0.01007131 -0.017645603
-0.0030425906 -0.0022527964 0.019880064 0.021484653 0.014264223 -0.013707853 -0.0041615367 0.00207524
-0.002409339 0.018310828 -0.0040873173 -0.009014067 0.019357286 -0.01507284 -0.022287343 0.011314931
0.012498677 -0.022628786 0.023129588 -0.0010257523 0.018277548 -0.009182259 0.017974645 0.0036043078
00000000: 5fb9 a03c 2ddf 5dbc 3da3 57bc 6ba0 b0bc
00000010: 7c4c d93b 8b81 aa3c d01c 593c da73 9bbc
00000020: e718 ffbb e4fe ce3b 3114 8ebc 7091 9d3c
00000030: 2185 21bc 5b4a bd3c f5a7 943c 0fe5 bdbc
00000040: afa5 99bc cbe9 a23c 6a54 873c 50f6 ee3c
00000050: 65f5 943b 9f76 923c dff1 94bc 28bc b63c
00000060: 15f5 293a f5f8 c63c a72c 83bc 78d7 9bbc
00000070: 0d94 24bc a342 96bc d4fc b0bc e221 933c
00000080: 5df2 673c 6d5d 043c ea01 d8bb 9a45 07ba
00000090: e0e6 373c 8d09 8a3c 9ab8 e43b 3738 00bc
000000a0: 903a cabc 0df6 c13b 474e 83bb 07c5 403c
000000b0: c84e 583b bb1f bfbc 4837 913c e795 603b
000000c0: 2aa5 b43c 5009 debc dec4 003c fade 623c
000000d0: 2671 d6bc 0575 b63c a5b3 dc3c c08f 0dbb
000000e0: 63f9 98bc cd36 efb9 d1bc ac3c 512f 033d
000000f0: e957 893c b8be 9dbc ca92 9fbc a3e6 af3c
00000100: de47 413a a7e4 7dbc 138a 9a3b 7205 6d3c
00000110: 3387 1139 c86b 833b 2451 883c 8089 c73b
00000120: 0d5a 43bc c053 a43b 7e18 973b 02da a83c
00000130: e73d 8e3b 0ddc 5b3c 1a9f 3d3b b330 733c
00000140: a37d e7bc 96f1 febb 7c5a febc 14be 07bc
00000150: 0a45 77bc 55bb 9aba 5a83 ec3b bcd1 babc
00000160: 9b99 08bc 7a5e 0c3b a425 363c c623 dfbc
00000170: 2b6b d3bc 97a9 2f3b 20a4 913c 90ea 02bd
00000180: 8deb 6cbc 5206 f03c 4f1b 23bb 0475 ba3c
00000190: 75e7 e0bb 410b 78bc 94a7 fdbc 87ea 203b
000001a0: 76d6 6cbc e7d7 8abc cea6 01bc bdd3 b7bc
000001b0: b6d1 cbbc 4005 c0bc 0b1b 5c3c 9737 24bc
000001c0: efd6 453c 59f3 52bc bdc5 993c 1615 49bc
000001d0: f30c 4cbc da50 9cbc b7c9 34bc 3093 d8bb
000001e0: 9ab6 17ba cdf4 47bc 75ae c93c 83c3 56bc
000001f0: a4a9 e33c d72f c43c db9c b2bc 3a11 c0bb
00000200: 9d3d bd3c 8e1d b2bc ad65 41bc ca8b b5bc
00000210: 59d7 023c c1f1 033d ace9 a93c 1a35 c13b
00000220: 7315 ae3c a790 d43c 4042 103c 7bb0 efb9
00000230: 40f2 0f3c 94d5 2e3d bba5 863c e389 4a3b
00000240: f9da a73c ea7d 043c 953e c23c 8a83 dcbc
00000250: 2d46 2bbc 05fe 14ba 7977 d73b a788 863c
00000260: 5ac7 583b 23d7 383c ea63 60bc e061 a6bc
00000270: 40d6 553b 9af3 5a3c 33b7 753b 73b5 11bb
00000280: 3321 9339 bd9f 4b3c a0fd 26bc ba0d 08bc
00000290: 58e1 253c cd07 c43c 72c5 97bc 8a8b 3b3c
000002a0: 0ff3 9abc a5c9 41bc c267 b8bb ebb9 b63c
000002b0: e1e8 1cbc 90b3 0e3c f97d 77bc 6daf de3b
000002c0: 199c 093c 206e b53b 9a43 a03c a660 fbba
000002d0: 5a6a 3a3b 274d 4d3c 23c6 043d 803f ccbb
000002e0: f3ee a53c 4d73 c53b f415 503c b390 e2bc
000002f0: 1a7b c93c 4655 4dbc f840 edbc cd6c eb3a
00000300: 677d a1bc 3366 db3b 9972 773c 92d3 ad3c
00000310: 8b7b 913c af59 ab3c 1069 70bc 9a55 503a
00000320: 2226 c43c cd3c c93c c7df 80bc f87f 9a3c
00000330: 106b 66bc 68ed a2bc 800b 8eba 63aa 2bbc
00000340: cbb6 803c 091d e1bc 7ffa 843c c84c 91bb
00000350: 4a4c acbb a710 4b3c b5e7 bf3c cd0c 78b8
00000360: e69e c43c dff6 493c 9784 683c 9f32 dd3c
00000370: 9012 9b3c 6721 663b 1e8f a03c c325 103c
00000380: 1d10 e83c 8dbf babb 9a39 15ba cbbf 983c
00000390: ddb8 a43c 4a17 88bc 2302 253c 838d 90bc
000003a0: 3366 47bb a7a3 13bb 84db a23c 9500 b03c
000003b0: 7db4 693c e796 60bc 805d 88bb c000 083b
000003c0: 00e6 1dbb 9700 963c e7ee 85bb bdaf 13bc
000003d0: 2c93 9e3c 13f4 76bc f293 b6bc 4362 393c
000003e0: 40c7 4c3c 0160 b9bc 437a bd3c 8972 86ba
000003f0: ccba 953c 3071 16bc 903f 933c 4036 6c3b

fc1.bias f4 [80]
-0.0020691364 -0.015730351 0.018292481 -0.006218902 0.007950556 -0.0100456625 0.009106298 0.012854077
0.008490763 0.0028846923 0.0051353835 0.021161428 -0.0032066256 -0.014727861 0.023421995 -0.012516628
0.015481207 0.014760171 0.03171109 0.0010530063 0.019007849 -0.00014396917 -0.0015665591 0.005294098
-0.011816771 -0.0040998315 -0.013872125 0.0035085676 0.0004099698 0.02198244 0.027855966 0.019890022
0.0026477396 -0.0033143156 0.011560054 -0.008949675 0.012762436 0.0070794765 0.022652412 -0.010917097
0.0043977587 -0.02123293 0.00790995 -0.0014774267 -0.023782972 0.0004267019 0.0037806074 0.026460601
-0.0023129417 0.027875775 -0.0052910727 0.015479906 -0.0076150694 0.020342195 -0.013325805 0.018642513
0.016606696 -0.007964274 -0.022582319 0.0039009184 0.009460706 -0.021389356 -0.007180812 -0.0012816975
-0.015179803 0.025586443 0.0085760355 -0.0040555727 -0.016804062 -0.008655546 -0.004674185 0.017177666
0.008168322 0.024862548 -0.021206828 0.020108448 -0.014258261 -0.0060959216 -0.022528095 0.0020283016
00000000: 599a 07bb f0dc 80bc 1dda 953c eec7 cbbb
00000010: 0d43 023c 9096 24bc 9532 153c e899 523c
00000020: d71c 0b3c 1b0d 3d3b b846 a83b bb5a ad3c
00000030: 4026 52bb 204d 71bc 7cdf bf3c 8b12 4dbc
00000040: e3a4 7d3c a5d4 713c 7de3 013d 0705 8a3a
00000050: 59b6 9b3c 6ef6 16b9 0055 cdba 1d7a ad3b
00000060: 219b 41bc e157 86bb e947 63bc ffef 653b
00000070: 37f1 d639 8514 b43c 3232 e43c 66f0 a23c
00000080: b385 2d3b fd34 59bb 6166 3d3c a8a1 12bc
00000090: 8919 513c f4fa e73b 8d91 b93c a0dd 32bc
000000a0: 131b 903b aef0 adbc bc98 013c 37a6 c1ba
000000b0: 82d4 c2bc f6b6 df39 11c4 773b e7c3 d83c
000000c0: b994 17bb bd5b e43c bc60 adbb 6f9f 7d3c
000000d0: d587 f9bb ada4 a63c 7a54 5abc 2fb8 983c
000000e0: c40a 883c 967c 02bc 8efe b8bc 8da6 7f3b
000000f0: 1401 1b3c bb38 afbc 044d ebbb a2fe a7ba
00000100: b5b4 78bc a99a d13c 8082 0c3c 9ce4 84bb
00000110: aca8 89bc fecf 0dbc e829 99bb 2db8 8c3c
00000120: 6dd4 053c 8bac cb3c f1b9 adbc 79ba a43c
00000130: 7b9b 69bc 4cc0 c7bb d78c b8bc 41ed 043b

fc2.weight f4 [10, 80]
-0.032048192 -0.014034967 0.04751636 0.034052346 0.015063828 0.047290105 0.04698697 -0.034550786
-0.023076307 0.005946107 -0.07220613 -0.100659005 -0.080676824 -0.02073071 -0.12107313 -0.09627328
0.069408506 0.08741747 -0.12323406 0.04881581 -0.0008495136 -0.10781838 0.023619968 -0.07110078
0.08036879 0.028538467 0.010212573 -0.08519848 0.06048353 -0.06789439 -0.106632486 0.080328725
-0.06299547 -0.05342729 -0.076028965 0.06190341 0.08907338 0.085019514 0.05672314 -0.11412144
-0.0022401975 0.08233713 -0.0630252 -0.10808167 0.017933333 -0.047916643 0.035992492 -0.032383032
0.03673631 -0.0397095 -0.019469235 -0.03856519 -0.09519296 -0.040896 -0.07224309 -0.023452757
-0.04907094 -0.043862075 0.08055862 -0.097988 0.06479347 -0.013322096 -0.070519924 -0.11266731
0.03323555 0.03308931 0.056949474 0.107040085 -0.11351561 -0.061781637 0.08287437 -0.081304744
0.0644756 0.035362523 0.087962605 0.078115694 0.09246529 -0.034045245 -0.035148647 0.0062482404
0.062394362 0.010553712 0.037450418 -0.088943064 0.09715165 -0.096609846 0.026574995 -0.11267495
-0.048112977 -0.10880558 -0.059548873 -0.117953666 -0.04097294 -0.083128214 0.009925867 -0.060542766
0.056006912 -0.110877216 0.0013651641 0.022158885 -0.029952824 -0.033664133 -0.0938238 0.08691004
0.05761064 -0.08832649 -0.013342664 -0.03721368 0.072223246 -0.050579403 -0.060205955 0.06186916
-0.12569438 -0.051121086 -0.007893145 0.014706968 -0.08708633 0.06383116 0.07857641 -0.07445276
-0.01722232 -0.066410966 0.08254831 -0.08757285 -0.060083844 0.0527625 -0.038518947 -0.064187124
-0.07094726 -0.1012954 0.07606354 -0.01020877 -0.082644254 0.049460195 -0.09100022 0.05485714
0.08712089 0.0010438383 0.057360407 0.024370922 -0.058182422 0.047052376 -0.10899248 0.09851524
0.10493194 0.027198859 0.107134014 -0.09094465 -0.08419783 0.027187265 0.049011637 0.048033092
-0.050539415 0.08459995 0.02436011 0.0060395095 0.0035759534 -0.06409894 0.008615391 -0.009076554
-0.014432245 0.0398677 -0.12019762 -0.038653165 -0.06329628 -0.04346383 -0.012460595 0.06465915
0.05045072 -0.123469874 -0.029941319 -0.114658155 0.08960197 -0.071450464 -0.087532945 -0.060925983
-0.09497528 -0.068674736 0.058859915 0.09275926 0.06417286 -0.04550058 -0.04471224 -0.11220752
0.058596373 0.052031122 0.07763451 -0.058557115 -0.084172875 -0.031614315 -0.10684965 0.051754836
-0.12882161 0.04650623 0.07509802 0.09253783 -0.048755165 -0.08084106 0.08701893 -0.064434655
-0.10137343 -0.009620687 0.078723945 0.065568626 -0.031692084 0.009891334 0.07103542 0.000423838
-0.014939398 0.07435053 -0.0227004 -0.09185053 -0.123337835 0.089169495 0.06345075 0.040006187
0.05016899 0.05014184 0.09523971 -0.10311268 0.069172375 -0.029711472 0.08351339 -0.020987336
-0.075636074 -0.12772498 -0.098409034 -0.06620603 0.029829146 -0.11573836 -0.033648476 0.06568356
-0.05205369 -0.031160802 -0.0035955969 -0.043396473 -0.054916568 -0.0040316503 -0.0659713 0.07817971
-0.09454673 -0.0851828 0.018465014 -0.025237741 -0.057601158 0.060804926 0.09389447 -0.12600765
0.014945669 -0.11904194 0.013067294 -0.014994405 0.018148547 0.07078524 0.06743854 0.048024625
00000000: f744 03bd ebf2 65bc 84a0 423d 797a 0b3d
00000010: 46ce 763c 45b3 413d 6975 403d 2085 0dbd
00000020: 860a bdbc 90d7 c23b cfe0 93bd 4f26 cebd
00000030: e439 a5bd 73d3 a9bc 30f5 f7bd ed2a c5bd
00000040: 0c26 8e3d ee07 b33d 2462 fcbd 16f3 473d
00000050: e5b1 5eba e2cf dcbd aa7e c13c 499d 91bd
00000060: 6498 a43d 81c9 e93c a352 273c 8a7c aebd
00000070: 94bd 773d 370c 8bbd 2262 dabd 6383 a43d
00000080: c503 81bd 93d6 5abd 13b5 9bbd 6e8e 7d3d
00000090: 1b6c b63d b61e ae3d 8656 683d 80b8 e9bd
000000a0: 47d0 12bb 5fa0 a83d 5b13 81bd ec59 ddbd
000000b0: ede8 923c 3e44 44bd dd6c 133d 12a4 04bd
000000c0: d078 163d 6ea6 22bd f27d 9fbc 88f6 1dbd
000000d0: 87f4 c2bd 9082 27bd 2ff4 93bd ff1f c0bc
000000e0: 9cfe 48bd b8a8 33bd ebfb a43d efad c8bd
000000f0: 70b2 843d ec44 5abc c06c 90bd 1ebe e6bd
00000100: 0022 083d a888 073d da43 693d d537 db3d
00000110: df7a e8bd be0e 7dbd 0aba a93d 1a83 a6bd
00000120: c90b 843d 4bd8 103d bd25 b43d 1ffb 9f3d
00000130: 715e bd3d 0773 0bbd 07f8 0fbd 0abe cc3b
00000140: 3b91 7f3d 7ae9 2c3c 9c65 193d c827 b6bd
00000150: 72f7 c63d 62db c5bd ceb3 d93c 20c2 e6bd
00000160: 1d12 45bd 76d5 debd 85e9 73bd b191 f1bd
00000170: 3ed3 27bd 203f aabd 1ba0 223c b1fb 77bd
00000180: 8167 653d 9813 e3bd 4eef b23a 8d86 b53c
00000190: a05f f5bc 67e3 09bd b126 c0bd e4fd b13d
000001a0: 22f9 6b3d 85e4 b4bd 309b 5abc 5f6d 18bd
000001b0: c8e9 933d 592c 4fbd 859a 76bd 846a 7d3d
000001c0: 07b6 00be 5864 51bd 4052 01bc 7ff5 703c
000001d0: 515a b2bd e9b9 823d abec a03d b07a 98bd
000001e0: d315 8dbc 7902 88bd 170f a93d 6559 b3bd
000001f0: 7a1a 76bd 7e1d 583d 0bc6 1dbd 8a74 83bd
00000200: cc4c 91bd f673 cfbd 34c7 9b3d af42 27bc
00000210: 6441 a9bd c696 4a3d 535e babd e1b1 603d
00000220: 706c b23d 67d1 883a bff2 6a3d 87a5 c73c
00000230: b150 6ebd feb9 403d 7337 dfbd 5cc2 c93d
00000240: 8fe6 d63d 24d0 de3c 1469 db3d 3041 babd
00000250: e96f acbd d4b7 de3c 6dc0 483d 59be 443d
00000260: 6b02 4fbd bd42 ad3d da8e c73c 14e7 c53b
00000270: 8b5a 6a3b 4e46 83bd 9227 0d3c d4b5 14bc
00000280: 3975 6cbc 504c 233d 2b2a f6bd c852 1ebd
00000290: 7ba1 81bd 2107 32bd 8627 4cbc 046c 843d
000002a0: 6aa5 4e3d c6dd fcbd 7f47 f5bc e5d1 eabd
000002b0: 3d81 b73d 9f54 92bd 7944 b3bd 868d 79bd
000002c0: 6682 c2bd 57a5 8cbd 1817 713d 91f8 bd3d
000002d0: 0f6d 833d d15e 3abd 2f24 37bd 0ecd e5bd
000002e0: c002 703d 961e 553d d8fe 9e3d 96d9 6fbd
000002f0: d462 acbd 037e 01bd fdd3 dabd e1fc 533d
00000300: d0e9 03be 517d 3e3d fecc 993d 7984 bd3d
00000310: 7fb3 47bd ff8f a5bd fb36 b23d 51f6 83bd
00000320: df9c cfbd 16a0 1dbc 053a a13d d848 863d
00000330: 8fcf 01bd 430f 223c 057b 913d 9336 de39
00000340: 60c4 74bc 1745 983d 30f6 b9bc 211c bcbd
00000350: 8c98 fcbd 7f9e b63d 78f2 813d 87dd 233d
00000360: 007e 4d3d 8861 4d3d 090d c33d be2c d3bd
00000370: 3faa 8d3d 7965 f3bc 1109 ab3d a2ed abbc
00000380: 16e7 9abd 56ca 02be ad8a c9bd 0797 87bd
00000390: 415c f43c 3c08 edbd fcd2 09bd 1a85 863d
000003a0: 4036 55bd f044 ffbc 1ba4 6bbb 80c0 31bd
000003b0: 32f0 60bd ef1b 84bb f61b 87bd af1c a03d
000003c0: b7a1 c1bd 5274 aebd f143 973c 61bf cebc
000003d0: 31ef 6bbd 960e 793d be4b c03d 2608 01be
000003e0: aede 743c 43cc f3bd 3418 563c 18ab 75bc
000003f0: 43ac 943c daf7 903d 381d 8a3d 78b5 443d

fc2.bias f4 [10]
-0.01727642 -0.028281152 -0.09682115 -0.10822465 0.02094318 -0.015712898 -0.048589736 -0.082067534
0.009891779 -0.08990714
00000000: 4787 8dbc e0ad e7bc 2b4a c6bd e3a4 ddbd
00000010: 0891 ab3c 56b8 80bc 0806 47bd 0613 a8bd
00000020: 2111 223c 3c21 b8bd
