classify-ckpt/model_epoch_83.pth (torch, 517704 bytes, 4 tensors)

fc1.weight f4 [80, 1600]
0.019619642 -0.013541979 -0.013161478 -0.021560868 0.0066109076 0.020813724 0.013251498 -0.01897614
-0.007784951 0.0063085547 -0.017343612 0.019234389 -0.009858401 0.023106745 0.018125972 -0.023180513
-0.018755762 0.019886872 0.016519744 0.029245086 0.004606196 0.017878829 -0.01818174 0.022306517
0.0006278117 0.024288634 -0.016012503 -0.019023642 -0.010045064 -0.01838806 -0.021604933 0.017960493
0.014156905 0.008078915 -0.0066125495 -0.0005160213 0.0112244785 0.016850257 0.006980014 -0.007825903
-0.024686128 0.005919224 -0.004007134 0.011765725 0.0032800704 -0.02333056 0.017726555 0.0034269036
0.022051413 -0.0271125 0.007859437 0.013847107 -0.026177 0.022272596 0.026920607 -0.0021600574
-0.018673604 -0.00045626462 0.021157734 0.03209819 0.016825894 -0.01925598 -0.019479174 0.02147228
0.00071678334 -0.0154964095 0.0047161668 0.01446663 0.00013878643 0.0039649126 0.016640253 0.0060893893
-0.011923325 0.0050148666 0.0045905495 0.020611767 0.0043408754 0.013419163 0.0028933943 0.014843154
-0.02825815 -0.007780264 -0.031049006 -0.008285064 -0.015112667 -0.0011805097 0.0072178068 -0.022805087
-0.008337404 0.00213341 0.011117373 -0.027238738 -0.025807938 0.0026803964 0.017757932 -0.031961977
-0.014460457 0.029371494 -0.0024888103 0.022831514 -0.0068635293 -0.01507906 -0.030963697 0.0024553852
-0.014475953 -0.016948653 -0.0079133045 -0.022439832 -0.024880271 -0.023485743 0.013434182 -0.010023019
0.01207517 -0.012875401 0.018750524 -0.012273094 -0.012454259 -0.019081522 -0.011034421 -0.006609343
-0.00057874026 -0.012204361 0.02461932 -0.013108137 0.02777033 0.023948593 -0.02180331 -0.0058614286
0.023100669 -0.02175106 -0.011804027 -0.022161383 0.007985913 0.03219245 0.020720784 0.005875699
0.021250462 0.026019488 0.008804858 -0.00038653205 0.008785784 0.04274449 0.016436448 0.0030699698
0.020469634 0.008066137 0.023711482 -0.026918191 -0.010453743 -0.00061409903 0.0065755215 0.016422583
0.0033077807 0.011281761 -0.01371622 -0.020310342 0.0032628924 0.013363743 0.0037493228 -0.0022233396
0.0002806276 0.012428221 -0.010192305 -0.008304054 0.010104003 0.023929501 -0.018526766 0.011446843
-0.018914727 -0.011836313 -0.0056276033 0.02230545 -0.009597531 0.008709803 -0.015126241 0.0067958147
0.008378509 0.0055368096 0.019563485 -0.0018472193 0.0028444738 0.012530602 0.032394994 -0.0062331557
0.020235019 0.006025708 0.012680023 -0.027656889 0.024594832 -0.012578275 -0.028961644 0.0017961502
-0.019713117 0.0066955327 0.015082482 0.021219049 0.017759105 0.020916788 -0.014673486 0.0007947326
0.023943964 0.024565125 -0.015731705 0.018859848 -0.014084135 -0.019888595 -0.0010837168 -0.010477635
0.015712162 -0.027488116 0.016232727 -0.0044547254 -0.005258118 0.012394107 0.023405394 -5.913973e-05
0.024073156 0.0123064015 0.014191768 0.027072316 0.01892975 0.0034909882 0.019659836 0.008798066
0.028307473 -0.005699104 -0.0005692482 0.018625619 0.020107681 -0.016658407 0.01007131 -0.017645603
-0.0030425906 -0.0022527964 0.019859541 0.021484653 0.014264223 -0.013707853 -0.0041615367 0.00207524
-0.002409339 0.018310828 -0.0040873173 -0.009014067 0.019336764 -0.01507284 -0.022287343 0.011314931
0.012498677 -0.022637237 0.023109065 -0.0010257523 0.018277548 -0.009182259 0.017954122 0.0036759155
00000000: 5fb9 a03c 2ddf 5dbc 3da3 57bc 6ba0 b0bc
00000010: 50a0 d83b 8b81 aa3c d01c 593c da73 9bbc
00000020: e718 ffbb feb7 ce3b 3114 8ebc 7091 9d3c
00000030: 2185 21bc 5b4a bd3c eb7c 943c 0fe5 bdbc
00000040: afa5 99bc cbe9 a23c 6a54 873c 6493 ef3c
00000050: 93ef 963b 9f76 923c dff1 94bc 28bc b63c
00000060: bb93 243a f5f8 c63c a72c 83bc 78d7 9bbc
00000070: 0d94 24bc 8fa2 96bc d4fc b0bc e221 933c
00000080: 5df2 673c 6d5d 043c 16ae d8bb 9a45 07ba
00000090: e0e6 373c 8d09 8a3c 9ab8 e43b 3738 00bc
000000a0: 903a cabc 0df6 c13b 474e 83bb 07c5 403c
000000b0: 73f6 563b bb1f bfbc 4837 913c e795 603b
000000c0: 2aa5 b43c 091b debc dec4 003c fade 623c
000000d0: 2671 d6bc 0575 b63c 9b88 dc3c c08f 0dbb
000000e0: 63f9 98bc cd36 efb9 fc52 ad3c 6479 033d
000000f0: 75d6 893c b8be 9dbc ca92 9fbc a3e6 af3c
00000100: 84e6 3b3a a7e4 7dbc 138a 9a3b 7205 6d3c
00000110: 3387 1139 19ec 813b 2451 883c 8089 c73b
00000120: 0d5a 43bc c053 a43b 526c 963b 02da a83c
00000130: e73d 8e3b 0ddc 5b3c 1a9f 3d3b b330 733c
00000140: a37d e7bc 96f1 febb 7c5a febc 14be 07bc
00000150: 1f9b 77bc 55bb 9aba 5a83 ec3b bcd1 babc
00000160: 9b99 08bc aed0 0b3b a425 363c c623 dfbc
00000170: 2b6b d3bc 97a9 2f3b 1579 913c 90ea 02bd
00000180: 8deb 6cbc 7d9c f03c 4f1b 23bb 2809 bb3c
00000190: 75e7 e0bb 290e 77bc 94a7 fdbc 87ea 203b
000001a0: 8c2c 6dbc e7d7 8abc cea6 01bc bdd3 b7bc
000001b0: b6d1 cbbc 2c65 c0bc 0b1b 5c3c 9737 24bc
000001c0: efd6 453c 59f3 52bc b39a 993c 1615 49bc
000001d0: f30c 4cbc da50 9cbc b7c9 34bc 3093 d8bb
000001e0: 9ab6 17ba cdf4 47bc 75ae c93c 83c3 56bc
000001f0: 9a7e e33c d72f c43c db9c b2bc 3a11 c0bb
00000200: 9d3d bd3c 472f b2bc ad65 41bc ca8b b5bc
00000210: 59d7 023c 3bdc 033d a2be a93c f088 c03b
00000220: 7315 ae3c d226 d53c 4042 103c 74a7 cab9
00000230: 40f2 0f3c d914 2f3d bba5 863c 8c31 493b
00000240: efaf a73c d527 043c 953e c23c 8a83 dcbc
00000250: 2d46 2bbc 7dfb 20ba 7977 d73b a788 863c
00000260: 5ac7 583b 23d7 383c ffb9 60bc e061 a6bc
00000270: 40d6 553b 9af3 5a3c 33b7 753b 73b5 11bb
00000280: 3321 9339 bd9f 4b3c a0fd 26bc ba0d 08bc
00000290: 438b 253c cd07 c43c 72c5 97bc 8a8b 3b3c
000002a0: 0ff3 9abc 18ed 41bc c267 b8bb ebb9 b63c
000002b0: f63e 1dbc 90b3 0e3c 0ed4 77bc 6daf de3b
000002c0: 0446 093c 206e b53b 9a43 a03c 651e f2ba
000002d0: 5a6a 3a3b 274d 4d3c 9db0 043d 803f ccbb
000002e0: e9c3 a53c 4d73 c53b dfbf 4f3c b390 e2bc
000002f0: 1a7b c93c 1c15 4ebc f840 edbc cd6c eb3a
00000300: 677d a1bc 3366 db3b 841c 773c 92d3 ad3c
00000310: 8b7b 913c af59 ab3c 1069 70bc 9a55 503a
00000320: 2226 c43c cd3c c93c c7df 80bc f87f 9a3c
00000330: 25c1 66bc 68ed a2bc 800b 8eba 63aa 2bbc
00000340: cbb6 803c c22e e1bc 7ffa 843c f2f8 91bb
00000350: 4a4c acbb a710 4b3c abbc bf3c cd0c 78b8
00000360: 1135 c53c caa0 493c 9784 683c c3c6 dd3c
00000370: 9012 9b3c 10c9 643b aa0d a13c c325 103c
00000380: 13e5 e73c 8dbf babb 9a39 15ba c194 983c
00000390: ddb8 a43c 3677 88bc 2302 253c 838d 90bc
000003a0: 3366 47bb a7a3 13bb 7ab0 a23c 9500 b03c
000003b0: 7db4 693c e796 60bc 805d 88bb c000 083b
000003c0: 00e6 1dbb 9700 963c e7ee 85bb bdaf 13bc
000003d0: 2268 9e3c 13f4 76bc f293 b6bc 4362 393c
000003e0: 40c7 4c3c ba71 b9bc 394f bd3c 8972 86ba
000003f0: ccba 953c 3071 16bc 8614 933c a1e7 703b

fc1.bias f4 [80]
-0.0020896597 -0.01575087 0.01827196 -0.006202862 0.007950056 -0.010066184 0.009126821 0.01287923
0.0085592875 0.0029500371 0.005114859 0.021162169 -0.0032271496 -0.014727861 0.023442518 -0.012537152
0.015501728 0.014774827 0.03173161 0.0010735301 0.018987326 -0.00012344596 -0.0015665591 0.0053146207
-0.011796247 -0.004120356 -0.013892649 0.0034880687 0.00038946536 0.022002963 0.027856238 0.019910544
0.002689288 -0.0033143156 0.011580575 -0.008949675 0.012751552 0.007100001 0.022672934 -0.01093762
0.004418283 -0.021251176 0.007910377 -0.0014778931 -0.023782972 0.00044722567 0.003760083 0.02653924
-0.002313139 0.027855253 -0.0052705486 0.015503671 -0.0076355855 0.020321673 -0.013346328 0.018663036
0.016627219 -0.0079847975 -0.022602841 0.0039009184 0.009520668 -0.021373427 -0.0071422034 -0.0012816975
-0.015159279 0.025598366 0.008596559 -0.0040555727 -0.016824586 -0.008635023 -0.0046142847 0.017198188
0.008188836 0.024883071 -0.02122297 0.020139711 -0.014258425 -0.006116445 -0.022507573 0.0020077792
00000000: acf2 08bb f807 81bc 14af 953c 6141 cbbb
00000010: f440 023c a3ec 24bc a988 153c 6803 533c
00000020: 413c 0c3c 6955 413b 8c9a a73b 495c ad3c
00000030: 967e 53bb 204d 71bc 860a c03c a068 4dbc
00000040: f6fa 7d3c 1e12 723c 01f9 013d b1b5 8c3a
00000050: 4f8b 9b3c 4671 01b9 0055 cdba 4526 ae3b
00000060: 0c45 41bc 0d04 87bb fe9d 63bc 1598 643b
00000070: 2831 cc39 8f3f b43c c432 e43c 701b a33c
00000080: c43e 303b fd34 59bb 74bc 3d3c a8a1 12bc
00000090: e3eb 503c 20a7 e83b 97bc b93c b433 33bc
000000a0: 3ec7 903b f216 aebc 879a 013c ddb5 c1ba
000000b0: 82d4 c2bc 9d79 ea39 ba6b 763b d268 d93c
000000c0: 0898 17bb b330 e43c 91b4 acbb 1c03 7e3c
000000d0: ef33 fabb a379 a63c 8faa 5abc 39e3 983c
000000e0: ce35 883c abd2 02bc 9829 b9bc 8da6 7f3b
000000f0: 93fc 1b3c 5317 afbc 2509 eabb a2fe a7ba
00000100: a05e 78bc aab3 d13c 95d8 0c3c 9ce4 84bb
00000110: b7d3 89bc e979 0dbc 6d33 97bb 37e3 8c3c
00000120: 782a 063c 95d7 cb3c cbdb adbc 09fc a43c
00000130: 2b9c 69bc 766c c8bb cd61 b8bc f294 033b

fc2.weight f4 [10, 80]
-0.032126848 -0.01411362 0.047437705 0.03397636 0.015046818 0.04721168 0.04690833 -0.03462507
-0.023152087 0.005872138 -0.07228478 -0.1006758 -0.080755465 -0.02073071 -0.121151775 -0.09635192
0.06932986 0.08734071 -0.1233127 0.048737176 -0.00092816236 -0.107897006 0.023619968 -0.07117943
0.080290146 0.028459828 0.010133924 -0.08527712 0.060404874 -0.06797304 -0.10665007 0.0802501
-0.06307287 -0.05342729 -0.076107614 0.06190341 0.08906431 0.084940866 0.056644484 -0.11420008
-0.0023188335 0.082266115 -0.063041985 -0.10809635 0.017933333 -0.047995284 0.03591385 -0.032461323
0.036718585 -0.03978812 -0.019547887 -0.038642656 -0.09527158 -0.04097464 -0.07232173 -0.023531396
-0.04914958 -0.043940723 0.08047997 -0.097988 0.0647178 -0.013398258 -0.07059738 -0.11266731
0.033156894 0.03301604 0.05687082 0.107040085 -0.11359425 -0.06186028 0.0828002 -0.08138338
0.06439709 0.035283867 0.08795252 0.07803927 0.09244763 -0.034123886 -0.035227288 0.006169603
0.06241489 0.010574237 0.037470944 -0.08899625 0.09715079 -0.09665712 0.02659552 -0.112716995
-0.048180558 -0.10887116 -0.059528347 -0.11795452 -0.040952414 -0.083128214 0.009946393 -0.06052224
0.05602744 -0.11095142 0.0013856887 0.02217941 -0.0299323 -0.033643607 -0.0938238 0.08693056
0.057631165 -0.08830597 -0.013322138 -0.037193153 0.072243765 -0.050558876 -0.060206857 0.061889686
-0.12577073 -0.051121086 -0.00787262 0.014706968 -0.08709953 0.06385168 0.07859693 -0.07443224
-0.017201796 -0.06648676 0.082547456 -0.08757357 -0.060083844 0.052783027 -0.03849842 -0.06426578
-0.07094817 -0.10137406 0.07608406 -0.010283402 -0.08269153 0.04948072 -0.0909797 0.054877665
0.08714141 0.0010643629 0.057380933 0.024370922 -0.0582567 0.046978183 -0.10903746 0.09851524
0.10495246 0.027128784 0.10715453 -0.09094465 -0.08417732 0.02720779 0.048940986 0.04805362
-0.05051889 0.08462047 0.024293292 0.005967866 0.003575045 -0.06414622 0.008635917 -0.009089049
-0.014510854 0.039789118 -0.12027622 -0.038708597 -0.0633055 -0.043540142 -0.012538904 0.06458305
0.050373387 -0.12354712 -0.030019851 -0.11466726 0.08952348 -0.071450464 -0.08761152 -0.061004527
-0.095053904 -0.06874092 0.05878146 0.09268159 0.064094305 -0.045578286 -0.04471224 -0.11228614
0.05851795 0.051952768 0.07755598 -0.058635253 -0.08425151 -0.03169283 -0.10685923 0.051676508
-0.12889868 0.04650623 0.07501944 0.09253783 -0.048788317 -0.080919504 0.086940356 -0.06451295
-0.101451874 -0.00957336 0.07871484 0.06556081 -0.031692084 0.009812795 0.07095693 0.00034613392
-0.014949069 0.074272886 -0.022778986 -0.0919271 -0.123414546 0.089090966 0.06337263 0.039927837
0.05009046 0.050063282 0.09516113 -0.10311268 0.06909519 -0.029776493 0.083436295 -0.020987336
-0.07571466 -0.12777983 -0.09848761 -0.06620603 0.029750811 -0.11581652 -0.033725563 0.065605186
-0.05213156 -0.031239403 -0.0036156203 -0.043458253 -0.05492619 -0.004110003 -0.06604979 0.07810219
-0.09462537 -0.08526144 0.018386366 -0.025314793 -0.057601262 0.060727257 0.09381585 -0.12608074
0.014869316 -0.11911633 0.0129886605 -0.0149945095 0.01806994 0.07078524 0.06735991 0.047946006
00000000: 7197 03bd d03c 67bc 0a4e 423d cc2a 0b3d
00000010: ee86 763c 0961 413d f322 403d 04d3 0dbd
00000020: 72a9 bdbc 106b c03b 0b0a 94bd 1d2f cebd
00000030: 1f63 a5bd 73d3 a9bc 6c1e f8bd 2854 c5bd
00000040: d0fc 8d3d b0df b23d 5e8b fcbd a2a0 473d
00000050: ec4f 73ba 1bf9 dcbd aa7e c13c 85c6 91bd
00000060: 296f a43d 9624 e93c c208 263c c5a5 aebd
00000070: 1a6b 773d 7335 8bbd 5a6b dabd 2a5a a43d
00000080: 592c 81bd 93d6 5abd 4fde 9bbd 6e8e 7d3d
00000090: 5967 b63d 7af5 ad3d 0c04 683d bbe1 e9bd
000000a0: 92f7 17bb 237b a83d 281c 81bd 9f61 ddbd
000000b0: ede8 923c b496 44bd 671a 133d 2af6 04bd
000000c0: 3a66 163d def8 22bd e422 a0bc c347 1ebd
000000d0: bf1d c3bd 06d5 27bd 6a1d 94bd eac4 c0bc
000000e0: 1251 49bd 30fb 33bd afd2 a43d efad c8bd
000000f0: c48a 843d 5e84 5bbc 5c95 90bd 1ebe e6bd
00000100: 86cf 073d d43b 073d 60f1 683d d537 db3d
00000110: 1aa4 e8bd 3461 7dbd 2793 a93d 54ac a6bd
00000120: 9fe2 833d d185 103d 7320 b43d 0ed3 9f3d
00000130: 2f55 bd3d 7dc5 0bbd 7d4a 10bd 622a ca3b
00000140: c1a6 7f3d 913f 2d3c 227b 193d aa43 b6bd
00000150: fef6 c63d 2bf4 c5bd d9de d93c 2bd8 e6bd
00000160: fa58 45bd d8f7 debd ffd3 73bd 2492 f1bd
00000170: b8bd 27bd 203f aabd 32f6 223c 2be6 77bd
00000180: 077d 653d 803a e3bd ff9f b53a 98b1 b53c
00000190: 9534 f5bc e1cd 09bd b126 c0bd a608 b23d
000001a0: a80e 6c3d c3d9 b4bd 1945 5abc d957 18bd
000001b0: 8af4 933d d316 4fbd 779b 76bd 0a80 7d3d
000001c0: 0bca 00be 5864 51bd 29fc 00bc 7ff5 703c
000001d0: 3d61 b2bd abc4 823d 6df7 a03d ee6f 98bd
000001e0: c8ea 8cbc 362a 88bd a40e a93d c659 b3bd
000001f0: 7a1a 76bd 0433 583d 85b0 1dbd c79d 83bd
00000200: 464d 91bd 349d cfbd f6d1 9b3d b77b 28bc
00000210: 2d5a a9bd 4cac 4a3d 9153 babd 67c7 603d
00000220: 3277 b23d 1882 8b3a 4508 6b3d 87a5 c73c
00000230: 949e 6ebd 326c 403d 084f dfbd 5cc2 c93d
00000240: 51f1 d63d 2f3d de3c d673 db3d 3041 babd
00000250: 2965 acbd dfe2 de3c 5876 483d dfd3 443d
00000260: e5ec 4ebd 7f4d ad3d ba02 c73c 178e c33b
00000270: 4d4b 6a3b 185f 83bd a97d 0d3c 3cea 14bc
00000280: efbe 6dbc eaf9 223d 6153 f6bd e88c 1ebd
00000290: 50a6 81bd 2657 32bd fa6f 4dbc 1e44 843d
000002a0: 5354 4e3d 4606 fdbd 31ec f5bc abd6 eabd
000002b0: 1658 b73d 9f54 92bd ab6d b3bd e2df 79bd
000002c0: 9fab c2bd 0ac8 8cbd d4c4 703d d8cf bd3d
000002d0: e043 833d 4cb0 3abd 2f24 37bd 47f6 e5bd
000002e0: 85b0 6f3d 6dcc 543d abd5 9e3d 852b 70bd
000002f0: 0e8c acbd 57d0 01bd 03d9 dabd bfaa 533d
00000300: 04fe 03be 517d 3e3d cba3 993d 7984 bd3d
00000310: 42d6 47bd 20b9 a5bd c90d b23d 5e1f 84bd
00000320: 00c6 cfbd 95d9 1cbc 3f35 a13d bf44 863d
00000330: 8fcf 01bd d8c5 203c de51 913d 4f79 b539
00000340: f1ec 74bc 621c 983d ff9a babc 4744 bcbd
00000350: c4c0 fcbd 5375 b63d 82c9 813d 5f8b 233d
00000360: a72b 4d3d 280f 4d3d d7e3 c23d be2c d3bd
00000370: c781 8d3d d5ed f3bc a6e0 aa3d a2ed abbc
00000380: 4a10 9bbd b7d8 02be dfb3 c9bd 0797 87bd
00000390: f9b7 f33c 3631 edbd d123 0abd 035c 863d
000003a0: e787 55bd c7e9 ffbc 0bf4 6cbb 4801 32bd
000003b0: 49fa 60bd 34ad 86bb 1d45 87bd 0af4 9f3d
000003c0: f2ca c1bd 8d9d aebd 019f 963c f860 cfbc
000003d0: 4def 6bbd 25bd 783d 8622 c03d 4f1b 01be
000003e0: 6e9e 733c 43f3 f3bd 64ce 543c 88ab 75bc
000003f0: 6907 943c daf7 903d fef3 893d 0863 443d

fc2.bias f4 [10]
-0.017355058 -0.028260628 -0.09689943 -0.108303234 0.020922655 -0.015791522 -0.04866835 -0.08214605
0.009813172 -0.089985535
00000000: 322c 8ebc d582 e7bc 3573 c6bd 16ce ddbd
00000010: fd65 ab3c 395d 81bc 7758 47bd 303c a8bd
00000020: 6dc7 203c 564a b8bd
