classify-ckpt/model_epoch_52.pth (torch, 517704 bytes, 4 tensors)

fc1.weight f4 [80, 1600]
000000 5f b9 a0 3c 2d df 5d bc 3d a3 57 bc 6b a0 b0 bc
       0.019619642 -0.013541979 -0.013161478 -0.021560868
000010 92 fe d8 3b 8b 81 aa 3c d0 1c 59 3c da 73 9b bc
       0.006622144 0.020813724 0.013251498 -0.01897614
000020 e7 18 ff bb b8 34 d0 3b 31 14 8e bc 70 91 9d 3c
       -0.007784951 0.006353941 -0.017343612 0.019234389
000030 21 85 21 bc 5b 4a bd 3c 50 d3 93 3c 0f e5 bd bc
       -0.009858401 0.023106745 0.018045098 -0.023180513
000040 af a5 99 bc cb e9 a2 3c 6a 54 87 3c 21 41 e7 3c
       -0.018755762 0.019886872 0.016519744 0.028229298
000050 b1 5b 74 3b 9f 76 92 3c df f1 94 bc 28 bc b6 3c
       0.0037286098 0.017878829 -0.01818174 0.022306517
000060 be 85 27 3a f5 f8 c6 3c a7 2c 83 bc 78 d7 9b bc
       0.00063904736 0.024288634 -0.016012503 -0.019023642
000070 0d 94 24 bc f7 24 90 bc d4 fc b0 bc e2 21 93 3c
       -0.010045064 -0.017595751 -0.021604933 0.017960493
000080 5d f2 67 3c 6d 5d 04 3c 7e 54 db bb 9a 45 07 ba
       0.014156905 0.008078915 -0.006693422 -0.0005160213
000090 e0 e6 37 3c 8d 09 8a 3c 9a b8 e4 3b 37 38 00 bc
       0.0112244785 0.016850257 0.006980014 -0.007825903
0000a0 90 3a ca bc 0d f6 c1 3b 47 4e 83 bb 07 c5 40 3c
       -0.024686128 0.005919224 -0.004007134 0.011765725
0000b0 f1 b2 57 3b bb 1f bf bc 48 37 91 3c e7 95 60 3b
       0.0032913054 -0.02333056 0.017726555 0.0034269036
0000c0 2a a5 b4 3c db bb dd bc de c4 00 3c fa de 62 3c
       0.022051413 -0.027067116 0.007859437 0.013847107
0000d0 26 71 d6 bc 05 75 b6 3c 00 df db 3c c0 8f 0d bb
       -0.026177 0.022272596 0.026839733 -0.0021600574
0000e0 63 f9 98 bc cd 36 ef b9 11 3f a5 3c a2 f9 fe 3c
       -0.018673604 -0.00045626462 0.020171674 0.031124894
0000f0 06 a6 82 3c b8 be 9d bc ca 92 9f bc a3 e6 af 3c
       0.015948307 -0.01925598 -0.019479174 0.02147228
000100 87 d8 3e 3a a7 e4 7d bc 13 8a 9a 3b 72 05 6d 3c
       0.000728019 -0.0154964095 0.0047161668 0.01446663
000110 33 87 11 39 7b e2 9b 3b 24 51 88 3c 80 89 c7 3b
       0.00013878643 0.004757223 0.016640253 0.0060893893
000120 0d 5a 43 bc c0 53 a4 3b ea c5 93 3b 02 da a8 3c
       -0.011923325 0.0050148666 0.004509677 0.020611767
000130 e7 3d 8e 3b 0d dc 5b 3c 1a 9f 3d 3b b3 30 73 3c
       0.0043408754 0.013419163 0.0028933943 0.014843154
000140 a3 7d e7 bc 96 f1 fe bb 7c 5a fe bc 14 be 07 bc
       -0.02825815 -0.007780264 -0.031049006 -0.008285064
000150 ff 6b 77 bc 55 bb 9a ba 5a 83 ec 3b bc d1 ba bc
       -0.015101432 -0.0011805097 0.0072178068 -0.022805087
000160 9b 99 08 bc 23 ca 0e 3b a4 25 36 3c c6 23 df bc
       -0.008337404 0.0021787963 0.011117373 -0.027238738
000170 2b 6b d3 bc 97 a9 2f 3b 7a cf 90 3c 90 ea 02 bd
       -0.025807938 0.0026803964 0.017677058 -0.031961977
000180 8d eb 6c bc 92 88 e8 3c 4f 1b 23 bb 07 10 b3 3c
       -0.014460457 0.028385434 -0.0024888103 0.021858228
000190 75 e7 e0 bb 82 b7 82 bc 94 a7 fd bc 87 ea 20 3b
       -0.0068635293 -0.015956644 -0.030963697 0.0024553852
0001a0 bf 7f 6e bc e7 d7 8a bc ce a6 01 bc bd d3 b7 bc
       -0.014556824 -0.016948653 -0.0079133045 -0.022439832
0001b0 b6 d1 cb bc 94 e7 b9 bc 0b 1b 5c 3c 97 37 24 bc
       -0.024880271 -0.022693433 0.013434182 -0.010023019
0001c0 ef d6 45 3c 59 f3 52 bc 18 f1 98 3c 16 15 49 bc
       0.01207517 -0.012875401 0.01866965 -0.012273094
0001d0 f3 0c 4c bc da 50 9c bc b7 c9 34 bc 30 93 d8 bb
       -0.012454259 -0.019081522 -0.011034421 -0.006609343
0001e0 9a b6 17 ba cd f4 47 bc 75 ae c9 3c 83 c3 56 bc
       -0.00057874026 -0.012204361 0.02461932 -0.013108137
0001f0 2a 96 e3 3c d7 2f c4 3c db 9c b2 bc 3a 11 c0 bb
       0.027781565 0.023948593 -0.02180331 -0.0058614286
000200 9d 3d bd 3c 19 d0 b1 bc ad 65 41 bc ca 8b b5 bc
       0.023100669 -0.021705674 -0.011804027 -0.022161383
000210 59 d7 02 3c 01 e8 03 3d 07 15 a9 3c 15 e7 c0 3b
       0.007985913 0.032203678 0.02063991 0.005886922
000220 73 15 ae 3c e7 12 cd 3c 40 42 10 3c 05 3c b2 ba
       0.021250462 0.025033427 0.008804858 -0.001359821
000230 40 f2 0f 3c a2 7c 2b 3d bb a5 86 3c ca e4 43 3b
       0.008785784 0.041866906 0.016436448 0.0029891008
000240 7f c7 a7 3c a4 d4 02 3c 95 3e c2 3c 8a 83 dc bc
       0.02048087 0.007985268 0.023711482 -0.026918191
000250 2d 46 2b bc 47 de 3a 39 79 77 d7 3b a7 88 86 3c
       -0.010453743 0.00017821147 0.0065755215 0.016422583
000260 5a c7 58 3b 23 d7 38 3c 33 0d 62 bc e0 61 a6 bc
       0.0033077807 0.011281761 -0.013797092 -0.020310342
000270 40 d6 55 3b 9a f3 5a 3c 33 b7 75 3b 73 b5 11 bb
       0.0032628924 0.013363743 0.0037493228 -0.0022233396
000280 33 21 93 39 bd 9f 4b 3c a0 fd 26 bc ba 0d 08 bc
       0.0002806276 0.012428221 -0.010192305 -0.008304054
000290 63 ba 25 3c cd 07 c4 3c 72 c5 97 bc 8a 8b 3b 3c
       0.010115239 0.023929501 -0.018526766 0.011446843
0002a0 0f f3 9a bc bb 2e 41 bc c2 67 b8 bb eb b9 b6 3c
       -0.018914727 -0.011790927 -0.0056276033 0.02230545
0002b0 e3 0f 1d bc 90 b3 0e 3c 42 27 79 bc 6d af de 3b
       -0.009586307 0.008709803 -0.015207114 0.0067958147
0002c0 16 75 09 3c 20 6e b5 3b 9a 43 a0 3c 45 d8 38 bb
       0.008389732 0.0055368096 0.019563485 -0.0028205079
0002d0 5a 6a 3a 3b 27 4d 4d 3c d1 5b 04 3d 80 3f cc bb
       0.0028444738 0.012530602 0.032314125 -0.0062331557
0002e0 79 db a5 3c 4d 73 c5 3b ae 6c 4e 3c b3 90 e2 bc
       0.020246254 0.006025708 0.012599153 -0.027656889
0002f0 1a 7b c9 3c ed 19 41 bc f8 40 ed bc cd 6c eb 3a
       0.024594832 -0.011785966 -0.028961644 0.0017961502
000300 67 7d a1 bc 33 66 db 3b 50 c9 75 3c 92 d3 ad 3c
       -0.019713117 0.0066955327 0.01500161 0.021219049
000310 8b 7b 91 3c af 59 ab 3c 10 69 70 bc 9a 55 50 3a
       0.017759105 0.020916788 -0.014673486 0.0007947326
000320 22 26 c4 3c cd 3c c9 3c c7 df 80 bc f8 7f 9a 3c
       0.023943964 0.024565125 -0.015731705 0.018859848
000330 05 92 66 bc 68 ed a2 bc 80 0b 8e ba 63 aa 2b bc
       -0.0140729 -0.019888595 -0.0010837168 -0.010477635
000340 cb b6 80 3c 94 cf e0 bc 7f fa 84 3c cd 9a 91 bb
       0.015712162 -0.027442731 0.016232727 -0.0044435025
000350 4a 4c ac bb a7 10 4b 3c 10 13 bf 3c cd 0c 78 b8
       -0.005258118 0.012394107 0.02332452 -5.913973e-05
000360 26 21 bd 3c dd cf 49 3c 97 84 68 3c a2 cd d5 3c
       0.023087095 0.012317625 0.014191768 0.02609903
000370 90 12 9b 3c 4e 7c 5f 3b 3b dd 99 3c c3 25 10 3c
       0.01892975 0.003410119 0.018782249 0.008798066
000380 a3 fc e7 3c 8d bf ba bb 9a 39 15 ba 27 eb 97 3c
       0.028318709 -0.005699104 -0.0005692482 0.018544747
000390 dd b8 a4 3c 9e f9 81 bc 23 02 25 3c 83 8d 90 bc
       0.020107681 -0.015866097 0.01007131 -0.017645603
0003a0 33 66 47 bb a7 a3 13 bb df 06 a2 3c 95 00 b0 3c
       -0.0030425906 -0.0022527964 0.019778667 0.021484653
0003b0 7d b4 69 3c e7 96 60 bc 80 5d 88 bb c0 00 08 3b
       0.014264223 -0.013707853 -0.0041615367 0.00207524
0003c0 00 e6 1d bb 97 00 96 3c e7 ee 85 bb bd af 13 bc
       -0.002409339 0.018310828 -0.0040873173 -0.009014067
0003d0 b2 7f 9e 3c 13 f4 76 bc f2 93 b6 bc 43 62 39 3c
       0.019348 -0.01507284 -0.022287343 0.011314931
0003e0 40 c7 4c 3c 8c 12 b9 bc c2 66 bd 3c 89 72 86 ba
       0.012498677 -0.022591852 0.023120288 -0.0010257523
0003f0 cc ba 95 3c 30 71 16 bc eb 6a 92 3c 3c 48 30 3b
       0.018277548 -0.009182259 0.017873248 0.0026898524

fc1.bias f4 [80]
000000 19 3f 0e bb 88 b2 81 bc 19 06 95 3c d1 c7 d2 bb
       -0.002170509 -0.0158322 0.018191384 -0.0064325114
000010 f7 5f 02 3c 93 29 25 bc a3 e7 15 3c 34 43 4c 3c
       0.00795745 -0.010080713 0.009149465 0.012467194
000020 5d 5a f9 3b 7b 53 04 3b c3 f5 a4 3b 73 45 ad 3c
       0.007609649 0.002019136 0.00503418 0.02115128
000030 59 c8 58 bb 20 4d 71 bc dc 16 c0 3c cf a4 4e bc
       -0.00330784 -0.014727861 0.0234484 -0.012612536
000040 37 92 7c 3c 6b 01 6d 3c d8 4d 02 3d c1 67 81 3a
       0.01541572 0.01446567 0.03181252 0.000987284
000050 83 7e 9b 3c 08 e3 5b b9 00 55 cd ba 12 52 ab 3b
       0.018981224 -0.00020970043 -0.0015665591 0.0052282894
000060 79 2c 41 bc be 34 87 bb a8 f0 64 bc 3f 47 65 3b
       -0.011790388 -0.0041261604 -0.013973393 0.0034985093
000070 e9 9a 53 39 fa e8 b4 3c 70 2a e4 3c cb c4 a3 3c
       0.00020180237 0.022083748 0.027852267 0.0199913
000080 0f 02 10 3b fd 34 59 bb 9c 53 3c 3c a8 a1 12 bc
       0.0021973883 -0.0033143156 0.011494543 -0.008949675
000090 5a 93 52 3c b4 4c eb 3b f7 07 b9 3c 30 ca 31 bc
       0.012852514 0.0071807746 0.022586806 -0.010851428
0000a0 5c 6d 93 3b 7e ee ad bc 38 80 01 3c 75 cd c0 ba
       0.0044991206 -0.021231886 0.007904105 -0.0014709668
0000b0 82 d4 c2 bc 8f a1 ed 39 2d 09 76 3b 6d 79 d1 3c
       -0.023782972 0.00045324533 0.003754209 0.025570596
0000c0 5c 66 17 bb 56 65 e4 3c 3f 87 af bb 88 a7 75 3c
       -0.0023101782 0.027880352 -0.0053566988 0.014993556
0000d0 a0 0c f4 bb 14 d0 a5 3c b6 40 59 bc 72 ef 98 3c
       -0.007447794 0.020240821 -0.013260057 0.018668864
0000e0 09 42 88 3c 6b 25 04 bc 0c d3 b9 bc 8d a6 7f 3b
       0.01663305 -0.008065562 -0.022683643 0.0039009184
0000f0 1c c7 0d 3c b7 71 b1 bc 99 a9 f8 bb a2 fe a7 ba
       0.008653428 -0.021660669 -0.007588577 -0.0012816975
000100 90 46 78 bc c2 f6 cf 3c e7 f0 0c 3c 9c e4 84 bb
       -0.015153542 0.025386218 0.0086023575 -0.0040555727
000110 90 7c 8a bc bf e3 0e bc e3 d4 b3 bb b9 8b 8d 3c
       -0.0169051 -0.008721291 -0.0054880246 0.017278539
000120 ef 7d 07 3c 31 22 cb 3c 44 6b ad bc 5d a5 a4 3c
       0.008269771 0.024796577 -0.021169312 0.020098383
000130 d9 91 69 bc 07 a3 c8 bb 5f 56 b8 bc e3 3b 09 3b
       -0.014255964 -0.00612295 -0.022502122 0.0020940236

fc2.weight f4 [10, 80]
000000 22 94 fe bc 54 07 56 bc 68 9b 46 3d 3a 5e 0f 3d
       -0.031076495 -0.013063271 0.04848805 0.03500197
000010 d5 88 7a 3c 82 a7 45 3d 39 70 44 3d b1 b0 09 bd
       0.015291412 0.04825545 0.047958586 -0.03361577
000020 15 48 b5 bc 63 56 e1 3b 62 e3 91 bd 8e b0 cd bd
       -0.022129098 0.006876753 -0.07123448 -0.10043441
000030 86 3c a3 bd 73 d3 a9 bc c2 f7 f5 bd 8a 2d c3 bd
       -0.07970528 -0.02073071 -0.12010147 -0.0953017
000040 7d 23 90 3d 49 fd b4 3d d6 64 fa bd b7 ed 4b 3d
       0.07038019 0.08837373 -0.12226264 0.04978725
000050 d4 0b 00 39 a4 d2 da bd aa 7e c1 3c d8 9f 8f bd
       0.00012211438 -0.10684708 0.023619968 -0.0701291
000060 c7 95 a6 3d cc be f1 3c f4 3d 37 3c 30 7f ac bd
       0.081340365 0.029509924 0.011184204 -0.084226966
000070 7c b8 7b 3d ca 0e 89 bd f7 e6 d9 bd a3 80 a6 3d
       0.061455235 -0.06692274 -0.10639756 0.08130004
000080 70 17 7e bd 93 d6 5a bd a2 b7 99 bd 6e 8e 7d 3d
       -0.06203407 -0.05342729 -0.07505728 0.06190341
000090 3f c2 b6 3d 22 1c b0 3d 69 51 6c 3d 1b bb e7 bd
       0.08923768 0.08599116 0.057694826 -0.113149844
0000a0 12 4c a6 ba 87 7c aa 3d 95 9d 80 bd 98 f2 dc bd
       -0.0012687466 0.08324533 -0.062800564 -0.107884586
0000b0 ed e8 92 3c 7e 49 40 bd a1 67 17 3d bb c2 00 bd
       0.017933333 -0.046945088 0.036964063 -0.03143571
0000c0 42 71 17 3d a1 ac 1e bd 2c 88 97 bc cc 05 1a bd
       0.036973245 -0.03873885 -0.018497549 -0.037603185
0000d0 59 f7 c0 bd d6 87 23 bd cc f6 91 bd 99 2a b8 bc
       -0.09422178 -0.039924465 -0.07127151 -0.02248125
0000e0 dc 03 45 bd e5 ad 2f bd 5b f9 a6 3d ef ad c8 bd
       -0.048099384 -0.042890448 0.081530295 -0.097988
0000f0 50 a2 86 3d f4 ae 4a bc 3b 74 8e bd 1e be e6 bd
       0.065739274 -0.012370814 -0.06955763 -0.11266731
000100 e1 1c 0c 3d 84 53 0b 3d b8 3e 6d 3d d5 37 db 3d
       0.03420723 0.034015194 0.05792114 0.107040085
000110 7d 7d e6 bd f4 13 79 bd 9d a2 ab 3d d1 85 a4 bd
       -0.11254404 -0.060810044 0.083806254 -0.08033336
000120 77 08 86 3d 32 d3 14 3d fd ae b4 3d f9 ee a1 3d
       0.06544583 0.036334224 0.08822439 0.079069085
000130 22 da bd 3d 52 78 07 bd 38 fd 0b bd 22 93 ec 3b
       0.09270121 -0.03307373 -0.034177035 0.007219688
000140 8e fb 7f 3d b7 53 30 3c f1 cf 19 3d ac a1 b4 bd
       0.06249576 0.010762147 0.037551824 -0.08819899
000150 89 fd c6 3d 4d 78 c4 bd 23 61 d7 3c 36 8f e5 bd
       0.09716327 -0.09593258 0.026291436 -0.11208956
000160 ed 7d 41 bd ae 15 dd bd f6 0e 73 bd b5 8b f1 bd
       -0.047239233 -0.10795151 -0.05934044 -0.11794225
000170 af f8 26 bd 20 3f aa bd fb df 1f 3c 22 21 77 bd
       -0.040764507 -0.083128214 0.009757991 -0.060334332
000180 86 22 65 3d f7 27 e1 bd ed 83 a5 3a f1 88 b3 3c
       0.055941127 -0.10993951 0.0012627818 0.021915885
000190 82 aa f3 bc 70 93 0a bd b1 26 c0 bd 65 db b1 3d
       -0.02974439 -0.033832014 -0.0938238 0.08684424
0001a0 26 b4 6b 3d 3f 77 b4 bd f3 30 57 bc d1 92 17 bd
       0.05754485 -0.08811807 -0.013134229 -0.03700525
0001b0 ef 1e 94 3d 62 dc 4f bd cd 8d 76 bd c0 d6 7c 3d
       0.072324626 -0.050747283 -0.060193826 0.06172824
0001c0 ac 78 ff bd 58 64 51 bd 2c 66 02 bc 7f f5 70 3c
       -0.12474188 -0.051121086 -0.00795893 0.014706968
0001d0 ea eb b1 bd e5 61 82 3d a7 94 a0 3d 6a 0d 98 bd
       -0.08687575 0.06366328 0.07840853 -0.074244335
0001e0 87 ec 8d bc aa 0f 86 bd 13 15 a9 3d 53 54 b3 bd
       -0.0173247 -0.065459564 0.08255973 -0.08756318
0001f0 7a 1a 76 bd 20 39 58 3d 7c eb 1c bd 33 8e 81 bd
       -0.060083844 0.052788854 -0.038310513 -0.063259505
000200 5d 46 91 bd 56 f9 cd bd b5 a4 9b 3d 06 d2 17 bc
       -0.07093499 -0.10057323 0.07599775 -0.009266382
000210 bd ae a8 bd 1b 01 4b 3d 0d f1 b9 bd 79 db 5f 3d
       -0.08236454 0.0495616 -0.0907918 0.054652665
000220 40 7a b2 3d 51 23 a4 3a 4e cd 6b 3d 87 a5 c7 3c
       0.087147236 0.0012522732 0.05756884 0.024370922
000230 1e 7f 6a bd 09 8d 44 3d 00 45 de bd 5c c2 c9 3d
       -0.057250135 0.047986064 -0.108530045 0.09851524
000240 10 c4 d6 3d b4 24 e6 3c 96 46 db 3d 30 41 ba bd
       0.10486615 0.028093673 0.107068226 -0.09094465
000250 a3 02 ac bd c3 57 dd 3c 50 6d 4c 3d fb d9 44 3d
       -0.083989404 0.027019387 0.049908936 0.048059445
000260 f3 5f 50 bd 3e 20 ad 3d 18 ef ce 3c 56 d3 e3 3b
       -0.050872754 0.08453415 0.025260493 0.0069526834
000270 1a 27 6b 3b 07 d9 82 bd 58 2c 09 3c 94 4b 11 bc
       0.003588146 -0.06389051 0.008372389 -0.008868117
000280 bc 8c 5c bc ba 45 27 3d 2b 2d f4 bd 71 1c 1b bd
       -0.013461288 0.04083798 -0.119226776 -0.03786892
000290 72 5f 81 bd ae 45 2e bd 40 51 3c bc 90 5f 86 3d
       -0.06317033 -0.04254692 -0.011493981 0.06561196
0002a0 ce 93 52 3d 05 e7 fa bd 30 56 ed bc d7 90 ea bd
       0.05141049 -0.12251095 -0.028971761 -0.11453407
0002b0 27 7d b9 3d 9f 54 92 bd af 47 b1 bd 9b 94 75 bd
       0.09057074 -0.071450464 -0.08656251 -0.059956174
0002c0 41 85 c0 bd 99 d5 8a bd 0a 0f 75 3d a5 ef bf 3d
       -0.09400416 -0.06779022 0.059828795 0.093718804
0002d0 80 69 85 3d 0e 6e 36 bd 2f 24 37 bd ea cf e3 bd
       0.06514263 -0.04453855 -0.04471224 -0.11123641
0002e0 dd f9 73 3d dd 12 59 3d 22 fb a0 3d 46 e5 6b bd
       0.05956446 0.052996505 0.078604 -0.0575917
0002f0 9c 65 aa bd 79 0a fb bc 82 8f da bd 1d f2 57 3d
       -0.08320162 -0.030644642 -0.10671903 0.05272113
000300 b1 ee 02 be 51 7d 3e 3d d9 c9 9b 3d 79 84 bd 3d
       -0.12786366 0.04650623 0.07606859 0.09253783
000310 6e ae 45 bd ff 93 a3 bd ac 33 b4 3d 62 fb 81 bd
       -0.048262052 -0.079872124 0.08798918 -0.063467756
000320 19 a1 cd bd 70 eb 1d bc 15 7b a1 3d f3 80 86 3d
       -0.100404926 -0.009638652 0.07884804 0.06567564
000330 8f cf 01 bd 5a f2 31 3c 04 77 93 3d 83 70 b5 3a
       -0.031692084 0.010861004 0.07200435 0.0013842735
000340 10 9b 72 bc 6f fe 99 3d e3 02 b2 bc f5 27 ba bd
       -0.014807478 0.075192325 -0.021729892 -0.090896524
000350 b3 a9 fa bd b5 9a b8 3d c8 ea 83 3d b9 d3 27 3d
       -0.12239399 0.09013883 0.06441265 0.0409734
000360 a7 76 51 3d a5 5a 51 3d b8 09 c5 3d be 2c d3 bd
       0.051138546 0.051111836 0.09620994 -0.10311268
000370 bb a0 8f 3d 55 5d ec bc a6 ff ac 3d a2 ed ab bc
       0.07013079 -0.028853098 0.084471986 -0.020987336
000380 3e ea 98 bd 99 03 02 be 01 8e c7 bd 07 97 87 bd
       -0.07466553 -0.12696685 -0.09743882 -0.06620603
000390 dc 45 fc 3c b8 0e eb bd 06 e7 05 bd cb 7f 88 3d
       0.03079503 -0.11477417 -0.032691024 0.066649996
0003a0 61 43 51 bd f9 50 f7 bc af 62 3f bb 54 44 2e bd
       -0.05108965 -0.030189978 -0.0029203107 -0.04254563
0003b0 8f 66 60 bd 57 fa 48 bb d0 1f 85 bd 02 07 a2 3d
       -0.054785307 -0.0030666792 -0.065002084 0.07911493
0003c0 54 a4 bf bd ef 76 ac bd 79 39 9f 3c 79 e4 c6 bc
       -0.09357515 -0.08421122 0.019436585 -0.024278866
0003d0 9c ed 6b bd 01 be 7b 3d db 48 c2 3d 80 16 00 be
       -0.05759965 0.0614605 0.09486552 -0.12508583
0003e0 fb 3d 82 3c 87 e1 f1 bd 78 02 66 3c e7 a4 75 bc
       0.015898695 -0.11810594 0.0140386745 -0.014992929
0003f0 41 a0 9c 3c da f7 90 3d 8b 1a 8c 3d cc af 48 3d
       0.019119384 0.07078524 0.06841 0.048995778

fc2.bias f4 [10]
000000 e0 91 85 bc a0 76 e7 bc dd 4f c4 bd ff a7 db bd
       -0.01630491 -0.028254807 -0.09585545 -0.10725402
000010 69 bc aa 3c b1 86 71 bc d2 0b 43 bd 91 16 a6 bd
       0.020841794 -0.014741586 -0.047618695 -0.08109773
000020 61 f9 31 3c a8 25 b6 bd
       0.010862679 -0.08893901
