classify-ckpt/model_epoch_95.pth (torch, 517704 bytes, 4 tensors)

fc1.weight f4 [80, 1600]
00000000: 5fb9 a03c 2ddf 5dbc 3da3 57bc 6ba0 b0bc
00000010: d7fd d83b 8b81 aa3c d01c 593c da73 9bbc
00000020: e718 ffbb 890d ce3b 3114 8ebc 7091 9d3c
00000030: 2185 21bc 5b4a bd3c 4d94 943c 0fe5 bdbc
00000040: afa5 99bc cbe9 a23c 6a54 873c 8a89 f03c
00000050: 6214 9a3b 9f76 923c dff1 94bc 28bc b63c
00000060: f57f 273a f5f8 c63c a72c 83bc 78d7 9bbc
00000070: 0d94 24bc ea46 97bc d4fc b0bc e221 933c
00000080: 5df2 673c 6d5d 043c 9150 d8bb 9a45 07ba
00000090: e0e6 373c 8d09 8a3c 9ab8 e43b 3738 00bc
000000a0: 903a cabc 0df6 c13b 474e 83bb 07c5 403c
000000b0: 82b1 573b bb1f bfbc 4837 913c e795 603b
000000c0: 2aa5 b43c a645 debc dec4 003c fade 623c
000000d0: 2671 d6bc 0575 b63c fd9f dc3c c08f 0dbb
000000e0: 63f9 98bc cd36 efb9 743e ae3c 13ec 033d
000000f0: aa9f 8a3c b8be 9dbc ca92 9fbc a3e6 af3c
00000100: bed2 3e3a a7e4 7dbc 138a 9a3b 7205 6d3c
00000110: 3387 1139 5bb5 7e3b 2451 883c 8089 c73b
00000120: 0d5a 43bc c053 a43b d7c9 963b 02da a83c
00000130: e73d 8e3b 0ddc 5b3c 1a9f 3d3b b330 733c
00000140: a37d e7bc 96f1 febb 7c5a febc 14be 07bc
00000150: 5d6c 77bc 55bb 9aba 5a83 ec3b bcd1 babc
00000160: 9b99 08bc c47b 0a3b a425 363c c623 dfbc
00000170: 2b6b d3bc 97a9 2f3b 7790 913c 90ea 02bd
00000180: 8deb 6cbc f587 f13c 4f1b 23bb 84ee bb3c
00000190: 75e7 e0bb c17b 75bc 94a7 fdbc 87ea 203b
000001a0: c9fd 6cbc e7d7 8abc cea6 01bc bdd3 b7bc
000001b0: b6d1 cbbc 8709 c1bc 0b1b 5c3c 9737 24bc
000001c0: efd6 453c 59f3 52bc 15b2 993c 1615 49bc
000001d0: f30c 4cbc da50 9cbc b7c9 34bc 3093 d8bb
000001e0: 9ab6 17ba cdf4 47bc 75ae c93c 83c3 56bc
000001f0: fd95 e33c d72f c43c db9c b2bc 3a11 c0bb
00000200: 9d3d bd3c e459 b2bc ad65 41bc ca8b b5bc
00000210: 59d7 023c ece7 033d 04d6 a93c 78e6 c03b
00000220: 7315 ae3c 4a12 d63c 4042 103c 5350 91b9
00000230: 40f2 0f3c 7279 2f3d bba5 863c 99ec 493b
00000240: 52c7 a73c 9656 043c 953e c23c 8a83 dcbc
00000250: 2d46 2bbc d886 35ba 7977 d73b a788 863c
00000260: 5ac7 583b 23d7 383c 3d8b 60bc e061 a6bc
00000270: 40d6 553b 9af3 5a3c 33b7 753b 73b5 11bb
00000280: 3321 9339 bd9f 4b3c a0fd 26bc ba0d 08bc
00000290: 05ba 253c cd07 c43c 72c5 97bc 8a8b 3b3c
000002a0: 0ff3 9abc 5242 42bc c267 b8bb ebb9 b63c
000002b0: 3410 1dbc 90b3 0e3c 4ca5 77bc 6daf de3b
000002c0: c674 093c 206e b53b 9a43 a03c 9cc8 e3ba
000002d0: 5a6a 3a3b 274d 4d3c 4ebc 043d 803f ccbb
000002e0: 4cdb a53c 4d73 c53b a0ee 4f3c b390 e2bc
000002f0: 1a7b c93c d15d 4fbc f840 edbc cd6c eb3a
00000300: 677d a1bc 3366 db3b 464b 773c 92d3 ad3c
00000310: 8b7b 913c af59 ab3c 1069 70bc 9a55 503a
00000320: 2226 c43c cd3c c93c c7df 80bc f87f 9a3c
00000330: 6392 66bc 68ed a2bc 800b 8eba 63aa 2bbc
00000340: cbb6 803c 5f59 e1bc 7ffa 843c 6a9b 91bb
00000350: 4a4c acbb a710 4b3c 0dd4 bf3c cd0c 78b8
00000360: 8920 c63c 8ccf 493c 9784 683c 1fac de3c
00000370: 9012 9b3c 1d84 653b dfd6 a13c c325 103c
00000380: 76fc e73c 8dbf babb 9a39 15ba 23ac 983c
00000390: ddb8 a43c 911b 89bc 2302 253c 838d 90bc
000003a0: 3366 47bb a7a3 13bb dcc7 a23c 9500 b03c
000003b0: 7db4 693c e796 60bc 805d 88bb c000 083b
000003c0: 00e6 1dbb 9700 963c e7ee 85bb bdaf 13bc
000003d0: 857f 9e3c 13f4 76bc f293 b6bc 4362 393c
000003e0: 40c7 4c3c 579c b9bc 9c66 bd3c 8972 86ba
000003f0: ccba 953c 3071 16bc e82b 933c 6243 783b
0.019619642 -0.013541979 -0.013161478 -0.021560868 0.006622057 0.020813724 0.013251498 -0.01897614
-0.007784951 0.0062882346 -0.017343612 0.019234389 -0.009858401 0.023106745 0.018137122 -0.023180513
-0.018755762 0.019886872 0.016519744 0.029362459 0.004702137 0.017878829 -0.01818174 0.022306517
0.00063896115 0.024288634 -0.016012503 -0.019023642 -0.010045064 -0.018466432 -0.021604933 0.017960493
0.014156905 0.008078915 -0.006601401 -0.0005160213 0.0112244785 0.016850257 0.006980014 -0.007825903
-0.024686128 0.005919224 -0.004007134 0.011765725 0.00329122 -0.02333056 0.017726555 0.0034269036
0.022051413 -0.02713282 0.007859437 0.013847107 -0.026177 0.022272596 0.026931757 -0.0021600574
-0.018673604 -0.00045626462 0.021270014 0.03220756 0.016921837 -0.01925598 -0.019479174 0.02147228
0.0007279328 -0.0154964095 0.0047161668 0.01446663 0.00013878643 0.003886542 0.016640253 0.0060893893
-0.011923325 0.0050148666 0.004601698 0.020611767 0.0043408754 0.013419163 0.0028933943 0.014843154
-0.02825815 -0.007780264 -0.031049006 -0.008285064 -0.015101519 -0.0011805097 0.0072178068 -0.022805087
-0.008337404 0.00211309 0.011117373 -0.027238738 -0.025807938 0.0026803964 0.017769082 -0.031961977
-0.014460457 0.029483775 -0.0024888103 0.022940882 -0.0068635293 -0.0149831185 -0.030963697 0.0024553852
-0.014464804 -0.016948653 -0.0079133045 -0.022439832 -0.024880271 -0.023564113 0.013434182 -0.010023019
0.01207517 -0.012875401 0.018761674 -0.012273094 -0.012454259 -0.019081522 -0.011034421 -0.006609343
-0.00057874026 -0.012204361 0.02461932 -0.013108137 0.02778148 0.023948593 -0.02180331 -0.0058614286
0.023100669 -0.021771379 -0.011804027 -0.022161383 0.007985913 0.0322036 0.020731933 0.005886849
0.021250462 0.026131768 0.008804858 -0.000277164 0.008785784 0.04284043 0.016436448 0.003081119
0.020480786 0.008077284 0.023711482 -0.026918191 -0.010453743 -0.00069246953 0.0065755215 0.016422583
0.0033077807 0.011281761 -0.013705072 -0.020310342 0.0032628924 0.013363743 0.0037493228 -0.0022233396
0.0002806276 0.012428221 -0.010192305 -0.008304054 0.010115151 0.023929501 -0.018526766 0.011446843
-0.018914727 -0.011856632 -0.0056276033 0.02230545 -0.009586383 0.008709803 -0.015115093 0.0067958147
0.008389657 0.0055368096 0.019563485 -0.0017378512 0.0028444738 0.012530602 0.032406144 -0.0062331557
0.02024617 0.006025708 0.01269117 -0.027656889 0.024594832 -0.012656645 -0.028961644 0.0017961502
-0.019713117 0.0066955327 0.01509363 0.021219049 0.017759105 0.020916788 -0.014673486 0.0007947326
0.023943964 0.024565125 -0.015731705 0.018859848 -0.014072987 -0.019888595 -0.0010837168 -0.010477635
0.015712162 -0.027508436 0.016232727 -0.0044435756 -0.005258118 0.012394107 0.023416543 -5.913973e-05
0.024185436 0.012317549 0.014191768 0.027181683 0.01892975 0.0035021373 0.019755779 0.008798066
0.028318625 -0.005699104 -0.0005692482 0.018636769 0.020107681 -0.016736777 0.01007131 -0.017645603
-0.0030425906 -0.0022527964 0.019870691 0.021484653 0.014264223 -0.013707853 -0.0041615367 0.00207524
-0.002409339 0.018310828 -0.0040873173 -0.009014067 0.019347915 -0.01507284 -0.022287343 0.011314931
0.012498677 -0.022657556 0.023120217 -0.0010257523 0.018277548 -0.009182259 0.017965272 0.003788196

fc1.bias f4 [80]
00000000: a037 08bb 94f0 80bc 75c6 953c 853d cabb
00000010: f83d 023c eebd 24bc e659 153c 7bb1 533c
00000020: 1af2 0d3c 6146 473b 12f8 a73b 825e ad3c
00000030: 8bc3 52bb 204d 71bc 24f3 bf3c de39 4dbc
00000040: 36cc 7d3c 5970 723c 50ed 013d 973f 8b3a
00000050: b1a2 9b3c 1122 0db9 0055 cdba c6c8 ad3b
00000060: ce73 41bc 88a6 86bb 3d6f 63bc 6053 653b
00000070: 45fb dd39 2d28 b43c 9433 e43c 0e04 a33c
00000080: 7cc7 333b fd34 59bb b28d 3d3c a8a1 12bc
00000090: f1c5 503c 9949 e83b 35a5 b93c ef04 33bc
000000a0: bb69 903b cb08 aebc 159d 013c 3bcc c1ba
000000b0: 82d4 c2bc 62a1 e439 c726 773b 20e6 d93c
000000c0: be9c 17bb 1248 e43c 1712 adbb ffe9 7e3c
000000d0: 74d6 f9bb 0291 a63c cd7b 5abc d7cb 983c
000000e0: 711e 883c e9a3 02bc 3612 b9bc 8da6 7f3b
000000f0: 2a6b 1d3c 3cde aebc 966d e8bb a2fe a7ba
00000100: 618d 78bc 8ae5 d13c d3a9 0c3c 9ce4 84bb
00000110: 55bc 89bc ada8 0dbc 908a 94bb d5cb 8c3c
00000120: b8fb 053c 38c0 cb3c a5e6 adbc 94f8 a43c
00000130: 279d 69bc f00e c8bb 2f79 b8bc fe4f 043b
-0.0020785108 -0.015739717 0.018283108 -0.0061718845 0.007949345 -0.010055048 0.009115672 0.012920733
0.008663679 0.003040694 0.005126008 0.021163229 -0.003216001 -0.014727861 0.023431368 -0.012526004
0.015490582 0.014797294 0.03172046 0.001062381 0.018998476 -0.00013459499 -0.0015665591 0.005303475
-0.011807395 -0.0041092075 -0.013881502 0.0034992322 0.00042339615 0.021991814 0.027856626 0.019899394
0.0027432134 -0.0033143156 0.011569427 -0.008949675 0.012742505 0.0070888516 0.022661785 -0.010926469
0.0044071353 -0.021244427 0.007910986 -0.0014785597 -0.023782972 0.00043607788 0.0037712322 0.02659899
-0.0023134197 0.027866397 -0.0052816975 0.015558719 -0.0076244418 0.020332817 -0.0133351805 0.018651886
0.016616078 -0.00797365 -0.022591691 0.0039009184 0.009608069 -0.021346204 -0.007093142 -0.0012816975
-0.015170426 0.025622148 0.008585411 -0.0040555727 -0.016813437 -0.0086461725 -0.0045331195 0.017187038
0.00817769 0.02487193 -0.021228144 0.020138063 -0.014258659 -0.0061052963 -0.022518722 0.002018928

fc2.weight f4 [10, 80]
00000000: 1c19 04bd 7743 69bc 5fcc 413d 92ad 0a3d
00000010: d61e 763c c6df 403d 4ca1 3f3d 984c 0ebd
00000020: eda2 bebc e39f bc3b df4a 94bd f63b cebd
00000030: f2a3 a5bd 73d3 a9bc 415f f8bd fc94 c5bd
00000040: fbbb 8d3d 6ca0 b23d 2fcc fcbd 011f 473d
00000050: f8dc 89ba eb39 ddbd aa7e c13c 5a07 92bd
00000060: 562e a43d 5021 e83c 2002 243c 98e6 aebd
00000070: 6fe9 763d 4776 8bbd d078 dabd 5a19 a43d
00000080: 226c 81bd 93d6 5abd 241f 9cbd 6e8e 7d3d
00000090: c860 b63d a6b4 ad3d 6282 673d 8f22 eabd
000000a0: ac11 20bb 9040 a83d 0029 81bd d16c ddbd
000000b0: ede8 923c 5b18 45bd c098 123d 5c77 05bd
000000c0: 134b 163d 797a 23bd 3926 a1bc 6ec7 1ebd
000000d0: 8c5e c3bd ac56 28bd 3d5e 94bd 31c8 c1bc
000000e0: b9d2 49bd d97c 34bd da91 a43d efad c8bd
000000f0: 864c 843d a77a 5dbc 30d5 90bd 1ebe e6bd
00000100: dc4d 073d f1c2 063d b76f 683d d537 db3d
00000110: eee4 e8bd dbe2 7dbd 4856 a93d 25ed a6bd
00000120: e8a1 833d 2604 103d 5e12 b43d 1194 9f3d
00000130: aa47 bd3d 2247 0cbd 24cc 10bd 4d1d c63b
00000140: 109b 7f3d ce10 2d3c 716f 193d b26f b6bd
00000150: 58f6 c63d 831b c6bd 6bf5 d93c 170a e7bd
00000160: e9c6 45bd e12c dfbd 26f9 73bd c892 f1bd
00000170: dfe2 27bd 203f aabd 6fc7 223c 520b 78bd
00000180: 5671 653d e577 e3bd e629 b43a 379a b53c
00000190: e37e f5bc 92d9 09bd b126 c0bd cd02 b23d
000001a0: f702 6c3d 56ec b4bd dd73 5abc 007d 18bd
000001b0: b1ee 933d 8422 4fbd d39c 76bd 538b 7d3d
000001c0: 7ce9 00be 5864 51bd ec2a 01bc 7ff5 703c
000001d0: 166b b2bd d2be 823d 94f1 a03d 8182 98bd
000001e0: 2a02 8dbc cf68 88bd 000e a93d 505a b3bd
000001f0: 7a1a 76bd 5327 583d acd5 1dbd 9cde 83bd
00000200: f74d 91bd 09de cfbd 1dcc 9b3d fd67 2abc
00000210: c06c a9bd 9ba0 4a3d 2466 babd b6bb 603d
00000220: 5971 b23d 45dd 863a 94fc 6a3d 87a5 c73c
00000230: 5718 6fbd 2ef2 3f3d 396e dfbd 5cc2 c93d
00000240: 78eb d63d 9e57 dd3c fd6d db3d 3041 babd
00000250: bc77 acbd 7dcb de3c 3003 483d 2ec8 443d
00000260: b7d0 4ebd a647 ad3d c751 c63c bfdb bf3b
00000270: 6f35 6a3b ab71 83bd cfaa 0d3c d77e 15bc
00000280: 47c5 6fbc 6478 223d 2a94 f6bd 03e9 1ebd
00000290: 48ad 81bd 0dd5 32bd 1d74 4fbc 5f05 843d
000002a0: 10d5 4d3d d145 fdbd 1aef f6bc 8add eabd
000002b0: 6617 b73d 9f54 92bd 6cae b3bd 5d61 7abd
000002c0: 6eec c2bd 4eff 8cbd 8643 703d dc8f bd3d
000002d0: 1f03 833d 5b30 3bbd 2f24 37bd 1637 e6bd
000002e0: 452f 6f3d 4a4b 543d f194 9e3d 46ac 70bd
000002f0: decc acbd c251 02bd 41e0 dabd a829 533d
00000300: b81d 04be 517d 3e3d 0663 993d 7984 bd3d
00000310: a908 48bd c4f9 a5bd 09cd b13d e05f 84bd
00000320: a706 d0bd 7c32 1cbc 602e a13d d83e 863d
00000330: 8fcf 01bd 01c0 1e3c 2d11 913d c0c9 6a39
00000340: 7127 75bc 46dc 973d 149e bbbc 4583 bcbd
00000350: f4ff fcbd 9b34 b63d 2089 813d 3d0a 233d
00000360: 32aa 4c3d a88d 4c3d 15a3 c23d be2c d3bd
00000370: 4942 8d3d e8c2 f4bc 30a1 aa3d a2ed abbc
00000380: 1051 9bbd ffee 02be 9ff4 c9bd 0797 87bd
00000390: bdb5 f23c 9971 edbd a2a2 0abd 6e1b 863d
000003a0: 3008 56bd 7876 00bd 5b03 71bb 2568 32bd
000003b0: d608 61bd 6cb6 8abb cf85 87bd 21b4 9f3d
000003c0: c60b c2bd 60de aebd b49b 953c ed5e d0bc
000003d0: 76ef 6bbd 473d 783d bce1 bf3d 1639 01be
000003e0: 88a7 713c 5230 f4bd e1c7 523c 26ac 75bc
000003f0: 3f04 933c daf7 903d 2db3 893d 6ee1 433d
-0.03225051 -0.014237276 0.047314044 0.033856936 0.015022 0.047088407 0.046784684 -0.034741014
-0.023271048 0.0057563647 -0.07240843 -0.100700304 -0.08087911 -0.02073071 -0.12127543 -0.09647557
0.0692062 0.08722004 -0.123436324 0.048613552 -0.0010518124 -0.108020626 0.023619968 -0.071303084
0.080166504 0.028336197 0.010010272 -0.08540076 0.060281213 -0.06809669 -0.106675744 0.08012648
-0.06319453 -0.05342729 -0.07623127 0.06190341 0.08905178 0.084817216 0.056520827 -0.11432373
-0.0024424596 0.08215439 -0.06306648 -0.10811771 0.017933333 -0.04811893 0.035790205 -0.032584533
0.03669269 -0.03991172 -0.019671546 -0.03876441 -0.09539518 -0.04109828 -0.07244537 -0.023655029
-0.049273226 -0.044064377 0.080356315 -0.097988 0.06459908 -0.013518012 -0.07071912 -0.11266731
0.033033237 0.032900754 0.056747165 0.107040085 -0.1137179 -0.061983924 0.0826841 -0.081507005
0.064273655 0.035160206 0.08792566 0.07791913 0.092421845 -0.034247525 -0.035350934 0.0060459734
0.06240374 0.010563089 0.037459794 -0.08908023 0.09714955 -0.09673216 0.026606282 -0.11281221
-0.0482854 -0.10897232 -0.05956378 -0.117955744 -0.040987846 -0.083128214 0.009935244 -0.06055767
0.05601629 -0.111068524 0.0013745397 0.022168262 -0.02996773 -0.033654757 -0.0938238 0.086919405
0.057620015 -0.0883414 -0.013333288 -0.037228584 0.07223261 -0.050570026 -0.060208153 0.061900448
-0.12589067 -0.051121086 -0.0078837685 0.014706968 -0.08711831 0.06384052 0.07858577 -0.07446767
-0.017212946 -0.06660616 0.082546234 -0.0875746 -0.060083844 0.052771877 -0.03853385 -0.06438944
-0.07094949 -0.10149772 0.07607291 -0.010400769 -0.082726955 0.04946957 -0.09101513 0.054866515
0.087130256 0.0010289332 0.057369784 0.024370922 -0.05837282 0.04686182 -0.10909695 0.09851524
0.10494131 0.027019318 0.10714338 -0.09094465 -0.08421275 0.02719664 0.048831165 0.04804247
-0.050492015 0.084609315 0.024208916 0.005855053 0.0035737415 -0.06418165 0.008646681 -0.009124479
-0.014634437 0.039665595 -0.12039979 -0.038796436 -0.06331879 -0.043660212 -0.012661961 0.06446337
0.05025202 -0.12366832 -0.03014331 -0.114680365 0.0894001 -0.071450464 -0.08773503 -0.06112801
-0.09517752 -0.06884633 0.058658145 0.092559546 0.0639708 -0.045700412 -0.04471224 -0.112409756
0.05839469 0.051829614 0.07743252 -0.058758043 -0.08437513 -0.03181625 -0.10687304 0.0515534
-0.12901962 0.04650623 0.0748959 0.09253783 -0.048836384 -0.0810428 0.086816855 -0.06463599
-0.10157519 -0.009533521 0.078701735 0.06554955 -0.031692084 0.009689332 0.07083354 0.00022391137
-0.014963017 0.07415061 -0.022902526 -0.09204725 -0.12353507 0.088967524 0.06324983 0.039804686
0.049967 0.04993978 0.09503762 -0.10311268 0.068974085 -0.029878095 0.08331525 -0.020987336
-0.07583821 -0.12786482 -0.09861111 -0.06620603 0.029627675 -0.11593933 -0.033846505 0.065482005
-0.052253902 -0.03136298 -0.0036775682 -0.04355635 -0.054940067 -0.004233172 -0.06617319 0.07798029
-0.09474902 -0.085385084 0.018262722 -0.02543589 -0.057601415 0.060605314 0.09369227 -0.12619433
0.014749415 -0.11923279 0.012865038 -0.014994657 0.01794636 0.07078524 0.06723628 0.04782241

fc2.bias f4 [10]
00000000: 7a2f 8fbc 379a e7bc b6b3 c6bd db0e debd
00000010: 5f7d ab3c 7260 82bc 10da 47bd e57c a8bd
00000020: 1bc1 1e3c e88a b8bd
-0.017478693 -0.028271778 -0.09702246 -0.10842677 0.020933805 -0.01591513 -0.048791945 -0.08226947
0.009689595 -0.09010869
