classify-ckpt/model_epoch_87.pth (torch, 517704 bytes, 4 tensors)

fc1.weight f4 [80, 1600]
00000000: 5fb9 a03c 2ddf 5dbc 3da3 57bc 6ba0 b0bc
00000010: 60df d73b 8b81 aa3c d01c 593c da73 9bbc
00000020: e718 ffbb 3873 ce3b 3114 8ebc 7091 9d3c
00000030: 2185 21bc 5b4a bd3c ae4c 943c 0fe5 bdbc
00000040: afa5 99bc cbe9 a23c 6a54 873c 27f6 ef3c
00000050: c22d 983b 9f76 923c dff1 94bc 28bc b63c
00000060: 368c 1e3a f5f8 c63c a72c 83bc 78d7 9bbc
00000070: 0d94 24bc cde9 96bc d4fc b0bc e221 933c
00000080: 5df2 673c 6d5d 043c 086f d9bb 9a45 07ba
00000090: e0e6 373c 8d09 8a3c 9ab8 e43b 3738 00bc
000000a0: 903a cabc 0df6 c13b 474e 83bb 07c5 403c
000000b0: 9274 553b bb1f bfbc 4837 913c e795 603b
000000c0: 2aa5 b43c 3a2c debc dec4 003c fade 623c
000000d0: 2671 d6bc 0575 b63c 5e58 dc3c c08f 0dbb
000000e0: 63f9 98bc cd36 efb9 76b1 ad3c c0a6 033d
000000f0: 0226 8a3c b8be 9dbc ca92 9fbc a3e6 af3c
00000100: ffde 353a a7e4 7dbc 138a 9a3b 7205 6d3c
00000110: 3387 1139 24cf 803b 2451 883c 8089 c73b
00000120: 0d5a 43bc c053 a43b 60ab 953b 02da a83c
00000130: e73d 8e3b 0ddc 5b3c 1a9f 3d3b b330 733c
00000140: a37d e7bc 96f1 febb 7c5a febc 14be 07bc
00000150: 98fb 77bc 55bb 9aba 5a83 ec3b bcd1 babc
00000160: 9b99 08bc 2247 0b3b a425 363c c623 dfbc
00000170: 2b6b d3bc 97a9 2f3b d848 913c 90ea 02bd
00000180: 8deb 6cbc f7fa f03c 4f1b 23bb e263 bb3c
00000190: 75e7 e0bb 116f 76bc 94a7 fdbc 87ea 203b
000001a0: 058d 6dbc e7d7 8abc cea6 01bc bdd3 b7bc
000001b0: b6d1 cbbc 6aac c0bc 0b1b 5c3c 9737 24bc
000001c0: efd6 453c 59f3 52bc 766a 993c 1615 49bc
000001d0: f30c 4cbc da50 9cbc b7c9 34bc 3093 d8bb
000001e0: 9ab6 17ba cdf4 47bc 75ae c93c 83c3 56bc
000001f0: 5e4e e33c d72f c43c db9c b2bc 3a11 c0bb
00000200: 9d3d bd3c 7840 b2bc ad65 41bc ca8b b5bc
00000210: 59d7 023c 1dc4 033d 658e a93c 00c8 bf3b
00000220: 7315 ae3c 4c85 d53c 4042 103c 0ef9 b3b9
00000230: 40f2 0f3c 9f3c 2f3d bba5 863c aaaf 473b
00000240: b37f a73c 5cc7 033c 953e c23c 8a83 dcbc
00000250: 2d46 2bbc 25e3 29ba 7977 d73b a788 863c
00000260: 5ac7 583b 23d7 383c 781a 61bc e061 a6bc
00000270: 40d6 553b 9af3 5a3c 33b7 753b 73b5 11bb
00000280: 3321 9339 bd9f 4b3c a0fd 26bc ba0d 08bc
00000290: ca2a 253c cd07 c43c 72c5 97bc 8a8b 3b3c
000002a0: 0ff3 9abc 7b0f 42bc c267 b8bb ebb9 b63c
000002b0: 6e9f 1dbc 90b3 0e3c 8734 78bc 6daf de3b
000002c0: 8ce5 083c 206e b53b 9a43 a03c cb72 ecba
000002d0: 5a6a 3a3b 274d 4d3c 7f98 043d 803f ccbb
000002e0: ad93 a53c 4d73 c53b 665f 4f3c b390 e2bc
000002f0: 1a7b c93c 96a3 4ebc f840 edbc cd6c eb3a
00000300: 677d a1bc 3366 db3b 0bbc 763c 92d3 ad3c
00000310: 8b7b 913c af59 ab3c 1069 70bc 9a55 503a
00000320: 2226 c43c cd3c c93c c7df 80bc f87f 9a3c
00000330: 9e21 67bc 68ed a2bc 800b 8eba 63aa 2bbc
00000340: cbb6 803c f33f e1bc 7ffa 843c e2b9 92bb
00000350: 4a4c acbb a710 4b3c 6e8c bf3c cd0c 78b8
00000360: 8b93 c53c 5240 493c 9784 683c 7d21 de3c
00000370: 9012 9b3c 2e47 633b 375d a13c c325 103c
00000380: d7b4 e73c 8dbf babb 9a39 15ba 8464 983c
00000390: ddb8 a43c 74be 88bc 2302 253c 838d 90bc
000003a0: 3366 47bb a7a3 13bb 3d80 a23c 9500 b03c
000003b0: 7db4 693c e796 60bc 805d 88bb c000 083b
000003c0: 00e6 1dbb 9700 963c e7ee 85bb bdaf 13bc
000003d0: e637 9e3c 13f4 76bc f293 b6bc 4362 393c
000003e0: 40c7 4c3c eb82 b9bc fd1e bd3c 8972 86ba
000003f0: ccba 953c 3071 16bc 49e4 923c 6edb 733b
0.019619642 -0.013541979 -0.013161478 -0.021560868 0.0065879077 0.020813724 0.013251498 -0.01897614
-0.007784951 0.0063003562 -0.017343612 0.019234389 -0.009858401 0.023106745 0.01810297 -0.023180513
-0.018755762 0.019886872 0.016519744 0.02929218 0.0046441266 0.017878829 -0.01818174 0.022306517
0.0006048115 0.024288634 -0.016012503 -0.019023642 -0.010045064 -0.018422032 -0.021604933 0.017960493
0.014156905 0.008078915 -0.0066355504 -0.0005160213 0.0112244785 0.016850257 0.006980014 -0.007825903
-0.024686128 0.005919224 -0.004007134 0.011765725 0.0032570702 -0.02333056 0.017726555 0.0034269036
0.022051413 -0.027120698 0.007859437 0.013847107 -0.026177 0.022272596 0.026897606 -0.0021600574
-0.018673604 -0.00045626462 0.021202784 0.032141447 0.016863827 -0.01925598 -0.019479174 0.02147228
0.0006937831 -0.0154964095 0.0047161668 0.01446663 0.00013878643 0.003930943 0.016640253 0.0060893893
-0.011923325 0.0050148666 0.0045675486 0.020611767 0.0043408754 0.013419163 0.0028933943 0.014843154
-0.02825815 -0.007780264 -0.031049006 -0.008285064 -0.015135668 -0.0011805097 0.0072178068 -0.022805087
-0.008337404 0.0021252115 0.011117373 -0.027238738 -0.025807938 0.0026803964 0.01773493 -0.031961977
-0.014460457 0.029416544 -0.0024888103 0.022874776 -0.0068635293 -0.015041129 -0.030963697 0.0024553852
-0.014498954 -0.016948653 -0.0079133045 -0.022439832 -0.024880271 -0.023519713 0.013434182 -0.010023019
0.01207517 -0.012875401 0.018727522 -0.012273094 -0.012454259 -0.019081522 -0.011034421 -0.006609343
-0.00057874026 -0.012204361 0.02461932 -0.013108137 0.02774733 0.023948593 -0.02180331 -0.0058614286
0.023100669 -0.021759257 -0.011804027 -0.022161383 0.007985913 0.03216945 0.020697782 0.0058526993
0.021250462 0.026064537 0.008804858 -0.000343271 0.008785784 0.042782422 0.016436448 0.0030469694
0.020446634 0.008043136 0.023711482 -0.026918191 -0.010453743 -0.00064806856 0.0065755215 0.016422583
0.0033077807 0.011281761 -0.013739221 -0.020310342 0.0032628924 0.013363743 0.0037493228 -0.0022233396
0.0002806276 0.012428221 -0.010192305 -0.008304054 0.0100810025 0.023929501 -0.018526766 0.011446843
-0.018914727 -0.011844511 -0.0056276033 0.02230545 -0.0096205305 0.008709803 -0.015149242 0.0067958147
0.0083555095 0.0055368096 0.019563485 -0.0018039582 0.0028444738 0.012530602 0.032371994 -0.0062331557
0.020212019 0.006025708 0.012657022 -0.027656889 0.024594832 -0.012612244 -0.028961644 0.0017961502
-0.019713117 0.0066955327 0.015059481 0.021219049 0.017759105 0.020916788 -0.014673486 0.0007947326
0.023943964 0.024565125 -0.015731705 0.018859848 -0.014107136 -0.019888595 -0.0010837168 -0.010477635
0.015712162 -0.027496314 0.016232727 -0.0044777254 -0.005258118 0.012394107 0.023382392 -5.913973e-05
0.024118206 0.012283402 0.014191768 0.027115578 0.01892975 0.0034679878 0.019697769 0.008798066
0.028284473 -0.005699104 -0.0005692482 0.018602617 0.020107681 -0.016692378 0.01007131 -0.017645603
-0.0030425906 -0.0022527964 0.01983654 0.021484653 0.014264223 -0.013707853 -0.0041615367 0.00207524
-0.002409339 0.018310828 -0.0040873173 -0.009014067 0.019313764 -0.01507284 -0.022287343 0.011314931
0.012498677 -0.022645434 0.023086065 -0.0010257523 0.018277548 -0.009182259 0.01793112 0.0037209648

fc1.bias f4 [80]
00000000: 8a74 0abb 2f38 81bc da7e 953c 0a59 cabb
00000010: f03f 023c 184d 25bc 21e9 153c c35b 533c
00000020: 78e6 0c3c fef4 433b 9bd9 a63b 0c5d ad3c
00000030: 7600 55bb 204d 71bc c23a c03c 18c9 4dbc
00000040: 6b5b 7e3c d368 723c 1e11 023d 71b9 8f3a
00000050: 125b 9b3c 00a7 d2b8 0055 cdba 32e7 ae3b
00000060: 93e4 40bc fec4 87bb 77fe 63bc ea16 633b
00000070: 7915 cc39 cb6f b43c 0a33 e43c ac4b a33c
00000080: 308b 313b fd34 59bb eb1c 3e3c a8a1 12bc
00000090: 32e1 503c 1068 e93b d3ec b93c 2a94 33bc
000000a0: 2f88 913b b7f7 adbc 679b 013c 80bd c1ba
000000b0: 82d4 c2bc a188 f639 d7e9 743b 8a9e d93c
000000c0: a499 17bb 7700 e43c a0f3 abbb 756d 7e3c
000000d0: cbf4 fabb 6749 a63c 070b 5bbc 7613 993c
000000e0: 0a66 883c 2333 03bc d459 b9bc 8da6 7f3b
000000f0: 9988 1c3c 1a00 afbc a169 e9bb a2fe a7ba
00000100: 27fe 77bc d7c0 d13c 0e39 0d3c 9ce4 84bb
00000110: f403 8abc 7319 0dbc e514 96bb 7313 8d3c
00000120: e38a 063c cf07 cc3c 33d7 adbc 78fc a43c
00000130: 829c 69bc 672d c9bb 9131 b8bc 1913 023b
-0.0021126592 -0.01577386 0.018248964 -0.006175165 0.007949814 -0.010089181 0.009149821 0.012900296
0.00859987 0.0029900665 0.0050918586 0.021162532 -0.0032501495 -0.014727861 0.023465518 -0.0125601515
0.015524725 0.0147955 0.031754605 0.00109653 0.018964324 -0.000100446865 -0.0015665591 0.005337619
-0.011773246 -0.0041433563 -0.01391565 0.003465111 0.0003892591 0.022025963 0.027856369 0.019933544
0.002709102 -0.0033143156 0.011603574 -0.008949675 0.012749003 0.007123001 0.022695934 -0.010960618
0.004441283 -0.021236284 0.007910586 -0.0014781207 -0.023782972 0.00047022573 0.0037370825 0.026564855
-0.0023132348 0.027832253 -0.005247548 0.015529026 -0.007658576 0.020298673 -0.013369328 0.018686038
0.016650219 -0.008007797 -0.022625841 0.0039009184 0.009554052 -0.021362353 -0.0071231876 -0.0012816975
-0.015136278 0.025604649 0.00861956 -0.0040555727 -0.016847588 -0.008612025 -0.0045801275 0.017221188
0.008211824 0.024906067 -0.021220779 0.020139918 -0.014258506 -0.0061394456 -0.022484573 0.001984781

fc2.weight f4 [10, 80]
00000000: c5cb 03bd 1f0e 68bc b619 423d 61f8 0a3d
00000010: 6262 763c dc2c 413d a0ee 3f3d f103 0ebd
00000020: a80d bebc 12e7 be3b 3424 94bd 9f33 cebd
00000030: 487d a5bd 73d3 a9bc 9538 f8bd 516e c5bd
00000040: a7e2 8d3d 2dc6 b23d 87a5 fcbd 516c 473d
00000050: 5f32 80ba 4413 ddbd aa7e c13c aee0 91bd
00000060: 0055 a43d f3bb e83c 7437 253c eebf aebd
00000070: c636 773d 9c4f 8bbd 1570 dabd 0140 a43d
00000080: 1246 81bd 93d6 5abd 78f8 9bbd 6e8e 7d3d
00000090: 9f64 b63d 51db ad3d b8cf 673d e4fb e9bd
000000a0: a63c 1bbb 5f63 a83d aa20 81bd 8965 ddbd
000000b0: ede8 923c 07cb 44bd 14e6 123d 3d2a 05bd
000000c0: af5c 163d 2c2d 23bd 8d8b a0bc 397b 1ebd
000000d0: e637 c3bd 5909 28bd 9337 94bd 8e2d c1bc
000000e0: 6585 49bd 842f 34bd 86b8 a43d efad c8bd
000000f0: b771 843d ed4e 5cbc 16af 90bd 1ebe e6bd
00000100: 329b 073d 1c0b 073d 0cbd 683d d537 db3d
00000110: 43be e8bd 8795 7dbd c37a a93d 7dc6 a6bd
00000120: 7fc8 833d 7d51 103d d417 b43d acb9 9f3d
00000130: 6f50 bd3d cff9 0bbd d07e 10bd d687 c83b
00000140: dfbe 7f3d 0ba0 2d3c 4093 193d fe54 b6bd
00000150: c6f6 c63d d7f4 c5bd 160f da3c d3f0 e6bd
00000160: 3a84 45bd 920c dfbd 57d5 73bd 5c92 f1bd
00000170: 10bf 27bd 203f aabd ac56 233c 83e7 77bd
00000180: 2595 653d 6653 e3bd c7a3 b83a d5e1 b53c
00000190: 4437 f5bc c3b5 09bd b126 c0bd b514 b23d
000001a0: c626 6c3d 6eda b4bd a0e4 59bc 3159 18bd
000001b0: 9900 943d b5fe 4ebd ee9b 76bd 2898 7d3d
000001c0: c3d6 00be 5864 51bd af9b 00bc 7ff5 703c
000001d0: 5265 b2bd bad0 823d 7c03 a13d 9970 98bd
000001e0: 8bba 8cbc 7b43 88bd 6c0e a93d f559 b3bd
000001f0: 7a1a 76bd 224b 583d ddb1 1dbd f0b7 83bd
00000200: 834d 91bd 5db7 cfbd 05de 9b3d 2a42 29bc
00000210: d85a a9bd 6ac4 4a3d 3c54 babd 85df 603d
00000220: 4183 b23d 2857 8b3a 6320 6b3d 87a5 c73c
00000230: dccf 6ebd a03a 403d 805b dfbd 5cc2 c93d
00000240: 60fd d63d 4fdf dd3c e57f db3d 3041 babd
00000250: d465 acbd 1c13 df3c 0348 483d fdeb 443d
00000260: c7d4 4ebd 8e59 ad3d aad6 c63c ac0d c23b
00000270: d643 6a3b c35f 83bd 23de 0d3c 9aef 14bc
00000280: 2290 6ebc a3c5 223d 876d f6bd a2b0 1ebd
00000290: bba8 81bd e589 32bd 7240 4ebc 082b 843d
000002a0: 2521 4e3d d21f fdbd b154 f6bc 0cd9 eabd
000002b0: fa3d b73d 9f54 92bd cd87 b3bd 2414 7abd
000002c0: c6c5 c2bd 5fde 8cbd a190 703d 03b6 bd3d
000002d0: be29 833d ece3 3abd 2f24 37bd 6e10 e6bd
000002e0: 577c 6f3d 4c98 543d 8bbb 9e3d 7d5f 70bd
000002f0: 36a6 acbd 9404 02bd 86db dabd 9f76 533d
00000300: c50a 04be 517d 3e3d a689 993d 7984 bd3d
00000310: f1ea 47bd 38d3 a5bd a7f3 b13d 6939 84bd
00000320: 1ae0 cfbd ab67 1cbc de32 a13d b442 863d
00000330: 8fcf 01bd d1f4 1f3c c237 913d b9ac 9b39
00000340: 3d01 75bc 9202 983d 9103 bbbc 955d bcbd
00000350: 4dda fcbd 345b b63d 83af 813d 3d57 233d
00000360: 66f7 4c3d e4da 4c3d b4c9 c23d be2c d3bd
00000370: 3e68 8d3d 0345 f4bc 24c7 aa3d a2ed abbc
00000380: 702a 9bbd ece1 02be 01ce c9bd 0797 87bd
00000390: bc4f f33c 384b edbd ca56 0abd f041 863d
000003a0: a8bb 55bd 3029 00bd abc4 6ebb 122a 32bd
000003b0: 56ff 60bd 384e 88bb 3b5f 87bd 3eda 9f3d
000003c0: 1be5 c1bd b6b7 aebd 5c36 963c 51c7 cfbc
000003d0: 5bef 6bbd 8a89 783d 6008 c03d 4227 01be
000003e0: 24d4 723c b30b f4bd 20fd 533c beab 75bc
000003f0: d09e 933c daf7 903d d5d9 893d b92e 443d
-0.03217675 -0.014163523 0.0473878 0.03392828 0.015038105 0.04716192 0.04685843 -0.034671728
-0.023199871 0.0058258856 -0.07233468 -0.1006844 -0.08080536 -0.02073071 -0.12120167 -0.09640182
0.06927996 0.08729205 -0.12336259 0.048687283 -0.0009780637 -0.1079469 0.023619968 -0.071229324
0.08024025 0.028409934 0.010084022 -0.085327014 0.06035497 -0.06802294 -0.10665909 0.0802002
-0.06312193 -0.05342729 -0.07615751 0.06190341 0.08905911 0.08489097 0.05659458 -0.114249974
-0.0023687272 0.082220785 -0.06305058 -0.10810382 0.017933333 -0.048045184 0.03586395 -0.032510985
0.036709484 -0.039838 -0.019597793 -0.038691733 -0.09532146 -0.04102454 -0.072371624 -0.023581292
-0.04919948 -0.043990627 0.080430076 -0.097988 0.06467002 -0.013446552 -0.07064645 -0.11266731
0.03310699 0.03296958 0.056820914 0.107040085 -0.113644145 -0.06191018 0.08275368 -0.081433274
0.06434726 0.035233963 0.08793607 0.07799086 0.09243857 -0.034173783 -0.035277188 0.0061197085
0.06243789 0.010597239 0.037493944 -0.0890293 0.09715037 -0.0966584 0.026618522 -0.11276402
-0.048221804 -0.108910695 -0.05952963 -0.11795494 -0.040953696 -0.083128214 0.009969395 -0.06052352
0.05605044 -0.11099891 0.0014086895 0.022202412 -0.02993358 -0.033620607 -0.0938238 0.08695356
0.057654165 -0.08830725 -0.013299137 -0.037194435 0.072266765 -0.050535876 -0.0602073 0.061912686
-0.12581925 -0.051121086 -0.007849618 0.014706968 -0.087107316 0.06387468 0.07861993 -0.07443351
-0.017178794 -0.06653496 0.08254704 -0.08757392 -0.060083844 0.052806027 -0.0384997 -0.06431568
-0.07094862 -0.10142396 0.07610706 -0.010330716 -0.0826928 0.04950372 -0.09098098 0.054900665
0.08716441 0.0010630833 0.057403933 0.024370922 -0.0583037 0.04693091 -0.10906124 0.09851524
0.10497546 0.02708402 0.10717753 -0.09094465 -0.0841786 0.027230792 0.0488968 0.04807662
-0.05049589 0.08464347 0.024272282 0.00592204 0.0035746 -0.064147495 0.008658919 -0.009090329
-0.014560731 0.039739262 -0.120326094 -0.03874267 -0.06331011 -0.043588538 -0.012588607 0.0645352
0.050324578 -0.12359585 -0.03006968 -0.1146718 0.08947368 -0.071450464 -0.08766136 -0.061054364
-0.095103785 -0.068783514 0.05873168 0.092632316 0.06404446 -0.04562752 -0.04471224 -0.112336025
0.05846819 0.051903054 0.07750615 -0.058684815 -0.0843014 -0.031742647 -0.10686402 0.051626798
-0.12894733 0.04650623 0.074969575 0.09253783 -0.048808042 -0.080969274 0.08689051 -0.064562626
-0.10150166 -0.009546201 0.0787103 0.06555691 -0.031692084 0.009762959 0.07090713 0.00029692592
-0.0149539085 0.07422365 -0.022828849 -0.09197537 -0.12346325 0.08904114 0.06332304 0.03987812
0.050040625 0.050013438 0.09511128 -0.10311268 0.06904648 -0.029818064 0.08338764 -0.020987336
-0.07576454 -0.12781495 -0.09853745 -0.06620603 0.029701106 -0.115866125 -0.033774175 0.06555545
-0.052180916 -0.03128928 -0.0036433141 -0.043497153 -0.054931007 -0.004159715 -0.06609961 0.07805298
-0.094675265 -0.08531134 0.018336467 -0.025363596 -0.057601314 0.060678042 0.093765974 -0.12612632
0.014821086 -0.11916294 0.012938768 -0.01499456 0.018020064 0.07078524 0.06731001 0.04789612

fc2.bias f4 [10]
00000000: d694 8ebc 9852 e7bc 418d c6bd 3be8 ddbd
00000010: c035 ab3c d8c5 81bc c58c 47bd 5156 a8bd
00000020: 3af6 1f3c 6b64 b8bd
-0.017404955 -0.028237626 -0.09694911 -0.1083531 0.020899653 -0.01584141 -0.048718233 -0.082195885
0.009763295 -0.09003528
