classify-ckpt/model_epoch_54.pth (torch, 517704 bytes, 4 tensors)

fc1.weight f4 [80, 1600]
0	0x3ca0b95f	0.019619642
1	0xbc5ddf2d	-0.013541979
2	0xbc57a33d	-0.013161478
3	0xbcb0a06b	-0.021560868
4	0x3bd8e2e6	0.0066188453
5	0x3caa818b	0.020813724
6	0x3c591cd0	0.013251498
7	0xbc9b73da	-0.01897614
8	0xbbff18e7	-0.007784951
9	0x3bd034b8	0.006353941
10	0xbc8e1431	-0.017343612
11	0x3c9d9170	0.019234389
12	0xbc218521	-0.009858401
13	0x3cbd4a5b	0.023106745
14	0x3c93cc66	0.0180418
15	0xbcbde50f	-0.023180513
16	0xbc99a5af	-0.018755762
17	0x3ca2e9cb	0.019886872
18	0x3c87546a	0.016519744
19	0x3ce848d9	0.028355049
20	0x3b7bd599	0.0038426875
21	0x3c92769f	0.017878829
22	0xbc94f1df	-0.01818174
23	0x3cb6bc28	0.022306517
24	0x3a26a862	0.00063574885
25	0x3cc6f8f5	0.024288634
26	0xbc832ca7	-0.016012503
27	0xbc9bd778	-0.019023642
28	0xbc24940d	-0.010045064
29	0xbc90ff05	-0.017699728
30	0xbcb0fcd4	-0.021604933
31	0x3c9321e2	0.017960493
32	0x3c67f25d	0.014156905
33	0x3c045d6d	0.008078915
34	0xbbdb7028	-0.0066967197
35	0xba07459a	-0.0005160213
36	0x3c37e6e0	0.0112244785
37	0x3c8a098d	0.016850257
38	0x3be4b89a	0.006980014
39	0xbc003837	-0.007825903
40	0xbcca3a90	-0.024686128
41	0x3bc1f60d	0.005919224
42	0xbb834e47	-0.004007134
43	0x3c40c507	0.011765725
44	0x3b577b9a	0.0032880069
45	0xbcbf1fbb	-0.02333056
46	0x3c913748	0.017726555
47	0x3b6095e7	0.0034269036
48	0x3cb4a52a	0.022051413
49	0xbcddbbdb	-0.027067116
50	0x3c00c4de	0.007859437
51	0x3c62defa	0.013847107
52	0xbcd67126	-0.026177
53	0x3cb67505	0.022272596
54	0x3cdbd816	0.026836436
55	0xbb0d8fc0	-0.0021600574
56	0xbc98f963	-0.018673604
57	0xb9ef36cd	-0.00045626462
58	0x3ca641ff	0.020295141
59	0x3cfff953	0.031246817
60	0x3c839543	0.016062384
61	0xbc9dbeb8	-0.01925598
62	0xbc9f92ca	-0.019479174
63	0x3cafe6a3	0.02147228
64	0x3a3dfb2b	0.0007247205
65	0xbc7de4a7	-0.0154964095
66	0x3b9a8a13	0.0047161668
67	0x3c6d0572	0.01446663
68	0x39118733	0.00013878643
69	0x3b987a46	0.004653248
70	0x3c885124	0.016640253
71	0x3bc78980	0.0060893893
72	0xbc435a0d	-0.011923325
73	0x3ba453c0	0.0050148666
74	0x3b93aa40	0.0045063794
75	0x3ca8da02	0.020611767
76	0x3b8e3de7	0.0043408754
77	0x3c5bdc0d	0.013419163
78	0x3b3d9f1a	0.0028933943
79	0x3c7330b3	0.014843154
80	0xbce77da3	-0.02825815
81	0xbbfef196	-0.007780264
82	0xbcfe5a7c	-0.031049006
83	0xbc07be14	-0.008285064
84	0xbc7779d5	-0.015104731
85	0xba9abb55	-0.0011805097
86	0x3bec835a	0.0072178068
87	0xbcbad1bc	-0.022805087
88	0xbc08999b	-0.008337404
89	0x3b0eca23	0.0021787963
90	0x3c3625a4	0.011117373
91	0xbcdf23c6	-0.027238738
92	0xbcd36b2b	-0.025807938
93	0x3b2fa997	0.0026803964
94	0x3c90c890	0.01767376
95	0xbd02ea90	-0.031961977
96	0xbc6ceb8d	-0.014460457
97	0x3ce98b80	0.028508902
98	0xbb231b4f	-0.0024888103
99	0x3cb40fb8	0.021980152
100	0xbbe0e775	-0.0068635293
101	0xbc81c845	-0.015842566
102	0xbcfda794	-0.030963697
103	0x3b20ea87	0.0024553852
104	0xbc6e8d95	-0.014560123
105	0xbc8ad7e7	-0.016948653
106	0xbc01a6ce	-0.0079133045
107	0xbcb7d3bd	-0.022439832
108	0xbccbd1b6	-0.024880271
109	0xbcbac1a2	-0.02279741
110	0x3c5c1b0b	0.013434182
111	0xbc243797	-0.010023019
112	0x3c45d6ef	0.01207517
113	0xbc52f359	-0.012875401
114	0x3c98ea2e	0.018666353
115	0xbc491516	-0.012273094
116	0xbc4c0cf3	-0.012454259
117	0xbc9c50da	-0.019081522
118	0xbc34c9b7	-0.011034421
119	0xbbd89330	-0.006609343
120	0xba17b69a	-0.00057874026
121	0xbc47f4cd	-0.012204361
122	0x3cc9ae75	0.02461932
123	0xbc56c383	-0.013108137
124	0x3ce38f3f	0.027778266
125	0x3cc42fd7	0.023948593
126	0xbcb29cdb	-0.02180331
127	0xbbc0113a	-0.0058614286
128	0x3cbd3d9d	0.023100669
129	0xbcb1d019	-0.021705674
130	0xbc4165ad	-0.011804027
131	0xbcb58bca	-0.022161383
132	0x3c02d759	0.007985913
133	0x3d03e48b	0.032200377
134	0x3ca90e1d	0.020636613
135	0x3bc0cb69	0.0058836234
136	0x3cae1573	0.021250462
137	0x3cce15d5	0.025156895
138	0x3c104240	0.008804858
139	0xbaa240f8	-0.0012378981
140	0x3c0ff240	0.008785784
141	0x3d2bf440	0.04198098
142	0x3c86a5bb	0.016436448
143	0x3b43ad77	0.0029858032
144	0x3ca7c094	0.02047757
145	0x3c02c6d0	0.007981971
146	0x3cc23e95	0.023711482
147	0xbcdc838a	-0.026918191
148	0xbc2b462d	-0.010453743
149	0x389baf4e	7.423629e-05
150	0x3bd77779	0.0065755215
151	0x3c8688a7	0.016422583
152	0x3b58c75a	0.0033077807
153	0x3c38d723	0.011281761
154	0xbc621b08	-0.01380039
155	0xbca661e0	-0.020310342
156	0x3b55d640	0.0032628924
157	0x3c5af39a	0.013363743
158	0x3b75b733	0.0037493228
159	0xbb11b573	-0.0022233396
160	0x39932133	0.0002806276
161	0x3c4b9fbd	0.012428221
162	0xbc26fda0	-0.010192305
163	0xbc080dba	-0.008304054
164	0x3c25ac8d	0.01011194
165	0x3cc407cd	0.023929501
166	0xbc97c572	-0.018526766
167	0x3c3b8b8a	0.011446843
168	0xbc9af30f	-0.018914727
169	0xbc412ebb	-0.011790927
170	0xbbb867c2	-0.0056276033
171	0x3cb6b9eb	0.02230545
172	0xbc1d1db9	-0.009589606
173	0x3c0eb390	0.008709803
174	0xbc793517	-0.0152104115
175	0x3bdeaf6d	0.0067958147
176	0x3c096740	0.008386433
177	0x3bb56e20	0.0055368096
178	0x3ca0439a	0.019563485
179	0xbb30dabe	-0.002698585
180	0x3b3a6a5a	0.0028444738
181	0x3c4d4d27	0.012530602
182	0x3d04585c	0.03231083
183	0xbbcc3f80	-0.0062331557
184	0x3ca5d48e	0.020242956
185	0x3bc5734d	0.006025708
186	0x3c4e5eda	0.012595857
187	0xbce290b3	-0.027656889
188	0x3cc97b1a	0.024594832
189	0xbc42ce07	-0.011889941
190	0xbced40f8	-0.028961644
191	0x3aeb6ccd	0.0017961502
192	0xbca17d67	-0.019713117
193	0x3bdb6633	0.0066955327
194	0x3c75bb7b	0.014998312
195	0x3cadd392	0.021219049
196	0x3c917b8b	0.017759105
197	0x3cab59af	0.020916788
198	0xbc706910	-0.014673486
199	0x3a50559a	0.0007947326
200	0x3cc42622	0.023943964
201	0x3cc93ccd	0.024565125
202	0xbc80dfc7	-0.015731705
203	0x3c9a7ff8	0.018859848
204	0xbc669fdb	-0.014076198
205	0xbca2ed68	-0.019888595
206	0xba8e0b80	-0.0010837168
207	0xbc2baa63	-0.010477635
208	0x3c80b6cb	0.015712162
209	0xbce0cf94	-0.027442731
210	0x3c84fa7f	0.016232727
211	0xbb91b679	-0.0044468013
212	0xbbac4c4a	-0.005258118
213	0x3c4b10a7	0.012394107
214	0x3cbf0c26	0.023321223
215	0xb8780ccd	-5.913973e-05
216	0x3cbe2414	0.023210563
217	0x3c49c207	0.012314326
218	0x3c688497	0.014191768
219	0x3cd6cd53	0.026220953
220	0x3c9b1290	0.01892975
221	0x3b5f44fb	0.0034068215
222	0x3c9acc78	0.018896326
223	0x3c1025c3	0.008798066
224	0x3ce7f5b8	0.02831541
225	0xbbbabf8d	-0.005699104
226	0xba15399a	-0.0005692482
227	0x3c97e43c	0.018541448
228	0x3ca4b8dd	0.020107681
229	0xbc82d3ac	-0.015970074
230	0x3c250223	0.01007131
231	0xbc908d83	-0.017645603
232	0xbb476633	-0.0030425906
233	0xbb13a3a7	-0.0022527964
234	0x3ca1fff5	0.01977537
235	0x3cb00095	0.021484653
236	0x3c69b47d	0.014264223
237	0xbc6096e7	-0.013707853
238	0xbb885d80	-0.0041615367
239	0x3b0800c0	0.00207524
240	0xbb1de600	-0.002409339
241	0x3c960097	0.018310828
242	0xbb85eee7	-0.0040873173
243	0xbc13afbd	-0.009014067
244	0x3c9e78c7	0.0193447
245	0xbc76f413	-0.01507284
246	0xbcb693f2	-0.022287343
247	0x3c396243	0.011314931
248	0x3c4cc740	0.012498677
249	0xbcb9128c	-0.022591852
250	0x3cbd5fd7	0.023116989
251	0xba867289	-0.0010257523
252	0x3c95bacc	0.018277548
253	0xbc167130	-0.009182259
254	0x3c926401	0.017869951
255	0x3b385fae	0.0028133201

fc1.bias f4 [80]
0	0xbb0e766c	-0.0021738065
1	0xbc81b96f	-0.015835492
2	0x3c94ff2f	0.018188087
3	0xbbd299d5	-0.0064270296
4	0x3c025c0b	0.007956515
5	0xbc253759	-0.010083997
6	0x3c15f578	0.009152763
7	0x3c4c1dce	0.012458278
8	0x3bfd4ac6	0.007729861
9	0x3b0c3e09	0.002139928
10	0x3ba4da18	0.0050308816
11	0x3cad4852	0.02115265
12	0xbb58ffaf	-0.0033111384
13	0xbc714d20	-0.014727861
14	0x3cc01dc6	0.023451697
15	0xbc4eb2a5	-0.012615834
16	0x3c7ca00c	0.0154190175
17	0x3c6ed5d1	0.014577345
18	0x3d025133	0.03181572
19	0x3a81d667	0.0009905816
20	0x3c9b7798	0.018977925
21	0xb9586e2d	-0.00020640409
22	0xbacd5500	-0.0015665591
23	0x3bab6dc1	0.0052315895
24	0xbc411ea4	-0.01178709
25	0xbb875069	-0.0041294587
26	0xbc64fe7d	-0.01397669
27	0x3b650fdb	0.0034952078
28	0x39502d36	0.00019853268
29	0x3cb4efe4	0.022087045
30	0x3ce42b79	0.02785276
31	0x3ca3cbb5	0.019994596
32	0x3b167250	0.002295632
33	0xbb5934fd	-0.0033143156
34	0x3c3c6172	0.011497842
35	0xbc12a1a8	-0.008949675
36	0x3c52613d	0.012840566
37	0x3beb685f	0.007184073
38	0x3cb90ee2	0.022590104
39	0xbc31d807	-0.010854728
40	0x3b938905	0.004502418
41	0xbcadfe15	-0.02123932
42	0x3c018383	0.00790489
43	0xbac0eafc	-0.0014718468
44	0xbcc2d482	-0.023782972
45	0x39ef5c19	0.0004565425
46	0x3b75d1d7	0.0037509107
47	0x3cd26c32	0.025686357
48	0xbb176cae	-0.002310555
49	0x3ce45e6a	0.027877051
50	0xbbaf6b94	-0.0053534005
51	0x3c77646e	0.015099628
52	0xbbf42868	-0.007451106
53	0x3ca5c92b	0.020237526
54	0xbc594e8c	-0.013263356
55	0x3c98f65d	0.018672163
56	0x3c8848ef	0.01663634
57	0xbc043340	-0.00806886
58	0xbcb9d9f7	-0.022686942
59	0x3b7fa68d	0.0039009184
60	0x3c0f9c63	0.008765313
61	0xbcb0f717	-0.021602197
62	0xbbf4c4c6	-0.0074697463
63	0xbaa7fea2	-0.0012816975
64	0xbc7838bb	-0.015150244
65	0x3cd00161	0.025391283
66	0x3c0cfebd	0.008605656
67	0xbb84e49c	-0.0040555727
68	0xbc8a837a	-0.016908396
69	0xbc0ed5e9	-0.008717992
70	0xbbb0159f	-0.005373671
71	0x3c8d9291	0.017281802
72	0x3c078bac	0.008273046
73	0x3ccb291e	0.02479988
74	0xbcad85a7	-0.021181894
75	0x3ca4ad89	0.02010228
76	0xbc69932a	-0.014256278
77	0xbbc8beb2	-0.0061262483
78	0xbcb84f74	-0.022498824
79	0x3b090488	0.0020907242

fc2.weight f4 [10, 80]
0	0xbcffa1e9	-0.031205134
1	0xbc5822e3	-0.013191911
2	0x3d461485	0.048359413
3	0x3d0ed97e	0.034875385
4	0x3c7a082d	0.015260738
5	0x3d452156	0.048127495
6	0x3d43e958	0.047829956
7	0xbd0a34d0	-0.033741772
8	0xbcb650c3	-0.022255307
9	0x3bdd429c	0.006752325
10	0xbd9226d3	-0.071363114
11	0xbdcdc06a	-0.10046466
12	0xbda37ff6	-0.07983391
13	0xbca9d373	-0.02073071
14	0xbdf63b33	-0.1202301
15	0xbdc370fa	-0.09543033
16	0x3d8fe00b	0.07025155
17	0x3db4ba96	0.08824651
18	0xbdfaa844	-0.12239125
19	0x3d4b66da	0.049658634
20	0xb6dac67a	-6.520012e-06
21	0xbddb1611	-0.10697568
22	0x3cc17eaa	0.023619968
23	0xbd8fe34a	-0.07025774
24	0x3da65257	0.08121174
25	0x3cf0b10f	0.029381303
26	0x3c35226b	0.011055569
27	0xbdacc2a0	-0.08435559
28	0x3d7b3198	0.061326593
29	0xbd89523b	-0.06705137
30	0xbdd9f78f	-0.10642921
31	0x3da63d36	0.08117144
32	0xbd7e9d52	-0.06216175
33	0xbd5ad693	-0.05342729
34	0xbd99fb14	-0.075185925
35	0x3d7d8e6e	0.06190341
36	0x3db6b180	0.08920574
37	0x3dafd8b1	0.085862525
38	0x3d6bca86	0.05756619
39	0xbde7fe8c	-0.11327848
40	0xbab727cd	-0.0013973654
41	0x3daa3b3c	0.08312079
42	0xbd80ad72	-0.06283082
43	0xbddd0084	-0.10791114
44	0x3c92e8ed	0.017933333
45	0xbd40d05e	-0.047073714
46	0x3d16e0c0	0.036835432
47	0xbd014654	-0.03156121
48	0x3d174fc7	0.036941316
49	0xbd1f3375	-0.038867433
50	0xbc9895f3	-0.018626189
51	0xbd1a8bb9	-0.037730906
52	0xbdc13ac6	-0.09435038
53	0xbd240eb6	-0.040053092
54	0xbd923a3c	-0.071400136
55	0xbcb93857	-0.022609873
56	0xbd458abc	-0.04822801
57	0xbd3034c7	-0.043019082
58	0x3da6b5e9	0.08140165
59	0xbdc8adef	-0.097988
60	0x3d86602e	0.065613136
61	0xbc4cc29b	-0.012497569
62	0xbd8eb731	-0.06968535
63	0xbde6be1e	-0.11266731
64	0x3d0b95fe	0.03407859
65	0x3d0ad132	0.03389091
66	0x3d6cb7d5	0.057792503
67	0x3ddb37d5	0.107040085
68	0xbde6c0ed	-0.112672664
69	0xbd799ad5	-0.060938675
70	0x3dab6149	0.08368165
71	0xbda4c93f	-0.08046197
72	0x3d85c515	0.06531731
73	0x3d144c4e	0.036205582
74	0x3db499a8	0.0881837
75	0x3da1ac6a	0.078942135
76	0x3dbdc977	0.09266942
77	0xbd07ff32	-0.033202358
78	0xbd0c8419	-0.034305666
79	0x3be85c32	0.0070910687
80	0x3d7fff03	0.062499058
81	0x3c30618c	0.0107654445
82	0x3d19d367	0.037555125
83	0xbdb4d95b	-0.0883052
84	0x3dc6fcba	0.097161725
85	0xbdc4bbbf	-0.09606122
86	0x3cd7680f	0.026294736
87	0xbde58c9d	-0.112084605
88	0xbd41fa59	-0.04735789
89	0xbddd52b9	-0.10806794
90	0xbd730b80	-0.05933714
91	0xbdf18c80	-0.117943764
92	0xbd26f539	-0.040761206
93	0xbdaa3f20	-0.083128214
94	0x3c1fedd0	0.009761289
95	0xbd771dac	-0.06033103
96	0x3d6525fc	0.055944428
97	0xbde169b6	-0.11006491
98	0x3aa5f29b	0.0012660803
99	0x3cb38fdf	0.021919189
100	0xbcf3a397	-0.029741092
101	0xbd0a8ffa	-0.033828713
102	0xbdc026b1	-0.0938238
103	0x3db1dd1f	0.086847536
104	0x3d6bb79c	0.05754815
105	0xbdb47585	-0.088114776
106	0xbc57231e	-0.013130931
107	0xbd178f5b	-0.03700195
108	0x3d9420a9	0.07232792
109	0xbd4fd8ec	-0.050743982
110	0xbd768f7b	-0.060195427
111	0x3d7cda36	0.06173154
112	0xbdffbb35	-0.12486879
113	0xbd516458	-0.051121086
114	0xbc025857	-0.007955632
115	0x3c70f57f	0.014706968
116	0xbdb20026	-0.086914346
117	0x3d82639f	0.063666575
118	0x3da09661	0.078411825
119	0xbd980bb0	-0.07424104
120	0xbc8de59c	-0.0173214
121	0xbd86527e	-0.06558703
122	0x3da91448	0.082558215
123	0xbdb354ff	-0.08756446
124	0xbd761a7a	-0.060083844
125	0x3d583c96	0.052792154
126	0xbd1ce806	-0.038307212
127	0xbd81ce12	-0.06338133
128	0xbd914736	-0.070936605
129	0xbdce3cc8	-0.10070187
130	0x3d9ba66f	0.07600104
131	0xbc19de76	-0.009391418
132	0xbda8ad03	-0.08236124
133	0x3d4b0491	0.0495649
134	0xbdb9ef53	-0.090788506
135	0x3d5fdeef	0.054655965
136	0x3db27bfa	0.08715053
137	0x3aa491fe	0.0012555716
138	0x3d6bd0c4	0.05757214
139	0x3cc7a587	0.024370922
140	0xbd6b023e	-0.057375185
141	0x3d4409a0	0.04786074
142	0xbdde868a	-0.10865505
143	0x3dc9c25c	0.09851524
144	0x3dd6c5ca	0.10486944
145	0x3ce52544	0.027971871
146	0x3ddb4850	0.10707152
147	0xbdba4130	-0.09094465
148	0xbdac00e9	-0.08398611
149	0x3cdd5eae	0.027022686
150	0x3d4bee1f	0.049787637
151	0x3d44dd71	0.048062745
152	0xbd505c7d	-0.050869454
153	0x3dad21f8	0.08453745
154	0x3ccdf270	0.025140017
155	0x3bdfc9ff	0.0068294997
156	0x3b6b0c0e	0.003586534
157	0xbd82d74d	-0.063887216
158	0x3c093a2d	0.008375687
159	0xbc113dbf	-0.008864819
160	0xbc5ea800	-0.013589859
161	0x3d26bef7	0.040709462
162	0xbdf47092	-0.119355336
163	0xbd1b910d	-0.037980128
164	0xbd81686a	-0.063187435
165	0xbd2ec706	-0.042670272
166	0xbc3e6af1	-0.0116221765
167	0x3d861d13	0.06548514
168	0x3d520e3b	0.051283102
169	0xbdfb29c2	-0.12263824
170	0xbcee638d	-0.029100204
171	0xbdea99aa	-0.1145509
172	0x3db939da	0.090442374
173	0xbd92549f	-0.071450464
174	0xbdb18b11	-0.08669103
175	0xbd761b4c	-0.060084626
176	0xbdc0c8ab	-0.094132744
177	0xbd8b14ec	-0.067911
178	0x3d748874	0.059700444
179	0x3dbfaccf	0.093591325
180	0x3d852625	0.06501416
181	0xbd36f3dd	-0.04466616
182	0xbd37242f	-0.04471224
183	0xbde41354	-0.11136499
184	0x3d737355	0.05943616
185	0x3d588c86	0.05286839
186	0x3da0b7cb	0.07847556
187	0xbd6c6b78	-0.057719678
188	0xbdaaa909	-0.08333022
189	0xbcfc17d7	-0.030773086
190	0xbdda98ce	-0.106736764
191	0x3d576bb7	0.05259296
192	0xbe03100e	-0.12799093
193	0x3d3e7d51	0.04650623
194	0x3d9b8675	0.07594005
195	0x3dbd8479	0.09253783
196	0xbd460121	-0.04834092
197	0xbda3d74c	-0.08000049
198	0x3db3f04b	0.087860666
199	0xbd823e94	-0.06359592
200	0xbdcde462	-0.10053326
201	0xbc1fb50d	-0.009747756
202	0x3da17241	0.0788312
203	0x3d867954	0.0656611
204	0xbd01cf8f	-0.031692084
205	0x3c2fd797	0.010732553
206	0x3d9333b6	0.071875975
207	0x3aa4bea8	0.0012569027
208	0xbc72e62f	-0.014825388
209	0x3d99bbb0	0.07506502
210	0xbcb31071	-0.021858426
211	0xbdba6a74	-0.091023356
212	0xbdfaec1e	-0.12252067
213	0x3db85761	0.09001041
214	0x3d83a7b3	0.064284705
215	0x3d274d47	0.04084518
216	0x3d50eff7	0.0510101
217	0x3d50d3ed	0.05098336
218	0x3dc4c657	0.09608143
219	0xbdd32cbe	-0.10311268
220	0x3d8f5e04	0.07000354
221	0xbced5664	-0.028971858
222	0x3dacbce9	0.08434469
223	0xbcabeda2	-0.020987336
224	0xbd992da2	-0.07479407
225	0xbe022033	-0.12707596
226	0xbdc7d160	-0.09756732
227	0xbd879707	-0.06620603
228	0x3cfb392f	0.030666916
229	0xbdeb51cf	-0.11490213
230	0xbd066c56	-0.03281816
231	0x3d883c92	0.06652178
232	0xbd51c96f	-0.051217493
233	0xbcf85e96	-0.03031854
234	0xbb45bc34	-0.0030171992
235	0xbd2ec03b	-0.042663794
236	0xbd60793f	-0.05480313
237	0xbb515f8d	-0.0031947822
238	0xbd856322	-0.06513049
239	0x3da1c43e	0.07898758
240	0xbdbfe7c4	-0.09370378
241	0xbdacba5f	-0.08433985
242	0x3c9e2bb8	0.019307956
243	0xbcc7efd4	-0.024406351
244	0xbd6bedd4	-0.057599857
245	0x3d7b3d8f	0.061338004
246	0x3dc20570	0.09473693
247	0xbe00370e	-0.12521002
248	0x3c8133de	0.015771803
249	0xbdf22329	-0.118231125
250	0x3c63e706	0.013910061
251	0xbc75a5c2	-0.014993133
252	0x3c9b92a1	0.018990817
253	0x3d90f7da	0.07078524
254	0x3d8bd71c	0.06828138
255	0x3d4828f5	0.048867185

fc2.bias f4 [10]
0	0xbc869f9e	-0.016433533
1	0xbce76fb5	-0.028251508
2	0xbdc49302	-0.09598352
3	0xbddbeb64	-0.107382566
4	0x3caab57e	0.020838495
5	0xbc73a21c	-0.014870193
6	0xbd4392a6	-0.047747277
7	0xbda659ec	-0.0812262
8	0x3c2fde19	0.010734105
9	0xbdb668e9	-0.08906729
