classify-ckpt/model_epoch_17.pth (torch, 517704 bytes, 4 tensors)

fc1.weight f4 [80, 1600]
000000 5f b9 a0 3c 2d df 5d bc 3d a3 57 bc 6b a0 b0 bc
       0.019619642 -0.013541979 -0.013161478 -0.021560868
000010 ab b4 a6 3b 8b 81 aa 3c d0 1c 59 3c da 73 9b bc
       0.0050874553 0.020813724 0.013251498 -0.01897614
000020 e7 18 ff bb 47 b5 06 3c c9 4c 8c bc 70 91 9d 3c
       -0.007784951 0.008221931 -0.017126458 0.019234389
000030 27 3e 0f bc 5b 4a bd 3c a6 d3 96 3c 0f e5 bd bc
       -0.008742846 0.023106745 0.018411469 -0.023180513
000040 af a5 99 bc cb e9 a2 3c 6a 54 87 3c 66 3e b1 3c
       -0.018755762 0.019886872 0.016519744 0.0216362
000050 44 b4 33 bb 9f 76 92 3c df f1 94 bc 28 bc b6 3c
       -0.002742068 0.017878829 -0.01818174 0.022306517
000060 83 c9 6a ba f5 f8 c6 3c a7 2c 83 bc 85 ff 94 bc
       -0.0008956419 0.024288634 -0.016012503 -0.018188247
000070 0d 94 24 bc c0 3f 41 bc 6c 35 af bc e2 21 93 3c
       -0.010045064 -0.011794984 -0.021387778 0.017960493
000080 5d f2 67 3c 6d 5d 04 3c 23 53 cf bb 9a 45 07 ba
       0.014156905 0.008078915 -0.0063270493 -0.0005160213
000090 e0 e6 37 3c 8d 09 8a 3c 9a b8 e4 3b 37 38 00 bc
       0.0112244785 0.016850257 0.006980014 -0.007825903
0000a0 90 3a ca bc 0d f6 c1 3b 47 4e 83 bb 07 c5 40 3c
       -0.024686128 0.005919224 -0.004007134 0.011765725
0000b0 43 3e e6 3a bb 1f bf bc 48 37 91 3c e7 95 60 3b
       0.0017566163 -0.02333056 0.017726555 0.0034269036
0000c0 2a a5 b4 3c 66 6e ce bc ad 53 04 3c fa de 62 3c
       0.022051413 -0.025199126 0.0080765905 0.013847107
0000d0 ab 4d cd bc 05 75 b6 3c 56 df de 3c c0 8f 0d bb
       -0.025061449 0.022272596 0.027206104 -0.0021600574
0000e0 63 f9 98 bc cd 36 ef b9 2a e3 5e 3c 7f 58 c9 3c
       -0.018673604 -0.00045626462 0.013603965 0.024578331
0000f0 10 48 1b 3c b8 be 9d bc ca 92 9f bc a3 e6 af 3c
       0.00947763 -0.01925598 -0.019479174 0.02147228
000100 bb 76 53 ba a7 e4 7d bc 13 8a 9a 3b 59 b5 7a 3c
       -0.00080667034 -0.0154964095 0.0047161668 0.015302026
000110 33 87 11 39 6b fb 2c 3c 8c 18 8a 3c 80 89 c7 3b
       0.00013878643 0.01055799 0.016857408 0.0060893893
000120 0d 5a 43 bc c0 53 a4 3b 45 c7 9f 3b 02 da a8 3c
       -0.011923325 0.0050148666 0.0048760497 0.020611767
000130 e7 3d 8e 3b 0d dc 5b 3c 1a 9f 3d 3b b3 30 73 3c
       0.0043408754 0.013419163 0.0028933943 0.014843154
000140 3b b6 e5 bc f7 d3 f7 bb 14 93 fc bc 45 2f 04 bc
       -0.028040996 -0.00756311 -0.030831851 -0.008067911
000150 79 48 88 bc b5 89 7c ba f9 a0 f3 3b 54 0a b9 bc
       -0.01663612 -0.0009633557 0.007434961 -0.022587933
000160 cc 0a 05 bc 92 2c 85 3b 73 b4 39 3c 5e 5c dd bc
       -0.00812025 0.004064151 0.011334526 -0.027021583
000170 87 f3 c8 bc d4 e4 3d 3b 48 3b 91 3c dc 06 02 bd
       -0.024530185 0.0028975504 0.017728463 -0.031744823
000180 be 5c 69 bc 80 bc b2 3c 12 e0 14 bb c9 dd 7a 3c
       -0.014243303 0.0218184 -0.0022716564 0.015311667
000190 d6 c9 d9 bb c4 a9 b7 bc 2c e0 fb bc c4 25 2f 3b
       -0.006646375 -0.022419818 -0.030746542 0.002672539
0001a0 48 a8 6d bc 7f 10 89 bc fe 2f fc bb 06 63 af bc
       -0.014505453 -0.016731499 -0.007696151 -0.021409523
0001b0 4e 0a ca bc 2e 43 8a bc da a9 5f 3c c8 a8 20 bc
       -0.024663117 -0.016877737 0.013651336 -0.009805866
0001c0 be 65 49 3c 8a 64 4f bc 6e f1 9b 3c 47 86 45 bc
       0.012292324 -0.012658248 0.019036021 -0.01205594
0001d0 24 7e 48 bc 72 89 9a bc e8 3a 31 bc 91 75 d1 bb
       -0.0122371055 -0.018864367 -0.010817267 -0.006392189
0001e0 9a b6 17 ba cd f4 47 bc 75 ae c9 3c 83 c3 56 bc
       -0.00057874026 -0.012204361 0.02461932 -0.013108137
0001f0 b0 03 d7 3c d7 2f c4 3c db 9c b2 bc 3a 11 c0 bb
       0.026246876 0.023948593 -0.02180331 -0.0058614286
000200 9d 3d bd 3c a4 82 a2 bc de d6 3d bc ca 8b b5 bc
       0.023100669 -0.019837685 -0.011586873 -0.022161383
000210 53 1e 15 3c 7a 3d fb 3c 5d 15 ac 3c f3 9c 8e 3b
       0.009101468 0.030668963 0.02100628 0.004352206
000220 73 15 ae 3c 6b 45 97 3c 40 42 10 3c c5 89 01 bc
       0.021250462 0.018465718 0.008804858 -0.007906382
000230 40 f2 0f 3c a4 fb 10 3d bb a5 86 3c 6f e2 5b 3b
       0.008785784 0.035396233 0.016436448 0.0033551713
000240 05 35 9b 3c 0a d4 08 3c 95 3e c2 3c 97 ab d5 bc
       0.01894618 0.008351335 0.023711482 -0.026082797
000250 2d 46 2b bc 4c eb c3 3b 18 95 de 3b a7 88 86 3c
       -0.010453743 0.0059789773 0.0067926757 0.016422583
000260 5a c7 58 3b 23 d7 38 3c 86 0c 5c bc e0 61 a6 bc
       0.0033077807 0.011281761 -0.01343072 -0.020310342
000270 40 d6 55 3b 9a f3 5a 3c 33 b7 75 3b 73 b5 11 bb
       0.0032628924 0.013363743 0.0037493228 -0.0022233396
000280 33 21 93 39 bd 9f 4b 3c a0 fd 26 bc ba 0d 08 bc
       0.0002806276 0.012428221 -0.010192305 -0.008304054
000290 6e 95 0c 3c cd 07 c4 3c 72 c5 97 bc 8a 8b 3b 3c
       0.008580549 0.023929501 -0.018526766 0.011446843
0002a0 0f f3 9a bc d0 93 22 bc 23 4a b1 bb eb b9 b6 3c
       -0.018914727 -0.009922937 -0.005410449 0.02230545
0002b0 f4 34 36 bc 90 b3 0e 3c 95 26 73 bc 6d af de 3b
       -0.011121023 0.008709803 -0.014840742 0.0067958147
0002c0 14 9c c6 3b 20 6e b5 3b 9a 43 a0 3c 55 78 19 bc
       0.0060610864 0.0055368096 0.019563485 -0.009367068
0002d0 5a 6a 3a 3b 27 4d 4d 3c 76 db 05 3d 80 3f cc bb
       0.0028444738 0.012530602 0.032679997 -0.0062331557
0002e0 ff 48 99 3c 4d 73 c5 3b 14 6c 54 3c c0 b8 db bc
       0.018711565 0.006025708 0.012965221 -0.026821494
0002f0 1a 7b c9 3c 7c 1f c4 bb 90 79 eb bc cd 6c eb 3a
       0.024594832 -0.0059851985 -0.028744489 0.0017961502
000300 67 7d a1 bc 33 66 db 3b fd c9 7b 3c 92 d3 ad 3c
       -0.019713117 0.0066955327 0.015367982 0.021219049
000310 8b 7b 91 3c af 59 ab 3c 10 69 70 bc 9a 55 50 3a
       0.017759105 0.020916788 -0.014673486 0.0007947326
000320 22 26 c4 3c cd 3c c9 3c c7 df 80 bc f8 7f 9a 3c
       0.023943964 0.024565125 -0.015731705 0.018859848
000330 fa b6 7f bc 68 ed a2 bc 80 0b 8e ba 63 aa 2b bc
       -0.01560759 -0.019888595 -0.0010837168 -0.010477635
000340 cb b6 80 3c 1f 82 d1 bc e7 c1 86 3c ef e4 c3 bb
       0.015712162 -0.025574742 0.016449882 -0.0059782187
000350 54 be 87 bb a7 10 4b 3c 66 13 c2 3c cd 0c 78 b8
       -0.004142562 0.012394107 0.02369089 -5.913973e-05
000360 aa 53 87 3c cc aa 30 3c 97 84 68 3c 7f 2c a0 3c
       0.016519386 0.010782909 0.014191768 0.019552467
000370 90 12 9b 3c f4 79 77 3b 7a b6 49 3c c3 25 10 3c
       0.01892975 0.0037761899 0.012311572 0.008798066
000380 29 6a db 3c 8d bf ba bb 9a 39 15 ba db ea 9a 3c
       0.02678402 -0.005699104 -0.0005692482 0.018910816
000390 dd b8 a4 3c 10 e9 24 bc f2 90 28 3c 83 8d 90 bc
       0.020107681 -0.010065332 0.010288464 -0.017645603
0003a0 33 66 47 bb a7 a3 13 bb 35 07 a5 3c 95 00 b0 3c
       -0.0030425906 -0.0022527964 0.020145038 0.021484653
0003b0 7d b4 69 3c e7 96 60 bc 80 5d 88 bb c0 00 08 3b
       0.014264223 -0.013707853 -0.0041615367 0.00207524
0003c0 00 e6 1d bb 97 00 96 3c e7 ee 85 bb bd af 13 bc
       -0.002409339 0.018310828 -0.0040873173 -0.009014067
0003d0 38 ed 91 3c 13 f4 76 bc f2 93 b6 bc 43 62 39 3c
       0.01781331 -0.01507284 -0.022287343 0.011314931
0003e0 40 c7 4c 3c 17 c5 a9 bc 38 d4 b0 3c 1d f8 53 ba
       0.012498677 -0.020723863 0.021585569 -0.0008085983
0003f0 47 de 9e 3c 30 71 16 bc 41 6b 95 3c a7 23 7e bb
       0.0193931 -0.009182259 0.01823962 -0.0038778575

fc1.bias f4 [80]
000000 23 e4 0a bb b8 2a 91 bc 1b 72 95 3c 1d 85 f5 bb
       -0.002119311 -0.017720565 0.018242886 -0.007492675
000010 16 16 04 3c de 38 30 bc e2 dd 10 3c cc af 06 3c
       0.008061906 -0.010755746 0.0088419635 0.008220624
000020 f8 28 91 3a a2 fc 82 bb 2b a5 a6 3b 6b 23 ac 3c
       0.0011074832 -0.0039974013 0.0050856075 0.021012982
000030 63 94 74 bb 20 4d 71 bc e3 aa bf 3c 11 cd 4d bc
       -0.003731989 -0.014727861 0.023396915 -0.012561099
000040 7d af 7b 3c 52 1f 5c 3c f9 cd 00 3d 37 64 75 3a
       0.015361664 0.013435202 0.03144643 0.00093609415
000050 61 ea 9b 3c 26 21 68 bb 00 55 cd ba 22 4d 9f 3b
       0.019032659 -0.0035420149 -0.0015665591 0.00486149
000060 3d 04 42 bc 0b 85 85 bb f1 18 64 bc f9 4f d1 3a
       -0.011841831 -0.004074698 -0.013921962 0.0015969268
000070 26 36 33 bb 29 7d b4 3c c6 cb e3 3c ad c3 a0 3c
       -0.0027345507 0.022032337 0.027807128 0.019624555
000080 61 99 4c bb fd 34 59 bb d3 77 3b 3c a8 a1 12 bc
       -0.003121935 -0.0033143156 0.011442143 -0.008949675
000090 18 1d 53 3c 50 9d e9 3b 62 9b b8 3c c9 f4 30 bc
       0.012885354 0.007129349 0.02253503 -0.010800549
0000a0 d8 69 87 3b e3 a3 af bc b3 39 00 3c 75 91 b3 ba
       0.0041324906 -0.021440452 0.007826257 -0.0013699966
0000b0 82 d4 c2 bc ef 41 b5 38 44 58 45 3b 2c 70 a7 3c
       -0.023782972 8.643034e-05 0.0030112425 0.02043923
0000c0 f0 5e 14 bb 31 52 db 3c 8d 38 b1 bb c0 57 33 3c
       -0.0022639595 0.02677259 -0.0054083527 0.010946214
0000d0 1c 0b 0b bc 45 41 a6 3c b6 33 54 bc f4 d2 93 3c
       -0.008486535 0.020294795 -0.012951782 0.018044926
0000e0 0d c2 8b 3c bb 4d 03 bc 52 67 b9 bc 8d a6 7f 3b
       0.017060304 -0.008014138 -0.022632275 0.0039009184
0000f0 49 48 31 3b ab 29 bc bc 5a 12 56 bc a2 fe a7 ba
       0.0027051142 -0.022969088 -0.013065899 -0.0012816975
000100 7c 1e 79 bc 80 40 bf 3c 13 19 0c 3c 9c e4 84 bb
       -0.015205022 0.023346186 0.0085509 -0.0040555727
000110 b6 10 8a bc 64 ba 0f bc ff e2 37 bc bd 8a 8a 3c
       -0.016853672 -0.008772466 -0.011223554 0.016911859
000120 11 2e c6 3b 46 15 c8 3c 20 e3 ab bc 46 c5 9b 3c
       0.006047972 0.024424206 -0.020982325 0.019014966
000130 35 f8 68 bc 6f f3 c6 bb 1a a2 be bc 53 96 0c 3b
       -0.014219333 -0.0060715 -0.023270655 0.0021451905

fc2.weight f4 [10, 80]
000000 fc 4e c8 bc 28 fa d2 bb f5 bd 61 3d a6 67 2a 3d
       -0.024451725 -0.0064385124 0.055112798 0.041602753
000010 6a f8 90 3c 35 bc 60 3d 50 92 5f 3d 3e 78 dd bc
       0.017696578 0.05486699 0.054582894 -0.027034875
000020 74 7f 7e bc 88 52 5c 3c 2c 52 84 bd f9 dc c8 bd
       -0.015533317 0.013447411 -0.064609855 -0.09807772
000030 a2 ab 95 bd 73 d3 a9 bc 89 66 e8 bd 74 9c b5 bd
       -0.07308127 -0.02073071 -0.11347682 -0.08867732
000040 c6 b4 9d 3d f6 85 c2 3d 21 d4 ec bd d9 0e 67 3d
       0.077004954 0.09498207 -0.11563898 0.056410644
000050 d8 12 dd 3b f8 4e cd bd aa 7e c1 3c 8f 0e 82 bd
       0.006746631 -0.10024828 0.023619968 -0.06350433
000060 ce 26 b4 3d 26 01 14 3d a4 e3 91 3c 58 ee 9e bd
       0.08796464 0.036133908 0.017808743 -0.07760304
000070 89 6d 8b 3d 39 fb 76 bd e8 e0 d4 bd 23 11 b4 3d
       0.068080015 -0.06029818 -0.1039446 0.08792331
000080 b0 00 63 bd 93 d6 5a bd 5b 26 8c bd 6e 8e 7d 3d
       -0.055420578 -0.05342729 -0.06843253 0.06190341
000090 c9 db c0 3d 4b ad bd 3d f7 b9 83 3d 02 2a da bd
       0.09416921 0.09261569 0.06431954 -0.106525436
0000a0 4c 7a af 3b 83 ea b7 3d c0 8d 77 bd e2 8f d8 bd
       0.005355155 0.089802764 -0.060437918 -0.105743185
0000b0 ed e8 92 3c 7c 27 25 bd a4 89 32 3d 62 8f cb bc
       0.017933333 -0.04032086 0.043588296 -0.024848644
0000c0 d9 97 21 3d 3c 8b 03 bd 41 86 42 bc 44 dc fd bc
       0.039451454 -0.032115206 -0.011872829 -0.03098882
0000d0 84 69 b3 bd fa 65 08 bd bd 65 84 bd 18 e9 81 bc
       -0.0876036 -0.033300377 -0.064647175 -0.015858218
0000e0 e4 e1 29 bd 9d 8b 14 bd 9b 8a b4 3d ef ad c8 bd
       -0.04147519 -0.036265958 0.088154994 -0.097988
0000f0 80 23 94 3d 61 07 bd bb 5b e8 80 bd 1e be e6 bd
       0.072333336 -0.005768702 -0.06294318 -0.11266731
000100 62 3f 27 3d 52 36 26 3d 96 30 84 3d d5 37 db 3d
       0.04083193 0.040579148 0.064545795 0.107040085
000110 75 ec d8 bd de f1 5d bd 84 18 b9 3d 37 f5 96 bd
       -0.105919756 -0.05418574 0.09037879 -0.0737099
000120 eb 96 93 3d c9 f5 2f 3d 61 4d bf 3d dc 75 af 3d
       0.0720652 0.04295901 0.09340931 0.08567402
000130 88 e8 c2 3d 93 ad d8 bc 59 b6 e1 bc a5 cf 62 3c
       0.09517008 -0.026449954 -0.02755277 0.013843452
000140 a6 c5 7f 3d 05 47 37 3c 04 9a 19 3d a6 a2 a7 bd
       0.06244435 0.011186366 0.037500396 -0.081853196
000150 82 44 c7 3d da 10 bd bd 1e 0d d0 3c a3 f2 db bd
       0.09729864 -0.0923173 0.02539688 -0.10739639
000160 00 dd 26 bd 0c d7 cf bd 5b 52 71 bd 1f 47 f1 bd
       -0.040738106 -0.10148439 -0.05891643 -0.117811434
000170 9a 2e 27 bd 20 3f aa bd c2 dc 19 3c 0e 57 77 bd
       -0.040815927 -0.083128214 0.009391012 -0.060385756
000180 98 ec 64 3d 41 b0 d3 bd ae d1 6a 3a f7 34 ac 3c
       0.055889696 -0.10336352 0.00089576363 0.02102135
000190 57 16 f4 bc 58 aa f2 bc b1 26 c0 bd 72 c0 b1 3d
       -0.029795809 -0.029622242 -0.0938238 0.08679284
0001a0 5b 33 6a 3d ee ee b1 bd 9e 08 58 bc 9f f8 10 bd
       0.057177883 -0.0868815 -0.013185648 -0.035393354
0001b0 fc 03 94 3d 31 5d 51 bd 64 fb 75 bd 27 66 78 3d
       0.072273225 -0.051114265 -0.060054198 0.060644295
0001c0 b2 f4 f1 bd 58 64 51 bd da 3d 03 bc 7f f5 70 3c
       -0.1181425 -0.051121086 -0.008010352 0.014706968
0001d0 f2 c1 a7 bd 80 a1 81 3d 43 d4 9f 3d f5 2e 97 bd
       -0.08191289 0.06329632 0.078041576 -0.07382003
0001e0 29 ee 90 bc f8 1e 71 bd f8 59 a9 3d 22 19 b3 bd
       -0.017691689 -0.058867425 0.08269113 -0.08745028
0001f0 7a 1a 76 bd 51 b8 56 3d 67 21 1d bd b9 5a 68 bd
       -0.060083844 0.05242187 -0.038361933 -0.056727145
000200 e3 fb 90 bd 10 3b c6 bd c1 89 9b 3d 1a f6 2f bb
       -0.070792936 -0.09679234 0.07594634 -0.0026849569
000210 60 85 a0 bd 4e 80 49 3d 79 cc b6 bd a8 5a 5e 3d
       -0.07837939 0.049194627 -0.08925719 0.054285675
000220 db b9 b1 3d 6e 66 9d 3a 61 97 6b 3d 87 a5 c7 3c
       0.08678027 0.0012008676 0.057517413 0.024370922
000230 fd 93 4f bd 22 7a 5f 3d 24 f1 d2 bd 5c c2 c9 3d
       -0.050678242 0.054559834 -0.102999 0.09851524
000240 1c a9 d6 3d 85 be 0d 3d 31 86 da 3d 30 41 ba bd
       0.10481474 0.03460552 0.10670126 -0.09094465
000250 3a 15 a8 bd e9 eb dc 3c c5 1c 67 3d 2e 59 43 3d
       -0.08207174 0.02696796 0.05642392 0.04769247
000260 d5 cf 4a bd 4b 05 ad 3d 22 a4 fb 3c 85 14 5d 3c
       -0.04951461 0.08448275 0.030717913 0.013493662
000270 a7 67 74 3b 2e f0 78 bd d9 d3 ee 3b f9 4b f0 bb
       0.0037293227 -0.06077593 0.007288438 -0.0073332754
000280 de 14 e0 bb 6f 61 42 3d 4b 9d e6 bd cf b5 00 bd
       -0.006838425 0.0474562 -0.1126047 -0.031423386
000290 e0 3b 7c bd 85 58 13 bd cd 16 a0 bb ef e3 93 3d
       -0.06158054 -0.03597309 -0.0048855306 0.07221209
0002a0 67 a4 6d 3d 97 5f ed bd e6 1a b7 bc 0a 64 e7 bd
       0.058018114 -0.11590498 -0.022351693 -0.11298378
0002b0 08 0b c7 3d 9f 54 92 bd d0 b7 a3 bd cc 76 5a bd
       0.09718901 -0.071450464 -0.07994044 -0.05333595
0002c0 d3 f4 b2 bd 38 db 7a bd ce 15 88 3d fd 73 cd 3d
       -0.08738103 -0.06124422 0.06644784 0.10031889
0002d0 3a f8 92 3d fb 61 1b bd 2f 24 37 bd b7 3f d6 bd
       0.07176252 -0.03793524 -0.04471224 -0.104613714
0002e0 57 89 87 3d c7 28 74 3d ae 89 ae 3d 8f cd 50 bd
       0.06617992 0.0596092 0.08522354 -0.050977286
0002f0 08 d5 9c bd 25 ce c4 bc 72 3a d7 bd 23 07 73 3d
       -0.0765782 -0.024024079 -0.105091944 0.059332978
000300 76 54 f8 bd 51 7d 3e 3d 98 59 a9 3d 79 84 bd 3d
       -0.12125485 0.04650623 0.08269042 0.09253783
000310 a0 27 2d bd c3 05 96 bd c9 c2 c1 3d d1 dd 68 bd
       -0.042274117 -0.07325318 0.094609804 -0.056852166
000320 4d 13 c0 bd ae d9 8f bb 80 aa a4 3d 0d 57 89 3d
       -0.09378681 -0.004389963 0.08040333 0.06706057
000330 8f cf 01 bd 0b 32 8f 3c 0f 05 a1 3d 18 f1 02 3c
       -0.031692084 0.017479917 0.07862293 0.007992052
000340 e2 9b 57 bc 7b 87 a7 3d 5f 8a 77 bc ad a1 ac bd
       -0.013159724 0.08180138 -0.015108674 -0.08429275
000350 8f 33 ed bd d5 27 c6 3d ac 71 91 3d 1c e9 42 3d
       -0.115821 0.09675566 0.07101759 0.04758559
000360 06 93 6c 3d 11 79 6c 3d 4e 98 d2 3d be 2c d3 bd
       0.0577574 0.057732645 0.10282956 -0.10311268
000370 4d 28 9d 3d 25 f2 b6 bc 3f 88 ba 3d a2 ed ab bc
       0.076737024 -0.02233226 0.09108018 -0.020987336
000380 be 5a 8b bd 79 ef f6 bd f5 fe b9 bd 07 97 87 bd
       -0.06804417 -0.120573945 -0.09081832 -0.06620603
000390 80 35 19 3d d8 85 dd bd f7 b4 d5 bc 09 0b 96 3d
       0.037404537 -0.10816544 -0.026087267 0.073263235
0003a0 a2 2e 36 bd b5 11 c1 bc 44 2f 37 3b 9f 94 13 bd
       -0.044478066 -0.023568014 0.0027951756 -0.036030408
0003b0 ab ae 59 bd a9 d9 67 3b fb 24 6f bd 36 85 af 3d
       -0.053145092 0.0035377538 -0.058384877 0.0857033
0003c0 35 13 b2 bd ee e5 9e bd 71 7d d5 3c 2a ba 90 bc
       -0.0869507 -0.07758699 0.026060792 -0.017666895
0003d0 23 d0 6b bd 3f b1 82 3d 21 76 cb 3d d6 b7 f2 bd
       -0.05757154 0.06381463 0.09934641 -0.1185147
0003e0 c1 5b b8 3c e0 64 e4 bd 72 44 a9 3c 3f 33 75 bc
       0.02250469 -0.11152053 0.02066252 -0.014965831
0003f0 b4 5f c2 3c da f7 90 3d 66 ab 99 3d b3 cf 63 3d
       0.023727275 0.07078524 0.07503395 0.055618

fc2.bias f4 [10]
000000 a0 9c 1e bc 7c e2 e7 bc da c5 b6 bd 7c 18 ce bd
       -0.009680897 -0.028306238 -0.08924456 -0.10063264
000010 42 28 ab 3c 98 02 05 bc e7 eb 27 bd 23 ec 99 bd
       0.02089322 -0.008118294 -0.04099646 -0.07515743
000020 50 d2 64 3c 58 42 af bd
       0.013966158 -0.08557576
