classify-ckpt/model_epoch_72.pth (torch, 517704 bytes, 4 tensors)

fc1.weight f4 [80, 1600]
000000 5f b9 a0 3c 2d df 5d bc 3d a3 57 bc 6b a0 b0 bc
       0.019619642 -0.013541979 -0.013161478 -0.021560868
000010 22 9d d9 3b 8b 81 aa 3c d0 1c 59 3c da 73 9b bc
       0.006641046 0.020813724 0.013251498 -0.01897614
000020 e7 18 ff bb 72 81 cf 3b 31 14 8e bc 70 91 9d 3c
       -0.007784951 0.0063325698 -0.017343612 0.019234389
000030 21 85 21 bc 5b 4a bd 3c 24 bc 94 3c 0f e5 bd bc
       -0.009858401 0.023106745 0.018156119 -0.023180513
000040 af a5 99 bc cb e9 a2 3c 6a 54 87 3c 4a fa ed 3c
       -0.018755762 0.019886872 0.016519744 0.029050011
000050 8a a2 91 3b 9f 76 92 3c df f1 94 bc 28 bc b6 3c
       0.004444425 0.017878829 -0.01818174 0.022306517
000060 45 7a 2c 3a f5 f8 c6 3c a7 2c 83 bc 78 d7 9b bc
       0.0006579499 0.024288634 -0.016012503 -0.019023642
000070 0d 94 24 bc 02 8a 95 bc d4 fc b0 bc e2 21 93 3c
       -0.010045064 -0.018254284 -0.021604933 0.017960493
000080 5d f2 67 3c 6d 5d 04 3c 34 b1 d7 bb 9a 45 07 ba
       0.014156905 0.008078915 -0.0065824036 -0.0005160213
000090 e0 e6 37 3c 8d 09 8a 3c 9a b8 e4 3b 37 38 00 bc
       0.0112244785 0.016850257 0.006980014 -0.007825903
0000a0 90 3a ca bc 0d f6 c1 3b 47 4e 83 bb 07 c5 40 3c
       -0.024686128 0.005919224 -0.004007134 0.011765725
0000b0 13 f0 58 3b bb 1f bf bc 48 37 91 3c e7 95 60 3b
       0.003310208 -0.02333056 0.017726555 0.0034269036
0000c0 2a a5 b4 3c ac e8 dd bc de c4 00 3c fa de 62 3c
       0.022051413 -0.027088486 0.007859437 0.013847107
0000d0 26 71 d6 bc 05 75 b6 3c d4 c7 dc 3c c0 8f 0d bb
       -0.026177 0.022272596 0.026950754 -0.0021600574
0000e0 63 f9 98 bc cd 36 ef b9 63 c9 ab 3c be b8 02 3d
       -0.018673604 -0.00045626462 0.020970052 0.031914465
0000f0 32 83 88 3c b8 be 9d bc ca 92 9f bc a3 e6 af 3c
       0.016664121 -0.01925598 -0.019479174 0.02147228
000100 0e cd 43 3a a7 e4 7d bc 13 8a 9a 3b 72 05 6d 3c
       0.0007469215 -0.0154964095 0.0047161668 0.01446663
000110 33 87 11 39 4e 4e 86 3b 24 51 88 3c 80 89 c7 3b
       0.00013878643 0.00409869 0.016640253 0.0060893893
000120 0d 5a 43 bc c0 53 a4 3b 34 69 97 3b 02 da a8 3c
       -0.011923325 0.0050148666 0.0046206955 0.020611767
000130 e7 3d 8e 3b 0d dc 5b 3c 1a 9f 3d 3b b3 30 73 3c
       0.0043408754 0.013419163 0.0028933943 0.014843154
000140 a3 7d e7 bc 96 f1 fe bb 7c 5a fe bc 14 be 07 bc
       -0.02825815 -0.007780264 -0.031049006 -0.008285064
000150 b7 1c 77 bc 55 bb 9a ba 5a 83 ec 3b bc d1 ba bc
       -0.01508253 -0.0011805097 0.0072178068 -0.022805087
000160 9b 99 08 bc 97 63 0d 3b a4 25 36 3c c6 23 df bc
       -0.008337404 0.0021574253 0.011117373 -0.027238738
000170 2b 6b d3 bc 97 a9 2f 3b 4d b8 91 3c 90 ea 02 bd
       -0.025807938 0.0026803964 0.017788077 -0.031961977
000180 8d eb 6c bc e4 12 ef 3c 4f 1b 23 bb e1 87 b9 3c
       -0.014460457 0.029183812 -0.0024888103 0.0226478
000190 75 e7 e0 bb b0 b4 79 bc 94 a7 fd bc 87 ea 20 3b
       -0.0068635293 -0.015240833 -0.030963697 0.0024553852
0001a0 1c ae 6c bc e7 d7 8a bc ce a6 01 bc bd d3 b7 bc
       -0.014445808 -0.016948653 -0.0079133045 -0.022439832
0001b0 b6 d1 cb bc 9f 4c bf bc 0b 1b 5c 3c 97 37 24 bc
       -0.024880271 -0.023351965 0.013434182 -0.010023019
0001c0 ef d6 45 3c 59 f3 52 bc ec d9 99 3c 16 15 49 bc
       0.01207517 -0.012875401 0.018780671 -0.012273094
0001d0 f3 0c 4c bc da 50 9c bc b7 c9 34 bc 30 93 d8 bb
       -0.012454259 -0.019081522 -0.011034421 -0.006609343
0001e0 9a b6 17 ba cd f4 47 bc 75 ae c9 3c 83 c3 56 bc
       -0.00057874026 -0.012204361 0.02461932 -0.013108137
0001f0 ce bd e3 3c d7 2f c4 3c db 9c b2 bc 3a 11 c0 bb
       0.027800467 0.023948593 -0.02180331 -0.0058614286
000200 9d 3d bd 3c ea fc b1 bc ad 65 41 bc ca 8b b5 bc
       0.023100669 -0.021727044 -0.011804027 -0.022161383
000210 59 d7 02 3c d4 fb 03 3d db fd a9 3c b7 85 c1 3b
       0.007985913 0.032222584 0.02075093 0.0059058326
000220 73 15 ae 3c 39 9d d3 3c 40 42 10 3c c8 7c 15 ba
       0.021250462 0.025831806 0.008804858 -0.0005702493
000230 40 f2 0f 3c 38 6b 2e 3d bb a5 86 3c 52 2b 4b 3b
       0.008785784 0.04258272 0.016436448 0.0031001163
000240 23 ef a7 3c 46 a6 04 3c 95 3e c2 3c 8a 83 dc bc
       0.020499771 0.008096283 0.023711482 -0.026918191
000250 2d 46 2b bc ae d3 fb b9 79 77 d7 3b a7 88 86 3c
       -0.010453743 -0.00048032164 0.0065755215 0.016422583
000260 5a c7 58 3b 23 d7 38 3c 8e 3b 60 bc e0 61 a6 bc
       0.0033077807 0.011281761 -0.013686074 -0.020310342
000270 40 d6 55 3b 9a f3 5a 3c 33 b7 75 3b 73 b5 11 bb
       0.0032628924 0.013363743 0.0037493228 -0.0022233396
000280 33 21 93 39 bd 9f 4b 3c a0 fd 26 bc ba 0d 08 bc
       0.0002806276 0.012428221 -0.010192305 -0.008304054
000290 ab 09 26 3c cd 07 c4 3c 72 c5 97 bc 8a 8b 3b 3c
       0.010134141 0.023929501 -0.018526766 0.011446843
0002a0 0f f3 9a bc 5e 88 41 bc c2 67 b8 bb eb b9 b6 3c
       -0.018914727 -0.011812298 -0.0056276033 0.02230545
0002b0 92 c0 1c bc 90 b3 0e 3c 9d 55 77 bc 6d af de 3b
       -0.009567397 0.008709803 -0.015096095 0.0067958147
0002c0 68 c4 09 3c 20 6e b5 3b 9a 43 a0 3c 75 19 05 bb
       0.008408643 0.0055368096 0.019563485 -0.0020309363
0002d0 5a 6a 3a 3b 27 4d 4d 3c 3a d0 04 3d 80 3f cc bb
       0.0028444738 0.012530602 0.032425143 -0.0062331557
0002e0 1d 03 a6 3c 4d 73 c5 3b 50 3e 50 3c b3 90 e2 bc
       0.020265156 0.006025708 0.012710169 -0.027656889
0002f0 1a 7b c9 3c 02 e4 4b bc f8 40 ed bc cd 6c eb 3a
       0.024594832 -0.012444498 -0.028961644 0.0017961502
000300 67 7d a1 bc 33 66 db 3b f5 9a 77 3c 92 d3 ad 3c
       -0.019713117 0.0066955327 0.015112628 0.021219049
000310 8b 7b 91 3c af 59 ab 3c 10 69 70 bc 9a 55 50 3a
       0.017759105 0.020916788 -0.014673486 0.0007947326
000320 22 26 c4 3c cd 3c c9 3c c7 df 80 bc f8 7f 9a 3c
       0.023943964 0.024565125 -0.015731705 0.018859848
000330 bd 42 66 bc 68 ed a2 bc 80 0b 8e ba 63 aa 2b bc
       -0.014053998 -0.019888595 -0.0010837168 -0.010477635
000340 cb b6 80 3c 65 fc e0 bc 7f fa 84 3c 2b fc 90 bb
       0.015712162 -0.027464101 0.016232727 -0.004424592
000350 4a 4c ac bb a7 10 4b 3c e4 fb bf 3c cd 0c 78 b8
       -0.005258118 0.012394107 0.02343554 -5.913973e-05
000360 78 ab c3 3c 2e 1f 4a 3c 97 84 68 3c 7c 45 dc 3c
       0.023885474 0.012336535 0.014191768 0.026888601
000370 90 12 9b 3c d6 c2 66 3b 67 ba 9f 3c c3 25 10 3c
       0.01892975 0.0035211346 0.019498063 0.008798066
000380 47 24 e8 3c 8d bf ba bb 9a 39 15 ba fa d3 98 3c
       0.02833761 -0.005699104 -0.0005692482 0.018655766
000390 dd b8 a4 3c a9 5e 87 bc 23 02 25 3c 83 8d 90 bc
       0.020107681 -0.01652463 0.01007131 -0.017645603
0003a0 33 66 47 bb a7 a3 13 bb b3 ef a2 3c 95 00 b0 3c
       -0.0030425906 -0.0022527964 0.019889688 0.021484653
0003b0 7d b4 69 3c e7 96 60 bc 80 5d 88 bb c0 00 08 3b
       0.014264223 -0.013707853 -0.0041615367 0.00207524
0003c0 00 e6 1d bb 97 00 96 3c e7 ee 85 bb bd af 13 bc
       -0.002409339 0.018310828 -0.0040873173 -0.009014067
0003d0 56 a7 9e 3c 13 f4 76 bc f2 93 b6 bc 43 62 39 3c
       0.019366901 -0.01507284 -0.022287343 0.011314931
0003e0 40 c7 4c 3c 5d 3f b9 bc 6c 8e bd 3c 89 72 86 ba
       0.012498677 -0.022613222 0.023139201 -0.0010257523
0003f0 cc ba 95 3c 30 71 16 bc bf 53 93 3c cd 9a 64 3b
       0.018277548 -0.009182259 0.01798427 0.0034882308

fc1.bias f4 [80]
000000 f8 f8 06 bb ff c8 80 bc 49 ee 95 3c db 73 cc bb
       -0.0020595174 -0.015720842 0.0183021 -0.006239397
000010 a9 46 02 3c ee 6d 24 bc 3a 0a 15 3c 1b 6a 51 3c
       0.007951417 -0.010035975 0.0090966765 0.012781645
000020 3e 5b 09 3c db 79 37 3b 6e 97 a8 3b 0f 58 ad 3c
       0.00838357 0.0027996216 0.005145005 0.021160154
000030 d3 84 51 bb 20 4d 71 bc 4e cb bf 3c 31 ea 4c bc
       -0.0031970039 -0.014727861 0.023412373 -0.012507007
000040 7e 7c 7d 3c 83 37 71 3c 64 d9 01 3d 50 c2 88 3a
       0.015471576 0.014722708 0.03170146 0.0010433886
000050 87 ca 9b 3c d8 0b 21 b9 00 55 cd ba 43 29 ad 3b
       0.019017471 -0.00015358569 -0.0015665591 0.00528446
000060 7d c3 41 bc 2b 07 86 bb 8e 1f 63 bc bb 8b 66 3b
       -0.011826393 -0.00409021 -0.013862504 0.00351785
000070 03 ab c5 39 57 00 b4 3c 36 31 e4 3c 36 dc a2 3c
       0.00037702182 0.021972818 0.027855497 0.019880395
000080 83 96 29 3b fd 34 59 bb 00 3e 3d 3c a8 a1 12 bc
       0.0025877065 -0.0033143156 0.0115504265 -0.008949675
000090 d9 4f 51 3c 3f aa e7 3b 5e 7d b9 3c 4e b5 32 bc
       0.012775385 0.0070698555 0.022642788 -0.010907484
0000a0 57 ca 8f 3b f6 d9 ad bc a7 95 01 3c 3c 8b c1 ba
       0.0043881345 -0.021222096 0.007909215 -0.0014766227
0000b0 82 d4 c2 bc f8 aa da 39 7e 65 78 3b f9 c5 d7 3c
       -0.023782972 0.00041707582 0.003790229 0.026339518
0000c0 fd 8e 17 bb f3 6f e4 3c 76 b1 ad bb 8a cc 7c 3c
       -0.0023126 0.027885413 -0.005300696 0.015429625
0000d0 1a 37 f9 bb dc b8 a6 3c 22 2c 5a bc 00 a4 98 3c
       -0.0076054456 0.02035182 -0.013316186 0.018632889
0000e0 8d f6 87 3c 3c 54 02 bc 62 ea b8 bc 8d a6 7f 3b
       0.016597057 -0.007954653 -0.0225727 0.0039009184
0000f0 ec 8b 19 3c 4c 65 af bc 5b 57 ec bb a2 fe a7 ba
       0.009371739 -0.021410607 -0.007212562 -0.0012816975
000100 11 dd 78 bc 41 73 d1 3c 24 5a 0c 3c 9c e4 84 bb
       -0.015189425 0.025567653 0.008566413 -0.0040555727
000110 7e 94 89 bc 53 f8 0d bc 42 d7 9b bb fd a3 8c 3c
       -0.01679444 -0.008665162 -0.0047558853 0.01716804
000120 27 ac 05 3c 4a 98 cb 3c 2b ba ad bc 8b bc a4 3c
       0.00815872 0.02485289 -0.021206936 0.020109436
000130 4a 9a 69 bc 95 6f c7 bb 06 a1 b8 bc 90 8e 05 3b
       -0.014257977 -0.0060862997 -0.02253772 0.0020379163

fc2.weight f4 [10, 80]
000000 95 c1 02 bd 65 e5 63 bc e6 23 43 3d 43 fa 0b 3d
       -0.031922895 -0.013909672 0.047641657 0.034174215
000010 9b 45 77 3c 07 36 42 3d c8 f8 40 3d 51 08 0d bd
       0.015092279 0.047414806 0.047112256 -0.03443176
000020 f0 0b bc bc 92 ba c6 3b 1f 9f 93 bd 93 17 ce bd
       -0.022954911 0.0060647214 -0.07208084 -0.1006309
000030 37 f8 a4 bd 73 d3 a9 bc 80 b3 f7 bd 40 e9 c4 bd
       -0.08055156 -0.02073071 -0.12094784 -0.096148014
000040 bc 67 8e 3d 5a 48 b3 3d 79 20 fc bd 6e 76 48 3d
       0.069533795 0.08754034 -0.12310881 0.04894107
000050 25 da 3d ba 38 8e dc bd aa 7e c1 3c 99 5b 91 bd
       -0.0007242284 -0.107693136 0.023619968 -0.07097549
000060 11 da a4 3d 30 d0 ea 3c 20 60 29 3c dd 3a ae bd
       0.08049405 0.028663725 0.010337859 -0.08507321
000070 f6 40 78 3d 87 ca 8a bd bb 52 da bd 0d c5 a4 3d
       0.060608827 -0.0677691 -0.10660311 0.08045397
000080 ed c2 80 bd 93 d6 5a bd 63 73 9b bd 6e 8e 7d 3d
       -0.06287179 -0.05342729 -0.07590368 0.06190341
000090 78 73 b6 3d 65 60 ae 3d e8 d9 68 3d d3 76 e9 bd
       0.08908743 0.085144795 0.056848437 -0.11399617
0000a0 d1 9a 0a bb 21 dd a8 3d 9f 04 81 bd ff 4c dd bd
       -0.0021149407 0.08245302 -0.062997095 -0.108057015
0000b0 ed e8 92 3c e3 c0 43 bd 39 f0 13 3d 5f 22 04 bd
       0.017933333 -0.047791373 0.036117766 -0.03225934
0000c0 e0 97 16 3d 29 23 22 bd 2f 77 9e bc c0 74 1d bd
       0.036765933 -0.039584313 -0.01934394 -0.03844142
0000d0 e2 b2 c2 bd 36 ff 26 bd 82 b2 93 bd 4a 19 bf bc
       -0.095067754 -0.040770732 -0.07211782 -0.023327488
0000e0 41 7b 48 bd 59 25 33 bd 9b 3d a5 3d ef ad c8 bd
       -0.04894567 -0.04373679 0.08068391 -0.097988
0000f0 fe f1 84 3d ab 44 58 bc dd 2b 90 bd 1e be e6 bd
       0.06491469 -0.0131999655 -0.07039616 -0.11266731
000100 62 a5 08 3d c8 04 08 3d 3c c7 69 3d d5 37 db 3d
       0.033360846 0.033207685 0.05707477 0.107040085
000110 32 39 e8 bd 60 8b 7c bd 6b f8 a9 3d 6f 41 a6 bd
       -0.11339034 -0.061656356 0.08299335 -0.08117949
000120 58 4d 84 3d ad 5b 11 3d 7e 32 b4 3d 52 3b a0 3d
       0.06460065 0.03548782 0.08798693 0.078238145
000130 e8 6d bd 3d ae ef 0a bd a9 74 0f bd c6 d8 d0 3b
       0.092494786 -0.033919983 -0.035023365 0.0063734977
000140 25 87 7f 3d 29 74 2d 3c 86 5b 19 3d 4f f8 b5 bd
       0.062384743 0.010586777 0.0374408 -0.08885252
000150 39 f8 c6 3d 0a ca c5 bd 08 ad d8 3c 8a 83 e6 bd
       0.097153135 -0.096576765 0.026449695 -0.11255558
000160 aa 9f 44 bd 05 9e de bd d9 c6 73 bd ed 90 f1 bd
       -0.04800383 -0.108699836 -0.059515808 -0.117952205
000170 92 b0 27 bd 20 3f aa bd bf 77 22 3c 05 d9 77 bd
       -0.040939875 -0.083128214 0.009916245 -0.0605097
000180 6b 5d 65 3d 99 d4 e2 bd 74 e0 ac 3a d7 d4 b4 3c
       0.055997293 -0.11075706 0.0013189451 0.022074146
000190 48 1a f5 bc 7d ed 09 bd b1 26 c0 bd d8 f8 b1 3d
       -0.029919758 -0.033673752 -0.0938238 0.08690041
0001a0 0c ef 6b 3d 2f d3 b4 bd 81 10 5a bc b3 4a 18 bd
       0.05760102 -0.088293426 -0.013309599 -0.037180614
0001b0 bc e4 93 3d 6f 36 4f bd e5 98 76 bd a8 11 7d 3d
       0.07221362 -0.05058902 -0.060204405 0.061784416
0001c0 f0 95 00 be 58 64 51 bd 9c 7a 01 bc 7f f5 70 3c
       -0.12557197 -0.051121086 -0.0079027675 0.014706968
0001d0 e3 4f b2 bd dd b4 82 3d 9f e7 a0 3d 5a 69 98 bd
       -0.087066434 0.06382153 0.07856678 -0.07441969
0001e0 be 76 8d bc 5f c2 87 bd db 0f a9 3d bf 58 b3 bd
       -0.017268535 -0.0662887 0.08254977 -0.08757161
0001f0 7a 1a 76 bd 68 13 58 3d 5f a3 1d bd fe 33 83 bd
       -0.060083844 0.052752882 -0.03848588 -0.06406401
000200 f9 4b 91 bd 12 4b cf bd 28 c2 9b 3d b6 47 25 bc
       -0.07094569 -0.101217404 0.07605392 -0.010087898
000210 0e 30 a9 bd b0 8c 4a 3d fd 4c ba bd 6c 81 60 3d
       -0.08261119 0.049450576 -0.090967156 0.054810926
000220 64 67 b2 3d e8 26 8d 3a 6b 15 6b 3d 87 a5 c7 3c
       0.087111264 0.0010769041 0.057393473 0.024370922
000230 79 d3 6d bd 8c 37 41 3d 4e 21 df bd 5c c2 c9 3d
       -0.058063004 0.047172114 -0.10895024 0.09851524
000240 83 e1 d6 3d d6 bf df 3c 08 64 db 3d 30 41 ba bd
       0.10492232 0.027313154 0.10712439 -0.09094465
000250 93 5e ac bd a6 a3 de 3c fa 37 49 3d 43 b4 44 3d
       -0.08416476 0.027177643 0.04912565 0.048023473
000260 cd 85 4f bd b1 3d ad 3d 73 7d c8 3c 23 b9 c9 3b
       -0.05066471 0.08459032 0.024473881 0.006156103
000270 a9 74 6a 3b f8 34 83 bd 1d c4 0b 3c 23 2b 14 bc
       0.0035775101 -0.06406587 0.008530644 -0.009043488
000280 2a 68 6a bc 79 cf 23 3d 8b e8 f5 bd 4d ee 1d bd
       -0.014307061 0.039992783 -0.12007245 -0.03855734
000290 44 99 81 bd 9e 89 31 bd 51 1d 4a bc 18 ac 84 3d
       -0.06328061 -0.043344133 -0.012336091 0.06478137
0002a0 a8 26 4f 3d 3c 9d fc bd 67 41 f4 bc cb c9 ea bd
       0.050573975 -0.123346776 -0.029816343 -0.1146427
0002b0 b6 c2 b7 3d 9f 54 92 bd e2 02 b3 bd 6e 0a 79 bd
       0.08972685 -0.071450464 -0.08740784 -0.060800962
0002c0 c0 40 c2 bd fe 6a 8c bd 04 9a 71 3d 4c 39 be 3d
       -0.09485006 -0.06856345 0.05898477 0.09288272
0002d0 9b ae 83 3d f7 dc 39 bd 2f 24 37 bd 68 8b e5 bd
       0.06429788 -0.045376744 -0.04471224 -0.1120823
0002e0 8c 85 70 3d 14 a1 55 3d 5f 40 9f 3d 3e 57 6f bd
       0.05872111 0.05215557 0.0777595 -0.05843281
0002f0 2b 21 ac bd f8 fa 00 bd 77 cb da bd 6a 7f 54 3d
       -0.08404764 -0.031489342 -0.10683339 0.051879324
000300 91 c9 03 be 51 7d 3e 3d 98 0e 9a 3d 79 84 bd 3d
       -0.1286986 0.04650623 0.07522315 0.09253783
000310 e2 7d 47 bd 8a 4e a5 bd 90 78 b2 3d 08 b5 83 bd
       -0.048704036 -0.08071621 0.08714402 -0.06431013
000320 6f 5b cf bd 8d 0a 1e bc 1e 42 a1 3d d3 4f 86 3d
       -0.101248614 -0.00964607 0.07873939 0.06558194
000330 8f cf 01 bd 90 1b 24 3c 7e bc 91 3d 83 8f 0f 3a
       -0.031692084 0.010016337 0.0711603 0.0005476402
000340 85 7f 74 bc 3f 85 98 3d cb ef b8 bc fb db bb bd
       -0.014922981 0.0744729 -0.02257528 -0.09172817
000350 5c 59 fc bd 03 e0 b6 3d 6c 33 82 3d 2f 60 24 3d
       -0.123217314 0.089294456 0.06357464 0.04013079
000360 10 01 4e 3d a6 e4 4d 3d 9d 4e c3 3d be 2c d3 bd
       0.050293982 0.050266884 0.09536479 -0.10311268
000370 c5 ea 8d 3d 6c 83 f2 bc 9b 49 ab 3d a2 ed ab bc
       0.06929544 -0.029603682 0.083636485 -0.020987336
000380 7c a5 9a bd dc b1 02 be 19 49 c9 bd 07 97 87 bd
       -0.07551095 -0.1276316 -0.098283954 -0.06620603
000390 3b 61 f5 3c 25 c7 ec bd 24 52 09 bd 66 c6 86 3d
       0.02995359 -0.11561421 -0.0335256 0.0658081
0003a0 2e b4 54 bd 72 3e fe bc fb 7b 66 bb 80 51 31 bd
       -0.051929645 -0.031035636 -0.0035169113 -0.043290615
0003b0 11 df 60 bd 5a 08 80 bb 78 da 86 bd c5 5c a0 3d
       -0.054900233 -0.0039072456 -0.06584638 0.078301944
0003c0 0a 60 c1 bd a5 32 ae bd aa 4a 98 3c e5 bc cd bc
       -0.09442146 -0.085057534 0.01859029 -0.025114486
0003d0 00 ef 6b bd 25 84 79 3d 62 8d c0 3d a3 e9 00 be
       -0.057600975 0.06091704 0.09401967 -0.12589125
0003e0 62 df 76 3c b2 8d f3 bd 89 25 58 3c 57 aa 75 bc
       0.015067907 -0.118922606 0.013192543 -0.014994225
0003f0 c5 b2 95 3c da f7 90 3d e5 5e 8a 3d c4 38 45 3d
       0.01827372 0.07078524 0.06756381 0.04814984

fc2.bias f4 [10]
000000 91 80 8c bc 0e c2 e7 bc f4 08 c6 bd 47 63 dd bd
       -0.017151149 -0.028290775 -0.096696764 -0.10809951
000010 36 a5 ab 3c 67 63 7f bc c1 82 46 bd 7e d1 a7 bd
       0.020952802 -0.015587664 -0.04846454 -0.08194254
000020 30 1e 24 3c dd df b7 bd
       0.010016963 -0.089782454
