classify-ckpt/model_epoch_40.pth (torch, 517704 bytes, 4 tensors)

fc1.weight f4 [80, 1600]
000000 5f b9 a0 3c 2d df 5d bc 3d a3 57 bc 6b a0 b0 bc
       0.019619642 -0.013541979 -0.013161478 -0.021560868
000010 e1 28 e5 3b 8b 81 aa 3c d0 1c 59 3c da 73 9b bc
       0.0069933985 0.020813724 0.013251498 -0.01897614
000020 e7 18 ff bb ec 0f d9 3b 25 3b 8d bc 70 91 9d 3c
       -0.007784951 0.0066242125 -0.017240116 0.019234389
000030 5c 5f 20 bc 5b 4a bd 3c dc dd 96 3c 0f e5 bd bc
       -0.00978836 0.023106745 0.018416338 -0.023180513
000040 af a5 99 bc cb e9 a2 3c 6a 54 87 3c c7 37 de 3c
       -0.018755762 0.019886872 0.016519744 0.027126206
000050 4c 34 31 3b 9f 76 92 3c df f1 94 bc 28 bc b6 3c
       0.0027039228 0.017878829 -0.01818174 0.022306517
000060 19 6c 84 3a f5 f8 c6 3c a7 2c 83 bc b4 03 9b bc
       0.0010103016 0.024288634 -0.016012503 -0.018922664
000070 0d 94 24 bc d9 47 89 bc c8 23 b0 bc e2 21 93 3c
       -0.010045064 -0.016757892 -0.021501437 0.017960493
000080 5d f2 67 3c 6d 5d 04 3c 47 2a cf bb 9a 45 07 ba
       0.014156905 0.008078915 -0.0063221785 -0.0005160213
000090 e0 e6 37 3c 8d 09 8a 3c 9a b8 e4 3b 37 38 00 bc
       0.0112244785 0.016850257 0.006980014 -0.007825903
0000a0 90 3a ca bc 0d f6 c1 3b 47 4e 83 bb 07 c5 40 3c
       -0.024686128 0.005919224 -0.004007134 0.011765725
0000b0 8d 07 70 3b bb 1f bf bc 48 37 91 3c e7 95 60 3b
       0.0036625594 -0.02333056 0.017726555 0.0034269036
0000c0 2a a5 b4 3c 0e 85 db bc f5 76 02 3c fa de 62 3c
       0.022051413 -0.026796844 0.007962932 0.013847107
0000d0 44 de d5 bc 05 75 b6 3c 8c e9 de 3c c0 8f 0d bb
       -0.026106961 0.022272596 0.027210973 -0.0021600574
0000e0 63 f9 98 bc cd 36 ef b9 66 58 9c 3c d7 24 f6 3c
       -0.018673604 -0.00045626462 0.01908512 0.030046863
0000f0 34 82 74 3c b8 be 9d bc ca 92 9f bc a3 e6 af 3c
       0.014923621 -0.01925598 -0.019479174 0.02147228
000100 7d 15 90 3a a7 e4 7d bc 13 8a 9a 3b fd ac 6e 3c
       0.0010992732 -0.0154964095 0.0047161668 0.014567611
000110 33 87 11 39 f8 56 b7 3b 30 2a 89 3c 80 89 c7 3b
       0.00013878643 0.0055950843 0.01674375 0.0060893893
000120 0d 5a 43 bc c0 53 a4 3b 21 f0 9f 3b 02 da a8 3c
       -0.011923325 0.0050148666 0.0048809205 0.020611767
000130 e7 3d 8e 3b 0d dc 5b 3c 1a 9f 3d 3b b3 30 73 3c
       0.0043408754 0.013419163 0.0028933943 0.014843154
000140 97 a4 e6 bc 67 8d fb bb 70 81 fd bc fd 0b 06 bc
       -0.028154654 -0.0076767686 -0.03094551 -0.008181569
000150 d9 56 71 bc 9b 2a 8d ba 89 e7 ef 3b b0 f8 b9 bc
       -0.014730179 -0.0010770144 0.0073213023 -0.022701591
000160 84 e7 06 bc b8 8e 20 3b bb d7 37 3c ba 4a de bc
       -0.008233909 0.002449913 0.011220868 -0.027135242
000170 86 20 d2 bc f4 71 36 3b 0e da 93 3c 0a 7e 02 bd
       -0.025650274 0.0027838917 0.018048313 -0.03185848
000180 76 39 6b bc 48 a2 df 3c f2 52 1c bb 3c 3b aa 3c
       -0.0143569615 0.027299061 -0.002385315 0.020780198
000190 46 83 dd bb ac 18 8b bc 88 ce fc bc e4 b2 27 3b
       -0.006760034 -0.016979538 -0.0308602 0.0025588805
0001a0 96 6a 68 bc db fe 89 bc 6e e9 ff bb 74 33 b6 bc
       -0.014185568 -0.016845157 -0.0078098094 -0.022241332
0001b0 aa f8 ca bc 11 09 b3 bc 22 cd 5d 3c 80 85 22 bc
       -0.024776775 -0.02185491 0.013537677 -0.009919524
0001c0 06 89 47 3c 42 41 51 bc a4 fb 9b 3c ff 62 47 bc
       0.012178665 -0.012771906 0.01904089 -0.012169599
0001d0 dc 5a 4a bc ce 77 9b bc a0 17 33 bc 01 2f d5 bb
       -0.012350764 -0.018978026 -0.010930926 -0.0065058474
0001e0 9a b6 17 ba cd f4 47 bc 75 ae c9 3c 83 c3 56 bc
       -0.00057874026 -0.012204361 0.02461932 -0.013108137
0001f0 bd a0 e6 3c d7 2f c4 3c db 9c b2 bc 3a 11 c0 bb
       0.028152818 0.023948593 -0.02180331 -0.0058614286
000200 9d 3d bd 3c 4c 99 af bc 96 b3 3f bc ca 8b b5 bc
       0.023100669 -0.021435402 -0.0117005315 -0.022161383
000210 1e fd 03 3c 4b 6d 05 3d 93 1f ac 3c 5b 11 cd 3b
       0.008055953 0.032574933 0.02101115 0.0062581724
000220 73 15 ae 3c 3c 2c c4 3c 40 42 10 3c 53 c4 1f bb
       0.021250462 0.023946874 0.008804858 -0.0024378493
000230 40 f2 0f 3c 2d 4a 27 3d bb a5 86 3c 0b 39 5c 3b
       0.008785784 0.040842224 0.016436448 0.0033603336
000240 12 d2 aa 3c b3 e9 08 3c 95 3e c2 3c c6 af db bc
       0.020852122 0.0083564995 0.023711482 -0.026817214
000250 2d 46 2b bc bf 2d 85 3a a8 db da 3b a7 88 86 3c
       -0.010453743 0.0010160728 0.006679017 0.016422583
000260 5a c7 58 3b 23 d7 38 3c 1a f8 5b bc e0 61 a6 bc
       0.0033077807 0.011281761 -0.013425851 -0.020310342
000270 40 d6 55 3b 9a f3 5a 3c 33 b7 75 3b 73 b5 11 bb
       0.0032628924 0.013363743 0.0037493228 -0.0022233396
000280 33 21 93 39 bd 9f 4b 3c a0 fd 26 bc ba 0d 08 bc
       0.0002806276 0.012428221 -0.010192305 -0.008304054
000290 89 cf 2b 3c cd 07 c4 3c 72 c5 97 bc 8a 8b 3b 3c
       0.010486492 0.023929501 -0.018526766 0.011446843
0002a0 0f f3 9a bc 21 c1 3c bc 93 03 b5 bb eb b9 b6 3c
       -0.018914727 -0.011520655 -0.0055241077 0.02230545
0002b0 c1 fa 16 bc 90 b3 0e 3c 29 12 73 bc 6d af de 3b
       -0.009215058 0.008709803 -0.014835873 0.0067958147
0002c0 38 8a 0f 3c 20 6e b5 3b 9a 43 a0 3c 94 7e 7f bb
       0.008760981 0.0055368096 0.019563485 -0.0038985359
0002d0 5a 6a 3a 3b 27 4d 4d 3c 16 e1 05 3d 80 3f cc bb
       0.0028444738 0.012530602 0.03268536 -0.0062331557
0002e0 0c e6 a8 3c 4d 73 c5 3b bd 81 54 3c ef bc e1 bc
       0.020617507 0.006025708 0.012970385 -0.02755591
0002f0 1a 7b c9 3c ae 5f 33 bc ec 67 ec bc cd 6c eb 3a
       0.024594832 -0.010948105 -0.028858148 0.0017961502
000300 67 7d a1 bc 33 66 db 3b 69 de 7b 3c 92 d3 ad 3c
       -0.019713117 0.0066955327 0.015372851 0.021219049
000310 8b 7b 91 3c af 59 ab 3c 10 69 70 bc 9a 55 50 3a
       0.017759105 0.020916788 -0.014673486 0.0007947326
000320 22 26 c4 3c cd 3c c9 3c c7 df 80 bc f8 7f 9a 3c
       0.023943964 0.024565125 -0.015731705 0.018859848
000330 df 7c 60 bc 68 ed a2 bc 80 0b 8e ba 63 aa 2b bc
       -0.013701647 -0.019888595 -0.0010837168 -0.010477635
000340 cb b6 80 3c c7 98 de bc 8b d3 85 3c 87 70 85 bb
       0.015712162 -0.02717246 0.016336223 -0.004072252
000350 bf 00 aa bb a7 10 4b 3c 9c 1d c2 3c cd 0c 78 b8
       -0.005188077 0.012394107 0.02369576 -5.913973e-05
000360 7b 3a b4 3c ff e4 4f 3c 97 84 68 3c d7 f8 cc 3c
       0.022000542 0.012688874 0.014191768 0.025021
000370 90 12 9b 3c 8f d0 77 3b 4e 78 91 3c c3 25 10 3c
       0.01892975 0.003781352 0.017757561 0.008798066
000380 36 07 eb 3c 8d bf ba bb 9a 39 15 ba ae f5 9a 3c
       0.028689962 -0.005699104 -0.0005692482 0.018915977
000390 dd b8 a4 3c 01 39 76 bc 3a b4 26 3c 83 8d 90 bc
       0.020107681 -0.015028239 0.010174805 -0.017645603
0003a0 33 66 47 bb a7 a3 13 bb 6b 11 a5 3c 95 00 b0 3c
       -0.0030425906 -0.0022527964 0.020149907 0.021484653
0003b0 7d b4 69 3c e7 96 60 bc 80 5d 88 bb c0 00 08 3b
       0.014264223 -0.013707853 -0.0041615367 0.00207524
0003c0 00 e6 1d bb 97 00 96 3c e7 ee 85 bb bd af 13 bc
       -0.002409339 0.018310828 -0.0040873173 -0.009014067
0003d0 45 8a a1 3c 13 f4 76 bc f2 93 b6 bc 43 62 39 3c
       0.019719252 -0.01507284 -0.022287343 0.011314931
0003e0 40 c7 4c 3c bf db b6 bc 52 71 c0 3c 9d c3 71 ba
       0.012498677 -0.02232158 0.023491535 -0.0009222569
0003f0 ae 4d 96 3c 30 71 16 bc 77 75 95 3c cc 25 d2 3a
       0.018347587 -0.009182259 0.018244488 0.0016032993

fc1.bias f4 [80]
000000 ef d5 eb ba ab 50 7d bc 76 10 98 3c c0 ce db bb
       -0.0017992834 -0.015461127 0.018562537 -0.006707996
000010 d0 83 02 3c e0 14 1f bc 94 d2 0f 3c 6e 36 42 3c
       0.007965997 -0.009709567 0.008778233 0.011853797
000020 39 df d6 3b 88 d9 79 3a 0e 20 b1 3b 89 2b ad 3c
       0.006557372 0.0009531011 0.0054054325 0.021138923
000030 f9 73 40 bb 20 4d 71 bc 55 0c bd 3c b2 8f 48 bc
       -0.0029366 -0.014727861 0.02307717 -0.012241291
000040 6a 7d 76 3c 26 ef 68 3c af c8 00 3d 64 7d 21 3a
       0.0150445495 0.014217174 0.031441387 0.0006160347
000050 16 89 9e 3c 22 f8 b6 b9 00 55 cd ba 23 28 9f 3b
       0.019352477 -0.00034898618 -0.0015665591 0.0048570796
000060 9e 41 47 bc f7 14 76 bb 88 db 5e bc 14 98 7d 3b
       -0.01216164 -0.0037549117 -0.013602145 0.0038695382
000070 e2 f6 15 3a 73 de b1 3c fe 20 e4 3c 4b ba a0 3c
       0.00057206873 0.021712517 0.027847763 0.019620081
000080 39 ce d2 3a fd 34 59 bb ab 3e 36 3c a8 a1 12 bc
       0.0016083188 -0.0033143156 0.01112334 -0.008949675
000090 31 72 51 3c 6b 22 df 3b 6e fd b5 3c 1d b5 2b bc
       0.012783573 0.006809523 0.022215571 -0.0104801925
0000a0 63 43 87 3b b1 d2 ad bc 3e 62 01 3c ab c0 bf ba
       0.004127906 -0.02121863 0.007896958 -0.0014629563
0000b0 82 d4 c2 bc 83 06 ac 38 e1 2e 87 3b 31 f3 c8 3c
       -0.023782972 8.202812e-05 0.0041254614 0.024530025
0000c0 68 2b 17 bb d5 6f e7 3c 70 b1 bb bb 89 09 6a 3c
       -0.0023066644 0.028251568 -0.0057279393 0.0142845
0000d0 df e2 e7 bb 5e da a8 3c 93 2b 53 bc e2 e4 95 3c
       -0.0070766057 0.020611938 -0.012888807 0.018297616
0000e0 ab 37 85 3c a7 20 fc bb 8c c8 b6 bc 8d a6 7f 3b
       0.016261896 -0.007694322 -0.022312425 0.0039009184
0000f0 99 a9 f9 3b 74 47 b3 bc fd 9d 01 bc a2 fe a7 ba
       0.0076190946 -0.021884657 -0.0079112025 -0.0012816975
000100 b2 5b 7e bc bc 22 ce 3c c2 db 06 3c 9c e4 84 bb
       -0.015524792 0.025163047 0.008231105 -0.0040555727
000110 fc 71 87 bc cf f8 14 bc ba c2 d5 bb 44 81 8a 3c
       -0.016533844 -0.009092524 -0.0065234574 0.016907342
000120 da 6a 01 3c c2 17 c8 3c 64 7d ad bc b5 8d a3 3c
       0.007899011 0.024425391 -0.021177955 0.019965032
000130 e8 85 69 bc d6 78 bc bb e5 60 bb bc 64 90 21 3b
       -0.014253117 -0.0057517095 -0.022873351 0.0024652714

fc2.weight f4 [10, 80]
000000 85 62 f5 bc 1c a4 43 bc 35 34 4b 3d e0 e7 13 3d
       -0.029954204 -0.011940982 0.049610335 0.036109805
000010 4f 0b 7f 3c 3c 3e 4a 3d df 08 49 3d 16 30 05 bd
       0.015566661 0.049375758 0.049080726 -0.03251656
000020 c5 39 ac bc 92 91 02 3c 00 97 8f bd 63 22 cd bd
       -0.02102364 0.007969277 -0.07011223 -0.10016324
000030 31 f0 a0 bd 73 d3 a9 bc 61 ab f3 bd 2d e1 c0 bd
       -0.07858313 -0.02073071 -0.11897922 -0.09417949
000040 e4 6f 92 3d 93 44 b7 3d 98 18 f8 bd e5 85 50 3d
       0.07150248 0.08948626 -0.12114066 0.05090894
000050 58 19 a3 3a cd 86 d8 bd aa 7e c1 3c 71 53 8d bd
       0.0012443466 -0.10572586 0.023619968 -0.06900681
000060 18 e2 a8 3d 0f f0 fa 3c f1 a0 49 3c df 32 aa bd
       0.08246249 0.030632047 0.012306438 -0.08310484
000070 a7 28 80 3d 6e c2 86 bd 46 52 d9 bd d1 cc a8 3d
       0.06257754 -0.06580053 -0.106113955 0.08242191
000080 68 85 79 bd 93 d6 5a bd 3b 6b 97 bd 6e 8e 7d 3d
       -0.06091824 -0.05342729 -0.073934995 0.06190341
000090 88 7b b7 3d 7e 68 b2 3d 31 ea 70 3d bf 6e e5 bd
       0.089591086 0.087113366 0.058817092 -0.11202764
0000a0 9e da 19 b9 9f b5 ac 3d 56 0f 80 bd 4a 75 dc bd
       -0.00014672658 0.08433079 -0.06252925 -0.107645586
0000b0 ed e8 92 3c d6 b0 3b bd 54 00 1c 3d 53 81 f8 bc
       0.017933333 -0.04582294 0.03808625 -0.030335104
0000c0 5e 9d 18 3d 20 14 1a bd 98 56 8e bc 95 73 15 bd
       0.037259452 -0.03761685 -0.017375275 -0.03648718
0000d0 1e ab be bd 31 ef 1e bd 72 aa 8f bd a9 f9 ae bc
       -0.09309982 -0.03880233 -0.07014932 -0.021359282
0000e0 34 6b 40 bd 24 15 2b bd c1 45 a9 3d ef ad c8 bd
       -0.046977237 -0.04176821 0.082652576 -0.097988
0000f0 f4 e5 88 3d 55 82 38 bc 07 2b 8c bd 1e be e6 bd
       0.06684485 -0.011261542 -0.06844144 -0.11266731
000100 a9 b5 10 3d 67 cb 0f 3d 7d d7 71 3d d5 37 db 3d
       0.035329495 0.03510609 0.059043396 0.107040085
000110 22 31 e4 bd 53 7b 74 bd 6f e0 ad 3d 9b 39 a2 bd
       -0.11142184 -0.059687924 0.08490073 -0.079211436
000120 96 53 88 3d 00 6c 19 3d 7a d6 b5 3d 37 35 a4 3d
       0.06656568 0.037456512 0.08878799 0.080179624
000130 8a 6f be 3d aa df 02 bd 92 64 07 bd ef ab 08 3c
       0.09298618 -0.031951584 -0.033054896 0.008341773
000140 42 76 7e 3d 87 3e 2a 3c a5 4a 18 3d 8f ae b2 bd
       0.0621245 0.010390884 0.03718056 -0.08724701
000150 ad 04 c7 3d ee de c2 bd 8a 56 d4 3c b8 26 e4 bd
       0.09717689 -0.09515177 0.025920171 -0.111401975
000160 75 2f 3d bd cd f6 da bd 42 94 74 bd b4 84 f1 bd
       -0.046187837 -0.10691605 -0.059711702 -0.11792889
000170 fb 7d 28 bd 20 3f aa bd cb ca 19 3c 6e a6 78 bd
       -0.04113577 -0.083128214 0.0093867285 -0.060705595
000180 3a 9d 63 3d 8d e8 de bd e9 b4 69 3a 56 7e b0 3c
       0.055569865 -0.10884199 0.00089152023 0.021544617
000190 18 b5 f6 bc bb 18 0c bd b1 26 c0 bd bf 18 b1 3d
       -0.03011565 -0.034203272 -0.0938238 0.08647298
0001a0 da 2e 6a 3d 11 71 b4 bd 22 46 5d bc 1d 18 19 bd
       0.057173587 -0.08810628 -0.0135054905 -0.03737651
0001b0 49 5c 93 3d ae 61 51 bd ec 7e 76 bd 74 51 7b 3d
       0.07195336 -0.051118545 -0.060179636 0.061356977
0001c0 3d 33 fd bd 58 64 51 bd 5c 7b 08 bc 7f f5 70 3c
       -0.123632886 -0.051121086 -0.008330192 0.014706968
0001d0 9e 1f b1 bd 3f 9f 81 3d 01 d2 9f 3d 10 d0 98 bd
       -0.086486086 0.06329202 0.07803727 -0.0746156
0001e0 20 f7 90 bc 1c cc 83 bd 15 1c a9 3d 63 4e b3 bd
       -0.017695963 -0.06435415 0.08257309 -0.087551855
0001f0 7a 1a 76 bd d4 b3 56 3d c8 70 1e bd b7 b4 7e bd
       -0.060083844 0.05241759 -0.038681775 -0.06218406
000200 d7 3e 91 bd f5 5f cc bd 0f e2 9a 3d f0 cb 05 bc
       -0.07092064 -0.0997924 0.075626485 -0.008166298
000210 62 71 a9 bd cf 7b 49 3d b3 b3 ba bd 2d 56 5e 3d
       -0.08273579 0.04919034 -0.09116306 0.054281402
000220 9a b7 b1 3d 67 f4 66 3a 02 48 6a 3d 87 a5 c7 3c
       0.08677597 0.00088102225 0.05719758 0.024370922
000230 1e 03 66 bd 70 09 49 3d 57 8d dd bd 5c c2 c9 3d
       -0.056155317 0.049081266 -0.10817974 0.09851524
000240 6a 01 d6 3d 0a dd ee 3c f0 83 da 3d 30 41 ba bd
       0.104494885 0.029158134 0.10669696 -0.09094465
000250 78 fc ab bd 2b 4d da 3c 04 cd 50 3d af 54 43 3d
       -0.08397764 0.026648125 0.050976768 0.047688182
000260 3d e5 51 bd 98 5d ac 3d 13 3b d5 3c ff 96 03 3c
       -0.05124401 0.08416289 0.026029145 0.008031606
000270 9e 16 6c 3b d4 ff 81 bd 28 17 03 3c c0 60 17 bc
       0.0036024223 -0.063476235 0.008001126 -0.009239376
000280 8c 2b 4a bc 9f dd 2b 3d 10 e1 f1 bd 9c fb 16 bd
       -0.012339484 0.0419594 -0.118105054 -0.036861047
000290 7a 0d 81 bd 09 bd 29 bd 83 01 2a bc 7a a5 88 3d
       -0.063013986 -0.041440044 -0.010376337 0.06672187
0002a0 a0 23 57 3d 79 9f f8 bd 45 27 e4 bc 44 40 ea bd
       0.05252421 -0.12139792 -0.027850756 -0.11438039
0002b0 a5 c8 bb 3d 9f 54 92 bd c8 fb ae bd 10 fd 70 bd
       0.09169129 -0.071450464 -0.08544117 -0.05883509
0002c0 11 39 be bd c7 a1 88 bd 80 a5 79 3d ee 35 c2 3d
       -0.09288228 -0.066714816 0.06094885 0.094829425
0002d0 4f b5 87 3d 82 de 31 bd 2f 24 37 bd ba 83 e1 bd
       0.06626379 -0.04342509 -0.04471224 -0.11011453
0002e0 7c 8f 78 3d 74 a8 5d 3d d6 46 a3 3d c4 50 67 bd
       0.060683712 0.054115728 0.07972495 -0.05647351
0002f0 5a 19 a8 bd 2f dc f1 bc aa 3a da bd 73 86 5c 3d
       -0.082079604 -0.029523937 -0.106557205 0.05383916
000300 af ca 01 be 51 7d 3e 3d d1 15 9e 3d 79 84 bd 3d
       -0.12674974 0.04650623 0.07719005 0.09253783
000310 b7 88 42 bd cf 48 a1 bd 88 7f b6 3d 3f 61 7f bd
       -0.047493663 -0.07875215 0.089110434 -0.0623486
000320 f9 55 cb bd c3 8e 16 bc b7 cb a1 3d c0 c6 86 3d
       -0.09928507 -0.0091893105 0.07900184 0.06580877
000330 8f cf 01 bd 53 4f 44 3c 8a c2 95 3d 66 b7 23 3b
       -0.031692084 0.011981803 0.07312496 0.002498114
000340 1a ed 6f bc e5 47 9c 3d 0a d3 a8 bc 78 e1 b7 bd
       -0.014643932 0.076309 -0.020608444 -0.089785516
000350 fc 62 f8 bd 4e e6 ba 3d af 34 86 3d 5b 68 2c 3d
       -0.12128255 0.091259584 0.06553017 0.04209171
000360 db 0d 56 3d 59 f2 55 3d a7 55 c7 3d be 2c d3 bd
       0.052259307 0.052233074 0.09733134 -0.10311268
000370 56 e8 91 3d 75 ac e3 bc 88 47 af 3d a2 ed ab bc
       0.07124393 -0.027792195 0.085585654 -0.020987336
000380 47 9e 96 bd de fe 00 be 2e 42 c5 bd 07 97 87 bd
       -0.07354408 -0.12597224 -0.096317634 -0.06620603
000390 8d b8 02 3d 68 c5 e8 bd f6 58 01 bd 4e ca 8a 3d
       0.031914283 -0.11365777 -0.03157898 0.06776868
0003a0 6f b1 4c bd a1 20 ee bc 72 15 0f bb 36 f1 29 bd
       -0.0499739 -0.029068293 -0.002183285 -0.041489802
0003b0 ec bb 5f bd c5 3f ff ba 7c d4 82 bd fc 4e a4 3d
       -0.054622576 -0.0019473961 -0.063881844 0.080228776
0003c0 f7 57 bd bd 93 2a aa bd de 6a a8 3c 84 c3 bd bc
       -0.092452936 -0.08308902 0.02055877 -0.023164518
0003d0 8e eb 6b bd 48 22 80 3d c5 94 c4 3d 7c f0 fd bd
       -0.05759769 0.06256539 0.09598688 -0.123993844
0003e0 bd 57 8b 3c e6 a0 ef bd a8 64 78 3c dd 9c 75 bc
       0.01700961 -0.11700611 0.015160717 -0.014991012
0003f0 9d d0 a5 3c da f7 90 3d d1 66 8e 3d 2d 48 4d 3d
       0.020241076 0.07078524 0.069532044 0.05011766

fc2.bias f4 [10]
000000 6f c1 78 bc 38 81 ea bc ad 05 c2 bd 18 5c d9 bd
       -0.015182837 -0.02862607 -0.09473739 -0.106132686
000010 01 c7 ad 3c 7e 25 5f bc 7a 73 3e bd 42 cb a3 bd
       0.021213057 -0.013619779 -0.046496846 -0.07997753
000020 75 59 44 3c 2c db b3 bd
       0.011984219 -0.08782038
