classify-ckpt/model_epoch_13.pth (torch, 517704 bytes, 4 tensors)

fc1.weight f4 [80, 1600]
0	0x3ca0b95f	0.019619642
1	0xbc5ddf2d	-0.013541979
2	0xbc57a33d	-0.013161478
3	0xbcb0a06b	-0.021560868
4	0x3b8b6327	0.0042537632
5	0x3caa818b	0.020813724
6	0x3c591cd0	0.013251498
7	0xbc9b73da	-0.01897614
8	0xbbff18e7	-0.007784951
9	0x3c245063	0.010028931
10	0xbc84e208	-0.016221061
11	0x3c9d9170	0.019234389
12	0xbc130eea	-0.008975724
13	0x3cbd4a5b	0.023106745
14	0x3c96d89f	0.01841384
15	0xbcbde50f	-0.023180513
16	0xbc99a5af	-0.018755762
17	0x3ca2e9cb	0.019886872
18	0x3c87546a	0.016519744
19	0x3ca26c7a	0.019827116
20	0xbb951f9c	-0.0045508873
21	0x3c92769f	0.017878829
22	0xbc94f1df	-0.01818174
23	0x3cb6bc28	0.022306517
24	0xbae2aacf	-0.0017293337
25	0x3cc6f8f5	0.024288634
26	0xbc832ca7	-0.016012503
27	0xbc95853c	-0.018252008
28	0xbc24940d	-0.010045064
29	0xbc23a061	-0.009986968
30	0xbca7caab	-0.020482382
31	0x3c9321e2	0.017960493
32	0x3c67f25d	0.014156905
33	0x3c045d6d	0.008078915
34	0xbbcf3f3f	-0.006324678
35	0xba07459a	-0.0005160213
36	0x3c37e6e0	0.0112244785
37	0x3c8a098d	0.016850257
38	0x3be4b89a	0.006980014
39	0xbc003837	-0.007825903
40	0xbcca3a90	-0.024686128
41	0x3bc1f60d	0.005919224
42	0xbb834e47	-0.004007134
43	0x3c40c507	0.011765725
44	0x3a71f06b	0.00092292455
45	0xbcbf1fbb	-0.02333056
46	0x3c913748	0.017726555
47	0x3b6095e7	0.0034269036
48	0x3cb4a52a	0.022051413
49	0xbcbfa0d8	-0.023392126
50	0x3c13292f	0.008981987
51	0x3c62defa	0.013847107
52	0xbccf360c	-0.025294326
53	0x3cb67505	0.022272596
54	0x3cdee44f	0.027208475
55	0xbb0d8fc0	-0.0021600574
56	0xbc98f963	-0.018673604
57	0xb9ef36cd	-0.00045626462
58	0x3c413fa1	0.0117949555
59	0x3cba872d	0.022769535
60	0x3bfb4aa6	0.007668811
61	0xbc9dbeb8	-0.01925598
62	0xbc9f92ca	-0.019479174
63	0x3cafe6a3	0.02147228
64	0xbad7016b	-0.0016403621
65	0xbc7de4a7	-0.0154964095
66	0x3b9a8a13	0.0047161668
67	0x3c79a9e9	0.015238264
68	0x39118733	0.00013878643
69	0x3c4a9aca	0.012366006
70	0x3c91834d	0.017762804
71	0x3bc78980	0.0060893893
72	0xbc435a0d	-0.011923325
73	0x3ba453c0	0.0050148666
74	0x3b9fdb29	0.004878421
75	0x3ca8da02	0.020611767
76	0x3b8e3de7	0.0043408754
77	0x3c5bdc0d	0.013419163
78	0x3b3d9f1a	0.0028933943
79	0x3c7330b3	0.014843154
80	0xbcde4b7a	-0.0271356
81	0xbbda28f4	-0.006657714
82	0xbcf52853	-0.029926455
83	0xbbeab387	-0.0071625146
84	0xbc8f1c72	-0.017469618
85	0xb8731973	-5.7959416e-05
86	0x3c08a5fe	0.008340357
87	0xbcb19f93	-0.021682536
88	0xbbec6a94	-0.0072148535
89	0x3bc06945	0.005871924
90	0x3c4889f5	0.012239923
91	0xbcd5f19d	-0.026116187
92	0xbcc29308	-0.02375175
93	0x3b793adb	0.0038029465
94	0x3c91403f	0.01773083
95	0xbcfca2f8	-0.030839428
96	0xbc5a873c	-0.013337906
97	0x3ca3ead3	0.020009434
98	0xbab31415	-0.0013662601
99	0x3c5d3b24	0.01350287
100	0xbbbc1ed3	-0.005740979
101	0xbcc67a9c	-0.024228387
102	0xbcf4756b	-0.029841146
103	0x3b6a7bcb	0.0035779353
104	0xbc6d9e65	-0.014503096
105	0xbc81a5be	-0.015826102
106	0xbbde84fb	-0.006790755
107	0xbca89025	-0.020576546
108	0xbcc29f8d	-0.02375772
109	0xbc76e576	-0.015069356
110	0x3c6e7f5c	0.014556732
111	0xbc11d346	-0.008900469
112	0x3c583b40	0.01319772
113	0xbc408f08	-0.011752851
114	0x3c9bf667	0.019038392
115	0xbc36b0c5	-0.011150544
116	0xbc39a8a2	-0.011331709
117	0xbc931eb1	-0.01795897
118	0xbc226566	-0.009911871
119	0xbbb3ca8e	-0.005486793
120	0xba17b69a	-0.00057874026
121	0xbc47f4cd	-0.012204361
122	0x3cc9ae75	0.02461932
123	0xbc56c383	-0.013108137
124	0x3cd02f4f	0.025413183
125	0x3cc42fd7	0.023948593
126	0xbcb29cdb	-0.02180331
127	0xbbc0113a	-0.0058614286
128	0x3cbd3d9d	0.023100669
129	0xbc93b516	-0.018030684
130	0xbc2f015c	-0.010681476
131	0xbcb58bca	-0.022161383
132	0x3c114d90	0.00886859
133	0x3cf46948	0.029835358
134	0x3cac1a56	0.021008652
135	0x3b66984f	0.0035185998
136	0x3cae1573	0.021250462
137	0x3c8873a7	0.01665671
138	0x3c104240	0.008804858
139	0xbc1f2c6a	-0.009715179
140	0x3c0ff240	0.008785784
141	0x3d0992f5	0.033587415
142	0x3c86a5bb	0.016436448
143	0x3b5c0a27	0.0033575387
144	0x3c9460a4	0.018112488
145	0x3c08ddf9	0.008353704
146	0x3cc23e95	0.023711482
147	0xbcd6314e	-0.026146557
148	0xbc2b462d	-0.010453743
149	0x3bff2a0b	0.0077869943
150	0x3bfc401b	0.0076980717
151	0x3c8688a7	0.016422583
152	0x3b58c75a	0.0033077807
153	0x3c38d723	0.011281761
154	0xbc5c0295	-0.01342835
155	0xbca661e0	-0.020310342
156	0x3b55d640	0.0032628924
157	0x3c5af39a	0.013363743
158	0x3b75b733	0.0037493228
159	0xbb11b573	-0.0022233396
160	0x39932133	0.0002806276
161	0x3c4b9fbd	0.012428221
162	0xbc26fda0	-0.010192305
163	0xbc080dba	-0.008304054
164	0x3bfdd95a	0.0077468576
165	0x3cc407cd	0.023929501
166	0xbc97c572	-0.018526766
167	0x3c3b8b8a	0.011446843
168	0xbc9af30f	-0.018914727
169	0xbc04f8b4	-0.008115936
170	0xbb939f20	-0.004505053
171	0x3cb6b9eb	0.02230545
172	0xbc43dd59	-0.011954629
173	0x3c0eb390	0.008709803
174	0xbc731ca4	-0.014838371
175	0x3bdeaf6d	0.0067958147
176	0x3bab49aa	0.0052272873
177	0x3bb56e20	0.0055368096
178	0x3ca0439a	0.019563485
179	0xbc371afa	-0.011175865
180	0x3b3a6a5a	0.0028444738
181	0x3c4d4d27	0.012530602
182	0x3d05ddf0	0.03268236
183	0xbbcc3f80	-0.0062331557
184	0x3c92749e	0.017877873
185	0x3bc5734d	0.006025708
186	0x3c547603	0.012967589
187	0xbcdc3e77	-0.026885254
188	0x3cc97b1a	0.024594832
189	0xbb88e0bd	-0.0041771815
190	0xbce40ecf	-0.027839093
191	0x3aeb6ccd	0.0017961502
192	0xbca17d67	-0.019713117
193	0x3bdb6633	0.0066955327
194	0x3c7bd3ed	0.015370351
195	0x3cadd392	0.021219049
196	0x3c917b8b	0.017759105
197	0x3cab59af	0.020916788
198	0xbc706910	-0.014673486
199	0x3a50559a	0.0007947326
200	0x3cc42622	0.023943964
201	0x3cc93ccd	0.024565125
202	0xbc80dfc7	-0.015731705
203	0x3c9a7ff8	0.018859848
204	0xbc86afde	-0.016441282
205	0xbca2ed68	-0.019888595
206	0xba8e0b80	-0.0010837168
207	0xbc2baa63	-0.010477635
208	0x3c80b6cb	0.015712162
209	0xbcc2b491	-0.023767741
210	0x3c8e2ca8	0.017355278
211	0xbbdf35bb	-0.006811825
212	0xbb8f5fda	-0.00437544
213	0x3c4b10a7	0.012394107
214	0x3cc2185f	0.023693262
215	0xb8780ccd	-5.913973e-05
216	0x3c7103ca	0.014710376
217	0x3c230266	0.009949302
218	0x3c688497	0.014191768
219	0x3c915b2d	0.017743671
220	0x3c9b1290	0.01892975
221	0x3b77a1ab	0.003778557
222	0x3c2c13bd	0.010502753
223	0x3c1025c3	0.008798066
224	0x3cd495c8	0.025950328
225	0xbbbabf8d	-0.005699104
226	0xba15399a	-0.0005692482
227	0x3c9aefd3	0.018913185
228	0x3ca4b8dd	0.020107681
229	0xbc0749b1	-0.0082573155
230	0x3c376674	0.01119386
231	0xbc908d83	-0.017645603
232	0xbb476633	-0.0030425906
233	0xbb13a3a7	-0.0022527964
234	0x3ca50c2e	0.02014741
235	0x3cb00095	0.021484653
236	0x3c69b47d	0.014264223
237	0xbc6096e7	-0.013707853
238	0xbb885d80	-0.0041615367
239	0x3b0800c0	0.00207524
240	0xbb1de600	-0.002409339
241	0x3c960097	0.018310828
242	0xbb85eee7	-0.0040873173
243	0xbc13afbd	-0.009014067
244	0x3c8b18d7	0.016979618
245	0xbc76f413	-0.01507284
246	0xbcb693f2	-0.022287343
247	0x3c396243	0.011314931
248	0x3c4cc740	0.012498677
249	0xbc9af789	-0.018916862
250	0x3caa0006	0.020751964
251	0x38cb0007	9.6797994e-05
252	0x3c9cf5e6	0.019160222
253	0xbc167130	-0.009182259
254	0x3c95703a	0.01824199
255	0xbbba58e4	-0.005686866

fc1.bias f4 [80]
0	0xbb0abefb	-0.0021170962
1	0xbc97fefe	-0.018554207
2	0x3c9576f8	0.018245205
3	0xbbf27794	-0.0073995087
4	0x3c03ebaf	0.008051797
5	0xbc3f6644	-0.011682097
6	0x3c10d460	0.008839697
7	0x3bd229bd	0.006413667
8	0xba37d55d	-0.00070126896
9	0xbbbe418b	-0.005806153
10	0x3ba6b90e	0.005087978
11	0x3cab8bb2	0.020940635
12	0xbb746cd4	-0.0037296312
13	0xbc714d20	-0.014727861
14	0x3cbfa5ee	0.023394551
15	0xbc4dc328	-0.012558736
16	0x3c7ba547	0.015359229
17	0x3c5da631	0.013528393
18	0x3d00cb7b	0.031444054
19	0x3a74c6f3	0.0009337507
20	0x3c9bef5a	0.01903503
21	0xbbaf5140	-0.005350262
22	0xbacd5500	-0.0015665591
23	0x3b9f3849	0.0048590046
24	0xbc420e30	-0.011844203
25	0xbb85712a	-0.004072328
26	0xbc640f04	-0.013919596
27	0xb95d967c	-0.00021132262
28	0xbb94df46	-0.004543218
29	0x3cb47839	0.022029983
30	0x3ce3359f	0.02773553
31	0x3ca0beac	0.01962217
32	0xbba17fff	-0.0049285884
33	0xbb5934fd	-0.0033143156
34	0x3c3b6dbb	0.011439736
35	0xbc12a1a8	-0.008949675
36	0x3c525ad8	0.012839042
37	0x3be9896d	0.007126978
38	0x3cb89666	0.022532653
39	0xbc30eb37	-0.010798267
40	0x3b8755f7	0.004130121
41	0xbcb00668	-0.02148743
42	0x3bfe836f	0.007767133
43	0xbab1d2ba	-0.001356683
44	0xbcc2d482	-0.023782972
45	0x38b03c0e	8.40352e-05
46	0x3b458000	0.0030136108
47	0x3c98a02a	0.01863106
48	0xbb16aacb	-0.0022989984
49	0x3ce2ee17	0.02770142
50	0xbbb14c7b	-0.0054107285
51	0x3c15b715	0.009137888
52	0xbc0bcc20	-0.008532554
53	0x3ca64622	0.020297114
54	0xbc5429dc	-0.012949433
55	0x3c8c9805	0.017162332
56	0x3c8bbc9c	0.01705771
57	0xbc0343d7	-0.00801178
58	0xbcb96266	-0.022629928
59	0x3b7fa68d	0.0039009184
60	0x3a6b10ac	0.0008967023
61	0xbcbbcd60	-0.022925079
62	0xbc73b4b8	-0.01487463
63	0xbaa7fea2	-0.0012816975
64	0xbc792872	-0.015207397
65	0x3cb7a582	0.022417787
66	0x3c0c0f1e	0.008548526
67	0xbb84e49c	-0.0040555727
68	0xbc8a0bbd	-0.0168513
69	0xbc0fc416	-0.008774778
70	0xbc55839a	-0.013031865
71	0x3c8a85d6	0.016909521
72	0x3b8ae9ed	0.004239312
73	0x3cc0dd4e	0.023543026
74	0xbcab7e1b	-0.020934155
75	0x3c9c87f7	0.019107802
76	0xbc69f5ab	-0.014279763
77	0xbbc6df9b	-0.0060691363
78	0xbcbea71f	-0.023273049
79	0x3b0cbd32	0.0021475074

fc2.weight f4 [10, 80]
0	0xbcb97cd0	-0.022642523
1	0xbb97b185	-0.0046293163
2	0x3d69270b	0.056922
3	0x3d31d09e	0.043411843
4	0x3c98f937	0.018673522
5	0x3d68245e	0.056675307
6	0x3d66fb5b	0.056392055
7	0xbccea6da	-0.025226045
8	0xbc60dbbd	-0.013724265
9	0x3c79f4fb	0.015256162
10	0xbd809da2	-0.06280066
11	0xbdc6e9a9	-0.09712536
12	0xbd91f723	-0.07127216
13	0xbca9d373	-0.02073071
14	0xbde4b200	-0.11166763
15	0xbdb1e7ee	-0.08686815
16	0x3da16952	0.078814164
17	0x3dc63a77	0.0967912
18	0xbde91f9f	-0.11382984
19	0x3d6e77d6	0.058219753
20	0x3c0c2db0	0.008555815
21	0xbdc99a9c	-0.098439425
22	0x3cc17eaa	0.023619968
23	0xbd7cb405	-0.061695118
24	0x3db7db52	0.08977379
25	0x3d1b6a33	0.037943076
26	0x3ca0b5c9	0.019617932
27	0xbd9b39d6	-0.07579391
28	0x3d8f2214	0.06988922
29	0xbd6f9226	-0.058488987
30	0xbdd2dcd8	-0.10296029
31	0x3db7c5a1	0.089732416
32	0xbd5b97a9	-0.05361143
33	0xbd5ad693	-0.05342729
34	0xbd8871d1	-0.06662334
35	0x3d7d8e6e	0.06190341
36	0x3dc48de7	0.09597378
37	0x3dc161d4	0.09442487
38	0x3d876e81	0.06612874
39	0xbdd6757a	-0.104716256
40	0x3beac2b8	0.0071643256
41	0x3dbb9ee3	0.091611646
42	0xbd73a290	-0.059481204
43	0xbdd6b8c0	-0.10484457
44	0x3c92e8ed	0.017933333
45	0xbd1dbe73	-0.038511705
46	0x3d39f29f	0.045397397
47	0xbcbcbda7	-0.023039652
48	0x3d25abbb	0.040446978
49	0xbcf84468	-0.030306056
50	0xbc24e1ed	-0.0100636305
51	0xbcef0a2c	-0.029179655
52	0xbdafb545	-0.08579496
53	0xbd00fcfe	-0.031491272
54	0xbd80b137	-0.06283801
55	0xbc662ff6	-0.014049521
56	0xbd2278e0	-0.039666057
57	0xbd0d2290	-0.03445679
58	0x3db83f25	0.08996419
59	0xbdc8adef	-0.097988
60	0x3d97d7ef	0.07414233
61	0xbb81bfd2	-0.0039596343
62	0xbd7a67ad	-0.06113403
63	0xbde6be1e	-0.11266731
64	0x3d2ea877	0.04264113
65	0x3d2d9d5d	0.0423864
66	0x3d87e51f	0.06635498
67	0x3ddb37d5	0.107040085
68	0xbdd537f1	-0.104110606
69	0xbd5688d0	-0.05237657
70	0x3dbcccc5	0.09218744
71	0xbd9340b7	-0.07190078
72	0x3d974b71	0.07387436
73	0x3d375ee0	0.044768214
74	0x3dc2fe2c	0.09521136
75	0x3db32a5a	0.08748312
76	0x3dc4f099	0.09616203
77	0xbcc9db9f	-0.024640856
78	0xbcd2e47f	-0.025743721
79	0x3c8039da	0.015652586
80	0x3d7fc328	0.062441975
81	0x3c373d0d	0.011183989
82	0x3d199787	0.037498023
83	0xbda3ee93	-0.08004489
84	0x3dc76819	0.09736652
85	0xbdb95c9f	-0.09050869
86	0x3cd00821	0.025394501
87	0xbdd83e4e	-0.10558759
88	0xbd1f747a	-0.03892944
89	0xbdcc22f5	-0.09967605
90	0xbd7154d8	-0.058918804
91	0xbdf12577	-0.11774724
92	0xbd273118	-0.040818304
93	0xbdaa3f20	-0.083128214
94	0x3c19d2c9	0.009388634
95	0xbd77598c	-0.060388133
96	0x3d64ea1b	0.055887323
97	0xbdcffbd5	-0.10155455
98	0x3a6a320d	0.000893385
99	0x3cac2ffc	0.021018974
100	0xbcf41b53	-0.029798185
101	0xbce3d9bb	-0.027813783
102	0xbdc026b1	-0.0938238
103	0x3db1bf33	0.086790465
104	0x3d6a30dd	0.057175506
105	0xbdb1f02d	-0.08688388
106	0xbc581297	-0.013188026
107	0xbd0d2a9a	-0.034464456
108	0x3d9402bd	0.07227085
109	0xbd515faf	-0.05111664
110	0xbd75b317	-0.059985247
111	0x3d7863a8	0.060641915
112	0xbdee4037	-0.11633342
113	0xbd516458	-0.051121086
114	0xbc0347d3	-0.00801273
115	0x3c70f57f	0.014706968
116	0xbda41002	-0.08010866
117	0x3d81a041	0.06329394
118	0x3d9fd304	0.0780392
119	0xbd973034	-0.07382241
120	0xbc90f326	-0.017694067
121	0xbd69b612	-0.0570584
122	0x3da97bf6	0.08275597
123	0xbdb2fb42	-0.0873933
124	0xbd761a7a	-0.060083844
125	0x3d56b5d3	0.052419495
126	0xbd1d23e5	-0.03836431
127	0xbd60f21a	-0.054918386
128	0xbd90d6cc	-0.07072219
129	0xbdc2868a	-0.094983175
130	0x3d9b8882	0.07594396
131	0xba659ec1	-0.0008759313
132	0xbd9cd178	-0.076571405
133	0x3d497dd0	0.04919225
134	0xbdb6cdb8	-0.089259565
135	0x3d5abd90	0.053403437
136	0x3db1b89c	0.086777896
137	0x3a9d16ac	0.0011984906
138	0x3d6b94e4	0.05751504
139	0x3cc7a587	0.024370922
140	0xbd482b39	-0.048869345
141	0x3d66e2f7	0.056368794
142	0xbdcf3cb9	-0.10119004
143	0x3dc9c25c	0.09851524
144	0x3dd6a7dd	0.10481236
145	0x3d15264c	0.036413476
146	0x3dda84f2	0.106698886
147	0xbdba4130	-0.09094465
148	0xbda81678	-0.082074106
149	0x3cdce6ee	0.026965585
150	0x3d6e84bc	0.058232054
151	0x3d4356b0	0.047690094
152	0xbd4366eb	-0.047705572
153	0x3dad040c	0.084480375
154	0x3d0538cd	0.032524873
155	0x3c7ab691	0.015302316
156	0x3b790083	0.003799469
157	0xbd78f2a8	-0.06077829
158	0x3beebfe4	0.0072860587
159	0xbbf05fd5	-0.007335643
160	0xbba4ccb0	-0.0050292835
161	0x3d49c987	0.049264457
162	0xbde2e8d3	-0.11079564
163	0xbcf29a66	-0.029614639
164	0xbd791ade	-0.06081664
165	0xbd0bf029	-0.03416458
166	0xbb49a0f6	-0.0030766106
167	0x3d97985a	0.07402106
168	0x3d750d50	0.05982715
169	0xbde9ab2a	-0.114096
170	0xbca848ed	-0.020542586
171	0xbde5e012	-0.11224379
172	0x3dcabf79	0.09899802
173	0xbd92549f	-0.071450464
174	0xbda0034a	-0.07813127
175	0xbd530ddd	-0.051526893
176	0xbdaf404e	-0.08557187
177	0xbd737250	-0.05943519
178	0x3d8bca50	0.068256974
179	0x3dd12869	0.10212786
180	0x3d96acac	0.07357153
181	0xbd13f928	-0.036126286
182	0xbd37242f	-0.04471224
183	0xbdd28b3f	-0.10280465
184	0x3d8b3db3	0.067988776
185	0x3d7b919f	0.061418172
186	0x3db23e28	0.087032616
187	0xbd49649c	-0.049168214
188	0xbd99208b	-0.0747691
189	0xbcb5fc18	-0.022214934
190	0xbdd5a63d	-0.10432098
191	0x3d7a6fe2	0.061141856
192	0xbdf49ff5	-0.11944572
193	0x3d3e7d51	0.04650623
194	0x3dad0e17	0.08449953
195	0x3dbd8479	0.09253783
196	0xbd25bfe9	-0.040466223
197	0xbd925142	-0.07144405
198	0x3dc57742	0.09641887
199	0xbd6174dd	-0.05504309
200	0xbdbc5ecc	-0.091977686
201	0xbb2926f6	-0.0025810576
202	0x3da630ae	0.08114754
203	0x3d8ac053	0.06774964
204	0xbd01cf8f	-0.031692084
205	0x3c9e03b1	0.01928887
206	0x3da4b97a	0.08043189
207	0x3c2094d7	0.009801111
208	0xbc4acbca	-0.012377689
209	0x3dab3bf6	0.08361046
210	0xbc59e6ae	-0.013299627
211	0xbda8ed2e	-0.082483634
212	0xbde97f57	-0.11401241
213	0x3dc9dc0d	0.098564245
214	0x3d9525fe	0.07282637
215	0x3d4a51ca	0.049394406
216	0x3d73fbdb	0.05956636
217	0x3d73e201	0.059541706
218	0x3dd64c66	0.104637906
219	0xbdd32cbe	-0.10311268
220	0x3da0dcc2	0.07854606
221	0xbca8207c	-0.020523302
222	0x3dbe3cbb	0.09288927
223	0xbcabeda2	-0.020987336
224	0xbd87a647	-0.06623512
225	0xbdf33bd4	-0.11876646
226	0xbdb64a7f	-0.08900928
227	0xbd879707	-0.06620603
228	0x3d1cf350	0.03831798
229	0xbdd9d162	-0.1063564
230	0xbcc6e35f	-0.02427834
231	0x3d99bf70	0.07507217
232	0xbd2ec5a3	-0.04266895
233	0xbcb23fe7	-0.021758987
234	0x3b96cf5e	0.004602357
235	0xbd0c2be5	-0.03422155
236	0xbd567e63	-0.052366626
237	0x3b90cf6d	0.0044192583
238	0xbd67bc74	-0.056576207
239	0x3db3397b	0.08751198
240	0xbdae5eac	-0.08514151
241	0xbd9b316d	-0.075777866
242	0x3ce44f6d	0.027869904
243	0xbc81e817	-0.01585774
244	0xbd6bb9ef	-0.057550367
245	0x3d82e1aa	0.06390698
246	0x3dc7c1b5	0.097537436
247	0xbdef037a	-0.11670585
248	0x3cc72dca	0.024313826
249	0xbde0b077	-0.10971158
250	0x3cb8168b	0.022471687
251	0xbc74df6a	-0.014945844
252	0x3cbb8f3c	0.022895448
253	0x3d90f7da	0.07078524
254	0x3d9d5fde	0.07684301
255	0x3d679db9	0.0565469

fc2.bias f4 [10]
0	0xbc00f885	-0.007871752
1	0xbce7e778	-0.028308615
2	0xbdb31179	-0.08743567
3	0xbdca6402	-0.09882356
4	0x3cab2d3d	0.020895595
5	0xbbcebd3a	-0.0063091787
6	0xbd2082fc	-0.039187416
7	0xbd9805ec	-0.074230045
8	0x3c54e30a	0.012993583
9	0xbdb0f745	-0.08640913
