classify-ckpt/model_epoch_86.pth (torch, 517704 bytes, 4 tensors)

fc1.weight f4 [80, 1600]
000000 5f b9 a0 3c 2d df 5d bc 3d a3 57 bc 6b a0 b0 bc
       0.019619642 -0.013541979 -0.013161478 -0.021560868
000010 1f 40 d8 3b 8b 81 aa 3c d0 1c 59 3c da 73 9b bc
       0.0065994407 0.020813724 0.013251498 -0.01897614
000020 e7 18 ff bb 38 73 ce 3b 31 14 8e bc 70 91 9d 3c
       -0.007784951 0.0063003562 -0.017343612 0.019234389
000030 21 85 21 bc 5b 4a bd 3c de 64 94 3c 0f e5 bd bc
       -0.009858401 0.023106745 0.018114503 -0.023180513
000040 af a5 99 bc cb e9 a2 3c 6a 54 87 3c b2 df ef 3c
       -0.018755762 0.019886872 0.016519744 0.02928147
000050 b6 e5 97 3b 9f 76 92 3c df f1 94 bc 28 bc b6 3c
       0.004635538 0.017878829 -0.01818174 0.022306517
000060 31 92 21 3a f5 f8 c6 3c a7 2c 83 bc 78 d7 9b bc
       0.0006163447 0.024288634 -0.016012503 -0.019023642
000070 0d 94 24 bc ae d8 96 bc d4 fc b0 bc e2 21 93 3c
       -0.010045064 -0.018413868 -0.021604933 0.017960493
000080 5d f2 67 3c 6d 5d 04 3c 49 0e d9 bb 9a 45 07 ba
       0.014156905 0.008078915 -0.0066240174 -0.0005160213
000090 e0 e6 37 3c 8d 09 8a 3c 9a b8 e4 3b 37 38 00 bc
       0.0112244785 0.016850257 0.006980014 -0.007825903
0000a0 90 3a ca bc 0d f6 c1 3b 47 4e 83 bb 07 c5 40 3c
       -0.024686128 0.005919224 -0.004007134 0.011765725
0000b0 11 36 56 3b bb 1f bf bc 48 37 91 3c e7 95 60 3b
       0.0032686035 -0.02333056 0.017726555 0.0034269036
0000c0 2a a5 b4 3c 3a 2c de bc de c4 00 3c fa de 62 3c
       0.022051413 -0.027120698 0.007859437 0.013847107
0000d0 26 71 d6 bc 05 75 b6 3c 8e 70 dc 3c c0 8f 0d bb
       -0.026177 0.022272596 0.026909139 -0.0021600574
0000e0 63 f9 98 bc cd 36 ef b9 cc 9b ad 3c e5 9c 03 3d
       -0.018673604 -0.00045626462 0.021192454 0.03213205
0000f0 ff 13 8a 3c b8 be 9d bc ca 92 9f bc a3 e6 af 3c
       0.016855238 -0.01925598 -0.019479174 0.02147228
000100 fa e4 38 3a a7 e4 7d bc 13 8a 9a 3b 72 05 6d 3c
       0.0007053163 -0.0154964095 0.0047161668 0.01446663
000110 33 87 11 39 9f 13 81 3b 24 51 88 3c 80 89 c7 3b
       0.00013878643 0.0039391066 0.016640253 0.0060893893
000120 0d 5a 43 bc c0 53 a4 3b 1f 0c 96 3b 02 da a8 3c
       -0.011923325 0.0050148666 0.0045790817 0.020611767
000130 e7 3d 8e 3b 0d dc 5b 3c 1a 9f 3d 3b b3 30 73 3c
       0.0043408754 0.013419163 0.0028933943 0.014843154
000140 a3 7d e7 bc 96 f1 fe bb 7c 5a fe bc 14 be 07 bc
       -0.02825815 -0.007780264 -0.031049006 -0.008285064
000150 38 cb 77 bc 55 bb 9a ba 5a 83 ec 3b bc d1 ba bc
       -0.015124135 -0.0011805097 0.0072178068 -0.022805087
000160 9b 99 08 bc 22 47 0b 3b a4 25 36 3c c6 23 df bc
       -0.008337404 0.0021252115 0.011117373 -0.027238738
000170 2b 6b d3 bc 97 a9 2f 3b 08 61 91 3c 90 ea 02 bd
       -0.025807938 0.0026803964 0.017746463 -0.031961977
000180 8d eb 6c bc 4d e5 f0 3c 4f 1b 23 bb 2b 50 bb 3c
       -0.014460457 0.029406214 -0.0024888103 0.022865376
000190 75 e7 e0 bb 17 93 76 bc 94 a7 fd bc 87 ea 20 3b
       -0.0068635293 -0.015049717 -0.030963697 0.0024553852
0001a0 a5 5c 6d bc e7 d7 8a bc ce a6 01 bc bd d3 b7 bc
       -0.01448742 -0.016948653 -0.0079133045 -0.022439832
0001b0 b6 d1 cb bc 4b 9b c0 bc 0b 1b 5c 3c 97 37 24 bc
       -0.024880271 -0.02351155 0.013434182 -0.010023019
0001c0 ef d6 45 3c 59 f3 52 bc a6 82 99 3c 16 15 49 bc
       0.01207517 -0.012875401 0.018739056 -0.012273094
0001d0 f3 0c 4c bc da 50 9c bc b7 c9 34 bc 30 93 d8 bb
       -0.012454259 -0.019081522 -0.011034421 -0.006609343
0001e0 9a b6 17 ba cd f4 47 bc 75 ae c9 3c 83 c3 56 bc
       -0.00057874026 -0.012204361 0.02461932 -0.013108137
0001f0 8e 66 e3 3c d7 2f c4 3c db 9c b2 bc 3a 11 c0 bb
       0.027758863 0.023948593 -0.02180331 -0.0058614286
000200 9d 3d bd 3c 78 40 b2 bc ad 65 41 bc ca 8b b5 bc
       0.023100669 -0.021759257 -0.011804027 -0.022161383
000210 59 d7 02 3c 35 d0 03 3d 95 a6 a9 3c bf 28 c0 3b
       0.007985913 0.032180984 0.020709315 0.0058642323
000220 73 15 ae 3c a2 6f d5 3c 40 42 10 3c b1 e6 b8 b9
       0.021250462 0.026054207 0.008804858 -0.00035267093
000230 40 f2 0f 3c 9d 33 2f 3d bb a5 86 3c 29 71 48 3b
       0.008785784 0.04277383 0.016436448 0.0030585027
000240 e3 97 a7 3c bc f7 03 3c 95 3e c2 3c 8a 83 dc bc
       0.020458167 0.00805467 0.023711482 -0.026918191
000250 2d 46 2b bc 4f bf 27 ba 79 77 d7 3b a7 88 86 3c
       -0.010453743 -0.00063990516 0.0065755215 0.016422583
000260 5a c7 58 3b 23 d7 38 3c 18 ea 60 bc e0 61 a6 bc
       0.0033077807 0.011281761 -0.013727687 -0.020310342
000270 40 d6 55 3b 9a f3 5a 3c 33 b7 75 3b 73 b5 11 bb
       0.0032628924 0.013363743 0.0037493228 -0.0022233396
000280 33 21 93 39 bd 9f 4b 3c a0 fd 26 bc ba 0d 08 bc
       0.0002806276 0.012428221 -0.010192305 -0.008304054
000290 2a 5b 25 3c cd 07 c4 3c 72 c5 97 bc 8a 8b 3b 3c
       0.010092536 0.023929501 -0.018526766 0.011446843
0002a0 0f f3 9a bc 7b 0f 42 bc c2 67 b8 bb eb b9 b6 3c
       -0.018914727 -0.011844511 -0.0056276033 0.02230545
0002b0 0e 6f 1d bc 90 b3 0e 3c 27 04 78 bc 6d af de 3b
       -0.009608997 0.008709803 -0.015137709 0.0067958147
0002c0 ec 15 09 3c 20 6e b5 3b 9a 43 a0 3c 34 ae ed ba
       0.008367043 0.0055368096 0.019563485 -0.0018133582
0002d0 5a 6a 3a 3b 27 4d 4d 3c 97 a4 04 3d 80 3f cc bb
       0.0028444738 0.012530602 0.032383528 -0.0062331557
0002e0 dd ab a5 3c 4d 73 c5 3b c6 8f 4f 3c b3 90 e2 bc
       0.020223552 0.006025708 0.012668556 -0.027656889
0002f0 1a 7b c9 3c 59 81 4e bc f8 40 ed bc cd 6c eb 3a
       0.024594832 -0.012604081 -0.028961644 0.0017961502
000300 67 7d a1 bc 33 66 db 3b 6b ec 76 3c 92 d3 ad 3c
       -0.019713117 0.0066955327 0.015071015 0.021219049
000310 8b 7b 91 3c af 59 ab 3c 10 69 70 bc 9a 55 50 3a
       0.017759105 0.020916788 -0.014673486 0.0007947326
000320 22 26 c4 3c cd 3c c9 3c c7 df 80 bc f8 7f 9a 3c
       0.023943964 0.024565125 -0.015731705 0.018859848
000330 3e f1 66 bc 68 ed a2 bc 80 0b 8e ba 63 aa 2b bc
       -0.014095603 -0.019888595 -0.0010837168 -0.010477635
000340 cb b6 80 3c f3 3f e1 bc 7f fa 84 3c 23 59 92 bb
       0.015712162 -0.027496314 0.016232727 -0.0044661923
000350 4a 4c ac bb a7 10 4b 3c 9e a4 bf 3c cd 0c 78 b8
       -0.005258118 0.012394107 0.023393925 -5.913973e-05
000360 e1 7d c5 3c b2 70 49 3c 97 84 68 3c c6 0d de 3c
       0.024107875 0.012294935 0.014191768 0.027106177
000370 90 12 9b 3c ad 08 64 3b 34 4b a1 3c c3 25 10 3c
       0.01892975 0.003479521 0.01968918 0.008798066
000380 07 cd e7 3c 8d bf ba bb 9a 39 15 ba b4 7c 98 3c
       0.028296007 -0.005699104 -0.0005692482 0.01861415
000390 dd b8 a4 3c 55 ad 88 bc 23 02 25 3c 83 8d 90 bc
       0.020107681 -0.016684214 0.01007131 -0.017645603
0003a0 33 66 47 bb a7 a3 13 bb 6d 98 a2 3c 95 00 b0 3c
       -0.0030425906 -0.0022527964 0.019848073 0.021484653
0003b0 7d b4 69 3c e7 96 60 bc 80 5d 88 bb c0 00 08 3b
       0.014264223 -0.013707853 -0.0041615367 0.00207524
0003c0 00 e6 1d bb 97 00 96 3c e7 ee 85 bb bd af 13 bc
       -0.002409339 0.018310828 -0.0040873173 -0.009014067
0003d0 16 50 9e 3c 13 f4 76 bc f2 93 b6 bc 43 62 39 3c
       0.019325297 -0.01507284 -0.022287343 0.011314931
0003e0 40 c7 4c 3c eb 82 b9 bc 2d 37 bd 3c 89 72 86 ba
       0.012498677 -0.022645434 0.023097599 -0.0010257523
0003f0 cc ba 95 3c 30 71 16 bc 79 fc 92 3c 1d 2e 73 3b
       0.018277548 -0.009182259 0.017942654 0.0037106343

fc1.bias f4 [80]
000000 0c b3 09 bb 00 20 81 bc 09 97 95 3c c3 81 ca bb
       -0.0021011261 -0.01576233 0.018260496 -0.0061800196
000010 16 40 02 3c ba 1c 25 bc c1 b8 15 3c ea 47 53 3c
       0.00794985 -0.01007765 0.009138287 0.012895564
000020 b6 c3 0c 3c e8 6b 43 3b 5a 3a a7 3b ef 5c ad 3c
       0.008591583 0.0029818956 0.0051033916 0.021162478
000030 f8 3e 54 bb 20 4d 71 bc 92 22 c0 3c b8 98 4d bc
       -0.0032386165 -0.014727861 0.023453984 -0.012548618
000040 0c 2b 7e 3c 1c 5b 72 3c 06 05 02 3d 74 36 8e 3a
       0.015513193 0.01479223 0.031743072 0.0010849969
000050 42 73 9b 3c bc d6 ea b8 00 55 cd ba 74 86 ae 3b
       0.018975858 -0.00011197987 -0.0015665591 0.0053260867
000060 f3 14 41 bc 3f 64 87 bb 17 ce 63 bc 54 d8 63 3b
       -0.01178478 -0.0041318233 -0.013904116 0.0034766393
000070 08 21 d2 39 9b 57 b4 3c 00 33 e4 3c 7c 33 a3 3c
       0.00040078931 0.02201443 0.02785635 0.01992201
000080 1e 0a 31 3b fd 34 59 bb 8c ec 3d 3c a8 a1 12 bc
       0.0027014087 -0.0033143156 0.011592042 -0.008949675
000090 57 c5 50 3c 51 07 e9 3b a3 d4 b9 3c cb 63 33 bc
       0.012742362 0.007111468 0.0226844 -0.0109490855
0000a0 70 27 91 3b 21 03 ae bc 46 9b 01 3c 61 bc c1 ba
       0.00442975 -0.021241726 0.007910555 -0.0014780873
0000b0 82 d4 c2 bc b0 7c f0 39 56 ab 75 3b 5d 86 d9 3c
       -0.023782972 0.00045869267 0.0037486157 0.026553327
0000c0 68 99 17 bb a7 18 e4 3c 5f 54 ac bb ed 4c 7e 3c
       -0.0023132209 0.027843786 -0.0052590813 0.01552127
0000d0 10 94 fa bb 97 61 a6 3c a7 da 5a bc 46 fb 98 3c
       -0.007647045 0.020310206 -0.013357795 0.018674504
0000e0 da 4d 88 3c c3 02 03 bc a4 41 b9 bc 8d a6 7f 3b
       0.016638685 -0.007996264 -0.022614308 0.0039009184
0000f0 73 70 1c 3c 49 04 af bc ea b7 e9 bb a2 fe a7 ba
       0.009548294 -0.021364348 -0.00713252 -0.0012816975
000100 87 2e 78 bc 80 c7 d1 3c ae 08 0d 3c 9c e4 84 bb
       -0.015147812 0.025607824 0.008608026 -0.0040555727
000110 c4 eb 89 bc d2 49 0d bc 5f 4a 96 bb 43 fb 8c 3c
       -0.016836055 -0.008623557 -0.0045865024 0.017209655
000120 86 5a 06 3c a0 ef cb 3c c8 e0 ad bc c7 e8 a4 3c
       0.008200293 0.024894536 -0.021225348 0.020130528
000130 75 9c 69 bc a8 cc c8 bb c1 49 b8 bc 96 d4 02 3b
       -0.014258494 -0.0061279126 -0.022496106 0.0019963137

fc2.weight f4 [10, 80]
000000 ad bf 03 bd bf dd 67 bc ce 25 42 3d 00 04 0b 3d
       -0.03216522 -0.0141519895 0.047399335 0.03393936
000010 30 68 76 3c e7 38 41 3d b8 fa 3f 3d bd f8 0d bd
       0.015039489 0.047173407 0.046869963 -0.034661043
000020 c5 f6 bd bc 5a 3e bf 3b 28 1e 94 bd e8 32 ce bd
       -0.023188958 0.0058362903 -0.07232314 -0.10068303
000030 3c 77 a5 bd 73 d3 a9 bc 89 32 f8 bd 45 68 c5 bd
       -0.08079383 -0.02073071 -0.12119014 -0.096390285
000040 b3 e8 8d 3d 10 cc b2 3d 7b 9f fc bd 68 78 47 3d
       0.069291495 0.08730328 -0.12335106 0.048698813
000050 d0 5e 7d ba 38 0d dd bd aa 7e c1 3c a2 da 91 bd
       -0.0009665312 -0.10793537 0.023619968 -0.07121779
000060 0c 5b a4 3d 22 d4 e8 3c d3 67 25 3c e2 b9 ae bd
       0.08025178 0.028421465 0.010095554 -0.08531548
000070 de 42 77 3d 90 49 8b bd 54 6f da bd 0d 46 a4 3d
       0.060366504 -0.0680114 -0.106657654 0.080211736
000080 23 40 81 bd 93 d6 5a bd 6c f2 9b bd 6e 8e 7d 3d
       -0.06311061 -0.05342729 -0.07614598 0.06190341
000090 5c 65 b6 3d 5d e1 ad 3d d0 db 67 3d d8 f5 e9 bd
       0.089060515 0.0849025 0.056606114 -0.11423844
0000a0 31 7b 1a bb e6 68 a8 3d f3 1f 81 bd ec 64 dd bd
       -0.0023571963 0.08223133 -0.06304922 -0.10810265
0000b0 ed e8 92 3c ef be 44 bd 2c f2 12 3d 3e 1e 05 bd
       0.017933333 -0.04803365 0.035875484 -0.032499544
0000c0 34 5e 16 3d 16 21 23 bd 5d 73 a0 bc 5b 6f 1e bd
       0.036710933 -0.039826475 -0.01958626 -0.038680416
0000d0 db 31 c3 bd 41 fd 27 bd 87 31 94 bd 5f 15 c1 bc
       -0.095309936 -0.041013006 -0.07236009 -0.02356976
0000e0 4d 79 49 bd 6c 23 34 bd 92 be a4 3d ef ad c8 bd
       -0.049187947 -0.043979093 0.08044161 -0.097988
0000f0 75 77 84 3d 33 20 5c bc 28 a9 90 bd 1e be e6 bd
       0.06468097 -0.013435411 -0.07063514 -0.11266731
000100 4a a7 07 3d 54 16 07 3d 24 c9 68 3d d5 37 db 3d
       0.033118524 0.032980278 0.056832448 0.107040085
000110 37 b8 e8 bd 6f 89 7d bd 4b 80 a9 3d 71 c0 a6 bd
       -0.11363261 -0.061898645 0.08276423 -0.08142174
000120 89 ce 83 3d 95 5d 10 3d f1 18 b4 3d 87 bf 9f 3d
       0.06435878 0.035245497 0.0879382 0.07800203
000130 31 51 bd 3d b8 ed 0b bd b8 72 10 bd 90 e8 c8 3b
       0.09244002 -0.034162253 -0.035265654 0.0061312392
000140 c7 b2 7f 3d ab 6f 2d 3c 28 87 19 3d 1d 51 b6 bd
       0.062426355 0.010585706 0.03748241 -0.0890219
000150 ce f6 c6 3d e2 fa c5 bd e6 f6 d9 3c 1f eb e6 bd
       0.09715043 -0.09666993 0.026606988 -0.112753145
000160 e3 7a 45 bd 2f 08 df bd 6f e1 73 bd 54 92 f1 bd
       -0.048212897 -0.10890233 -0.059541162 -0.11795488
000170 28 cb 27 bd 20 3f aa bd 4c 26 23 3c 9b f3 77 bd
       -0.04096523 -0.083128214 0.009957861 -0.060535055
000180 0d 89 65 3d a1 4d e3 bd c9 20 b7 3a a5 c9 b5 3c
       0.056038905 -0.11098791 0.0013971563 0.022190878
000190 74 4f f5 bc db c1 09 bd b1 26 c0 bd a9 0e b2 3d
       -0.029945113 -0.03363214 -0.0938238 0.086942025
0001a0 ae 1a 6c 3d 7a e0 b4 bd 00 15 5a bc 49 65 18 bd
       0.05764263 -0.08831878 -0.013310671 -0.037205968
0001b0 8d fa 93 3d cd 0a 4f bd dd 9b 76 bd 10 8c 7d 3d
       0.07225523 -0.05054741 -0.060207237 0.061901152
0001c0 d2 d3 00 be 58 64 51 bd 0f cc 00 bc 7f f5 70 3c
       -0.12580803 -0.051121086 -0.007861151 0.014706968
0001d0 3b 64 b2 bd ae ca 82 3d 70 fd a0 3d a5 76 98 bd
       -0.08710524 0.06386314 0.07860839 -0.07444505
0001e0 bb d2 8c bc 9f 3d 88 bd 74 0e a9 3d ee 59 b3 bd
       -0.017190328 -0.06652378 0.0825471 -0.08757387
0001f0 7a 1a 76 bd 0a 3f 58 3d f5 bd 1d bd e4 b1 83 bd
       -0.060083844 0.052794494 -0.038511235 -0.06430414
000200 7a 4d 91 bd 51 b1 cf bd f9 d7 9b 3d 46 14 29 bc
       -0.070948556 -0.10141242 0.07609553 -0.010319775
000210 e4 60 a9 bd 52 b8 4a 3d 48 5a ba bd 6d d3 60 3d
       -0.082704335 0.049492188 -0.09099251 0.05488913
000220 35 7d b2 3d 2a d4 89 3a 4b 14 6b 3d 87 a5 c7 3c
       0.087152876 0.00105155 0.0573924 0.024370922
000230 7c c4 6e bd 1d 46 40 3d c6 55 df bd 5c c2 c9 3d
       -0.05829285 0.046941865 -0.10905032 0.09851524
000240 54 f7 d6 3d 20 f5 dd 3c d9 79 db 3d 30 41 ba bd
       0.10496393 0.027094424 0.107166 -0.09094465
000250 e0 6b ac bd ec fa de 3c 92 52 48 3d e5 df 44 3d
       -0.08419013 0.027219258 0.04890687 0.048065085
000260 df e0 4e bd 82 53 ad 3d c9 ec c6 3c be 66 c2 3b
       -0.050507423 0.084631935 0.02428283 0.005932658
000270 ef 44 6a 3b cf 65 83 bd c3 ad 0d 3c fa 1f 15 bc
       0.0035746654 -0.06415903 0.008647385 -0.009101862
000280 ca 5f 6e bc b7 d1 22 3d 7c 67 f6 bd a2 a8 1e bd
       -0.014549205 0.03975078 -0.12031457 -0.03873504
000290 5c a8 81 bd 62 7e 32 bd 45 10 4e bc a7 30 84 3d
       -0.0633094 -0.04357756 -0.012577121 0.06454592
0002a0 dc 2c 4e 3d fa 19 fd bd 8d 3c f6 bc af d8 ea bd
       0.05033575 -0.1235847 -0.03005817 -0.1146711
0002b0 02 44 b7 3d 9f 54 92 bd c3 81 b3 bd 11 08 7a bd
       0.08948518 -0.071450464 -0.087649845 -0.06104285
0002c0 bb bf c2 bd 40 d9 8c bd b0 9c 70 3d f9 bb bd 3d
       -0.09509226 -0.06877375 0.05874318 0.092643686
0002d0 c8 2f 83 3d 0d d8 3a bd 2f 24 37 bd 63 0a e6 bd
       0.06405598 -0.0456162 -0.04471224 -0.1123245
0002e0 65 88 6f 3d 55 a4 54 3d 94 c1 9e 3d 80 53 70 bd
       0.058479685 0.05191453 0.07751766 -0.05867338
0002f0 2b a0 ac bd 82 f8 01 bd 24 db da bd aa 82 53 3d
       -0.08428987 -0.031731136 -0.10686329 0.051638283
000300 d9 07 04 be 51 7d 3e 3d b0 8f 99 3d 79 84 bd 3d
       -0.12893619 0.04650623 0.07498109 0.09253783
000310 96 e5 47 bd 31 cd a5 bd b1 f9 b1 3d 66 33 84 bd
       -0.048802935 -0.08095778 0.08690203 -0.06455116
000320 12 da cf bd 35 94 1c bc 3b 33 a1 3d 03 43 86 3d
       -0.101490155 -0.00955682 0.078710996 0.0655575
000330 8f cf 01 bd 1e 25 20 3c ca 3d 91 3d ce 96 a1 39
       -0.031692084 0.009774474 0.070918635 0.0003082067
000340 21 fe 74 bc 75 08 98 3d 67 eb ba bc cf 57 bc bd
       -0.014953167 0.07423488 -0.022817327 -0.09196436
000350 72 d4 fc bd 3d 61 b6 3d 83 b5 81 3d 48 63 23 3d
       -0.12345208 0.089052655 0.06333449 0.039889604
000360 79 03 4d 3d f7 e6 4c 3d be cf c2 3d be 2c d3 bd
       0.05005214 0.050024953 0.0951228 -0.10311268
000370 16 6e 8d 3d d9 30 f4 bc f8 cc aa 3d a2 ed ab bc
       0.06905763 -0.029808449 0.08339876 -0.020987336
000380 65 24 9b bd c9 df 02 be f7 c7 c9 bd 07 97 87 bd
       -0.07575301 -0.1278068 -0.098525934 -0.06620603
000390 cb 67 f3 3c 36 45 ed bd 24 4b 0a bd f6 47 86 3d
       0.029712578 -0.115854666 -0.033763066 0.06556694
0003a0 b9 af 55 bd 1a 1d 00 bd 66 5a 6e bb ab 20 32 bd
       -0.052169535 -0.031277753 -0.00363698 -0.043488186
0003b0 90 fe 60 bd fa ed 87 bb 32 59 87 bd 2d e0 9f 3d
       -0.05493027 -0.004148242 -0.066088095 0.0780643
0003c0 0f df c1 bd aa b1 ae bd 8b 4e 96 3c b4 af cf bc
       -0.09466373 -0.085299805 0.018348 -0.025352336
0003d0 59 ef 6b bd 5b 95 78 3d 6b 0e c0 3d 88 24 01 be
       -0.057601307 0.06068931 0.0937775 -0.12611592
0003e0 81 02 73 3c 2e 06 f4 bd 7d 2d 54 3c b6 ab 75 bc
       0.01483214 -0.11915241 0.012950298 -0.014994552
0003f0 fc b6 93 3c da f7 90 3d e1 df 89 3d d0 3a 44 3d
       0.01803159 0.07078524 0.06732155 0.04790765

fc2.bias f4 [10]
000000 a7 7c 8e bc c8 6a e7 bc 3d 87 c6 bd 30 e2 dd bd
       -0.017393423 -0.02824916 -0.096937634 -0.108341575
000010 f0 4d ab 3c aa ad 81 bc af 80 47 bd 47 50 a8 bd
       0.020911187 -0.01582988 -0.048706707 -0.08218437
000020 93 26 20 3c 64 5e b8 bd
       0.009774822 -0.090023786
