classify-ckpt/model_epoch_46.pth (torch, 517704 bytes, 4 tensors)

fc1.weight f4 [80, 1600]
00000000: 5fb9 a03c 2ddf 5dbc 3da3 57bc 6ba0 b0bc
00000010: 3e88 e33b 8b81 aa3c d01c 593c da73 9bbc
00000020: e718 ffbb 9d37 d53b 3114 8ebc 7091 9d3c
00000030: bcdb 20bc 5b4a bd3c b875 963c 0fe5 bdbc
00000040: afa5 99bc cbe9 a23c 6a54 873c 7b6e e33c
00000050: 186d 583b 9f76 923c dff1 94bc 28bc b63c
00000060: 1fd3 7b3a f5f8 c63c a72c 83bc b76b 9bbc
00000070: 0d94 24bc ac50 8dbc d4fc b0bc e221 933c
00000080: 5df2 673c 6d5d 043c dbca d0bb 9a45 07ba
00000090: e0e6 373c 8d09 8a3c 9ab8 e43b 3738 00bc
000000a0: 903a cabc 0df6 c13b 474e 83bb 07c5 403c
000000b0: 49c6 6c3b bb1f bfbc 4837 913c e795 603b
000000c0: 2aa5 b43c 227b dcbc dec4 003c fade 623c
000000d0: 741c d6bc 0575 b63c 6881 de3c c08f 0dbb
000000e0: 63f9 98bc cd36 efb9 6d7f a13c 7e39 fb3c
000000f0: 6750 7e3c b8be 9dbc ca92 9fbc a3e6 af3c
00000100: f492 893a a7e4 7dbc 138a 9a3b f6dc 6d3c
00000110: 3387 1139 ae33 a73b 2451 883c 8089 c73b
00000120: 0d5a 43bc c053 a43b 8d4f 9e3b 02da a83c
00000130: e73d 8e3b 0ddc 5b3c 1a9f 3d3b b330 733c
00000140: a37d e7bc 96f1 febb 7c5a febc 14be 07bc
00000150: 2927 72bc 55bb 9aba 5a83 ec3b bcd1 babc
00000160: 9b99 08bc eecf 183b a425 363c c623 dfbc
00000170: 7916 d3bc 97a9 2f3b e571 933c 90ea 02bd
00000180: 8deb 6cbc eec8 e43c 4f1b 23bb e34f af3c
00000190: 75e7 e0bb 5435 86bc 94a7 fdbc 87ea 203b
000001a0: e83a 69bc e7d7 8abc cea6 01bc fc67 b7bc
000001b0: b6d1 cbbc 4913 b7bc 0b1b 5c3c 9737 24bc
000001c0: efd6 453c 59f3 52bc 8093 9b3c 1615 49bc
000001d0: f30c 4cbc da50 9cbc b7c9 34bc 3093 d8bb
000001e0: 9ab6 17ba cdf4 47bc 75ae c93c 83c3 56bc
000001f0: 9438 e63c d72f c43c db9c b2bc 3a11 c0bb
00000200: 9d3d bd3c 608f b0bc ad65 41bc ca8b b5bc
00000210: be80 033c 3739 053d 6fb7 ab3c bc70 cb3b
00000220: 7315 ae3c 4353 c93c 4042 103c 383e eeba
00000230: 40f2 0f3c babd 293d bba5 863c faf7 583b
00000240: e969 aa3c 6f19 083c 953e c23c c917 dcbc
00000250: 2d46 2bbc 3041 093a 7977 d73b a788 863c
00000260: 5ac7 583b 23d7 383c 63c8 5cbc e061 a6bc
00000270: 40d6 553b 9af3 5a3c 33b7 753b 73b5 11bb
00000280: 3321 9339 bd9f 4b3c a0fd 26bc ba0d 08bc
00000290: 39ff 2a3c cd07 c43c 72c5 97bc 8a8b 3b3c
000002a0: 0ff3 9abc 48ad 3ebc c267 b8bb ebb9 b63c
000002b0: 11cb 17bc 90b3 0e3c 72e2 73bc 6daf de3b
000002c0: e8b9 0e3c 206e b53b 9a43 a03c 5ed9 56bb
000002d0: 5a6a 3a3b 274d 4d3c 04ad 053d 803f ccbb
000002e0: e37d a83c 4d73 c53b 79b1 533c f224 e2bc
000002f0: 1a7b c93c 5271 3bbc f840 edbc cd6c eb3a
00000300: 677d a1bc 3366 db3b 200e 7b3c 92d3 ad3c
00000310: 8b7b 913c af59 ab3c 1069 70bc 9a55 503a
00000320: 2226 c43c cd3c c93c c7df 80bc f87f 9a3c
00000330: 2f4d 61bc 68ed a2bc 800b 8eba 63aa 2bbc
00000340: cbb6 803c db8e dfbc 7ffa 843c 2611 87bb
00000350: 7ff9 aabb a710 4b3c 78b5 c13c cd0c 78b8
00000360: 8261 b93c af14 4f3c 9784 683c 7e0d d23c
00000370: 9012 9b3c 7e8f 743b 695f 963c c325 103c
00000380: 0d9f ea3c 8dbf babb 9a39 15ba 8d8d 9a3c
00000390: ddb8 a43c a54a 7ebc 2302 253c 838d 90bc
000003a0: 3366 47bb a7a3 13bb 47a9 a43c 9500 b03c
000003b0: 7db4 693c e796 60bc 805d 88bb c000 083b
000003c0: 00e6 1dbb 9700 963c e7ee 85bb bdaf 13bc
000003d0: 1c22 a13c 13f4 76bc f293 b6bc 4362 393c
000003e0: 40c7 4c3c d3d1 b7bc 2b09 c03c 8972 86ba
000003f0: 7e0f 963c 3071 16bc 530d 953c 1c4b 123b
0.019619642 -0.013541979 -0.013161478 -0.021560868 0.0069437316 0.020813724 0.013251498 -0.01897614
-0.007784951 0.0065068738 -0.017343612 0.019234389 -0.009818014 0.023106745 0.01836668 -0.023180513
-0.018755762 0.019886872 0.016519744 0.027762642 0.003302401 0.017878829 -0.01818174 0.022306517
0.00096063496 0.024288634 -0.016012503 -0.01897226 -0.010045064 -0.017250381 -0.021604933 0.017960493
0.014156905 0.008078915 -0.0063718385 -0.0005160213 0.0112244785 0.016850257 0.006980014 -0.007825903
-0.024686128 0.005919224 -0.004007134 0.011765725 0.003612893 -0.02333056 0.017726555 0.0034269036
0.022051413 -0.026914183 0.007859437 0.013847107 -0.026136614 0.022272596 0.027161315 -0.0021600574
-0.018673604 -0.00045626462 0.019714082 0.030667063 0.015522099 -0.01925598 -0.019479174 0.02147228
0.0010496066 -0.0154964095 0.0047161668 0.014518013 0.00013878643 0.0051025962 0.016640253 0.0060893893
-0.011923325 0.0050148666 0.0048312605 0.020611767 0.0043408754 0.013419163 0.0028933943 0.014843154
-0.02825815 -0.007780264 -0.031049006 -0.008285064 -0.014779844 -0.0011805097 0.0072178068 -0.022805087
-0.008337404 0.0023317295 0.011117373 -0.027238738 -0.025767552 0.0026803964 0.017998645 -0.031961977
-0.014460457 0.027927842 -0.0024888103 0.021400398 -0.0068635293 -0.01638285 -0.030963697 0.0024553852
-0.014235236 -0.016948653 -0.0079133045 -0.02238845 -0.024880271 -0.022348063 0.013434182 -0.010023019
0.01207517 -0.012875401 0.018991232 -0.012273094 -0.012454259 -0.019081522 -0.011034421 -0.006609343
-0.00057874026 -0.012204361 0.02461932 -0.013108137 0.02810315 0.023948593 -0.02180331 -0.0058614286
0.023100669 -0.021552742 -0.011804027 -0.022161383 0.0080263 0.032525267 0.020961491 0.0062085073
0.021250462 0.024575835 0.008804858 -0.0018176502 0.008785784 0.041440703 0.016436448 0.003310679
0.020802455 0.008306845 0.023711482 -0.02686681 -0.010453743 0.0005235849 0.0065755215 0.016422583
0.0033077807 0.011281761 -0.01347551 -0.020310342 0.0032628924 0.013363743 0.0037493228 -0.0022233396
0.0002806276 0.012428221 -0.010192305 -0.008304054 0.010436826 0.023929501 -0.018526766 0.011446843
-0.018914727 -0.011637993 -0.0056276033 0.02230545 -0.009264723 0.008709803 -0.014885532 0.0067958147
0.008711316 0.0055368096 0.019563485 -0.003278337 0.0028444738 0.012530602 0.032635704 -0.0062331557
0.02056784 0.006025708 0.012920731 -0.027605508 0.024594832 -0.011440592 -0.028961644 0.0017961502
-0.019713117 0.0066955327 0.015323192 0.021219049 0.017759105 0.020916788 -0.014673486 0.0007947326
0.023943964 0.024565125 -0.015731705 0.018859848 -0.013751312 -0.019888595 -0.0010837168 -0.010477635
0.015712162 -0.027289798 0.016232727 -0.0041219173 -0.0052177305 0.012394107 0.023646101 -5.913973e-05
0.022629503 0.012639209 0.014191768 0.0256412 0.01892975 0.0037316973 0.018356042 0.008798066
0.028640294 -0.005699104 -0.0005692482 0.018866325 0.020107681 -0.015520726 0.01007131 -0.017645603
-0.0030425906 -0.0022527964 0.020100249 0.021484653 0.014264223 -0.013707853 -0.0041615367 0.00207524
-0.002409339 0.018310828 -0.0040873173 -0.009014067 0.019669585 -0.01507284 -0.022287343 0.011314931
0.012498677 -0.02243892 0.023441872 -0.0010257523 0.018317934 -0.009182259 0.01819483 0.00223226

fc1.bias f4 [80]
00000000: 0358 f2ba 9a20 7ebc 65a8 973c a0ee d3bb
00000010: b870 023c 3ee5 1fbc dba2 103c 16f6 473c
00000020: 8576 ea3b 4f68 cc3a 6e7f af3b 4439 ad3c
00000030: 23b5 43bb 204d 71bc 7874 bd3c ff5f 49bc
00000040: 9d4d 773c 11b6 6c3c b3fc 003d 6882 2e3a
00000050: ed20 9e3c 6245 0bba 0055 cdba afc8 a03b
00000060: 4f71 46bc 3056 79bb d6ab 5fbc b755 7a3b
00000070: 471a 093a 9646 b23c ff25 e43c 6a22 a13c
00000080: 82c4 053b fd34 59bb e80e 373c a8a1 12bc
00000090: 3e70 513c 09c3 e03b 9365 b63c 6a85 2cbc
000000a0: dae3 883b 9fed adbc 2472 013c ed4f c0ba
000000b0: 82d4 c2bc d112 0a39 418e 853b 60c4 cd3c
000000c0: 054b 17bb b007 e73c d910 babb b7a9 703c
000000d0: b883 e9bb 5d72 a83c e4fb 53bc 084d 963c
000000e0: be9f 853c 3cc1 fdbb ac30 b7bc 8da6 7f3b
000000f0: 1c89 063c 2aa2 b2bc 956e fdbb a2fe a7ba
00000100: 628b 7dbc cd97 ce3c 11ac 073c 9ce4 84bb
00000110: 25da 87bc 8328 14bc 717e c2bb 5ee9 8a3c
00000120: c33a 023c e67f c83c f999 adbc 2fcb a43c
00000130: 418c 69bc 6c19 bebb c2f8 babc f04e 1e3b
-0.0018489364 -0.0155107025 0.018512914 -0.0064676553 0.007961445 -0.009759245 0.00882789 0.012204668
0.007155242 0.0015595051 0.005355767 0.02114547 -0.0029862605 -0.014727861 0.023126826 -0.012290954
0.015094188 0.014447705 0.031490993 0.0006657005 0.01930281 -0.0005312768 -0.0015665591 0.004906736
-0.012111976 -0.0038045757 -0.013651809 0.0038198063 0.0005230051 0.021762174 0.02785015 0.01966973
0.0020411317 -0.0033143156 0.0111729875 -0.008949675 0.012783108 0.0068591875 0.022265231 -0.010529855
0.0041775526 -0.02123147 0.007900748 -0.0014672257 -0.023782972 0.00013167715 0.004075796 0.025118053
-0.0023085487 0.028201908 -0.005678278 0.014688901 -0.007126298 0.020562345 -0.012938473 0.018347278
0.016311523 -0.0077439826 -0.022362076 0.0039009184 0.0082114 -0.021805841 -0.0077341297 -0.0012816975
-0.015475126 0.025218869 0.00828077 -0.0040555727 -0.016583512 -0.009042862 -0.005935483 0.016956981
0.00794858 0.02447505 -0.021191584 0.020116417 -0.014254631 -0.0058013704 -0.022823695 0.0024155937

fc2.weight f4 [10, 80]
00000000: ffae fabc 0e3d 4ebc f98d 483d 4549 113d
00000010: 6fa0 7c3c 3599 473d be62 463d 58ca 07bd
00000020: ec72 b1bc 8782 f03b 1bea 90bd 8b6e cdbd
00000030: 4543 a2bd 73d3 a9bc 7bfe f4bd 4534 c2bd
00000040: c61c 913d eef3 b53d 9c6b f9bd 15e0 4d3d
00000050: dba5 1c3a 93d9 d9bd aa7e c13c 8fa6 8ebd
00000060: 078f a73d cca3 f53c 2408 3f3c ef85 abbd
00000070: 10ab 7d3d 8515 88bd fda1 d9bd d879 a73d
00000080: 5428 7cbd 93d6 5abd 59be 98bd 6e8e 7d3d
00000090: bafe b63d 6715 b13d f843 6e3d d6c1 e6bd
000000a0: 29fa 4fba 796a ab3d 8c5b 80bd 5bb8 dcbd
000000b0: ede8 923c f956 3ebd 285a 193d 7eb4 fdbc
000000c0: 6efc 173d 33ba 1cbd 0ca3 93bc 7f16 18bd
000000d0: 22fe bfbd 5595 21bd 88fd 90bd b245 b4bc
000000e0: 5711 43bd 59bb 2dbd a3f2 a73d efad c8bd
000000f0: 5397 873d 5c01 43bc 7d7c 8dbd 1ebe e6bd
00000100: 700f 0e3d 0a35 0d3d 4731 6f3d d537 db3d
00000110: 3884 e5bd 7321 77bd 6595 ac3d 9a8c a3bd
00000120: 4301 873d c4c5 163d 3216 b53d 1de5 a23d
00000130: 6d1f be3d d085 05bd b30a 0abd 0027 fc3b
00000140: 57aa 7e3d db0e 2b3c ba7e 183d 0bd4 b3bd
00000150: ec00 c73d 0c32 c4bd b5be d43c 31fa e4bd
00000160: d4aa 3fbd 082f dcbd 2d60 74bd 6288 f1bd
00000170: e649 28bd 203f aabd 1f9b 1a3c 5972 78bd
00000180: 4fd1 633d 8735 e0bd 27ba 763a 83e6 b03c
00000190: ef4c f6bc a7e4 0bbd b126 c0bd ca32 b13d
000001a0: ef62 6a3d 0ad7 b4bd ce75 5cbc 08e4 18bd
000001b0: 5476 933d 992d 51bd bd86 76bd 8985 7b3d
000001c0: 1883 febd 5864 51bd 08ab 07bc 7ff5 703c
000001d0: 64a5 b1bd 4ab9 813d 0cec 9f3d 05b6 98bd
000001e0: f58e 90bc 651b 85bd 6618 a93d 8251 b3bd
000001f0: 7a1a 76bd e9e7 563d b33c 1ebd 89a0 80bd
00000200: cb42 91bd 15b3 cdbd 1afc 9a3d 333d 10bc
00000210: 5857 a9bd e4af 493d a899 babd 428a 5e3d
00000220: a5d1 b13d 00f9 733a 177c 6a3d 87a5 c73c
00000230: 689b 68bd 0670 463d 8af2 ddbd 5cc2 c93d
00000240: 751b d63d 65c8 e93c fb9d da3d 3041 babd
00000250: 6f62 acbd 55b5 da3c e044 4e3d c488 433d
00000260: 29b1 51bd a377 ac3d 3ae7 d03c cfa7 f23b
00000270: c298 6b3b 6cdf 82bd 7ce7 033c 6e90 16bc
00000280: 4fc3 54bc e837 293d 0234 f3bd 8066 19bd
00000290: 7f39 81bd b85a 2cbd c18e 34bc 2356 873d
000002a0: eb82 543d 96ef f9bd 3672 e9bc 826b eabd
000002b0: 0c76 ba3d 9f54 92bd 9b4e b0bd 92a2 73bd
000002c0: 0f8c bfbd cae9 89bd a100 773d 41e6 c03d
000002d0: 8962 863d 657f 34bd 2f24 37bd b8d6 e2bd
000002e0: 20eb 753d 0c04 5b3d 20f4 a13d 95f4 69bd
000002f0: 636c a9bd b826 f7bc 3868 dabd ebe2 593d
00000300: 0a73 02be 517d 3e3d f4c2 9c3d 7984 bd3d
00000310: 3c7d 44bd 399b a2bd bc2c b53d d002 81bd
00000320: 56a8 ccbd a4ff 1dbc 6fa0 a13d 4ba1 863d
00000330: 8fcf 01bd 22ba 393c ed6f 943d df51 f33a
00000340: 825d 71bc 40f6 9a3d 7a1e aebc 4331 b9bd
00000350: fbb2 f9bd aa93 b93d f5e2 843d 94c4 293d
00000360: 9468 533d be4c 533d ce02 c63d be2c d3bd
00000370: 0e98 903d 6ec1 e8bc 07f7 ad3d a2ed abbc
00000380: 23f1 97bd 7599 01be f494 c6bd 0797 87bd
00000390: 1814 003d ca16 eabd a2f8 03bd 4a78 893d
000003a0: c253 4fbd 5c6c f3bc d22e 2cbb 1078 2cbd
000003b0: 8f17 60bd c3e7 29bb f326 84bd 44fe a23d
000003c0: 0fab bebd aa7d abbd 861e a33c b607 c3bc
000003d0: a9ec 6bbd c7ab 7d3d ff41 c33d 313b ffbd
000003e0: d717 863c 65ed f0bd 56cc 6d3c 2fa1 75bc
000003f0: eb84 a03c daf7 903d c813 8d3d 33a2 4a3d
-0.030601023 -0.012587799 0.04896352 0.035470266 0.01541911 0.048730094 0.04843401 -0.033151954
-0.021661244 0.007339779 -0.07075902 -0.1003085 -0.07922987 -0.02073071 -0.11962601 -0.09482626
0.07085566 0.088844165 -0.12178728 0.05026253 0.0005975642 -0.10637202 0.023619968 -0.06965362
0.08181577 0.029985331 0.011659656 -0.08375155 0.061930716 -0.066447295 -0.106266 0.08177537
-0.061561897 -0.05342729 -0.07458181 0.06190341 0.08935304 0.0864666 0.05817029 -0.1126744
-0.00079337 0.083699174 -0.06267461 -0.107773505 0.017933333 -0.046469662 0.037439495 -0.030969854
0.03710597 -0.03826351 -0.018022083 -0.03713083 -0.09374644 -0.039449055 -0.07079607 -0.02200589
-0.04762396 -0.042414997 0.08200576 -0.097988 0.0662066 -0.01190218 -0.0690851 -0.11266731
0.03468269 0.03447441 0.058396604 0.107040085 -0.11206859 -0.060334634 0.08426932 -0.07985802
0.065920375 0.036809698 0.08842124 0.07953856 0.09283338 -0.032598317 -0.03370161 0.007695079
0.062174167 0.010440554 0.03723023 -0.08780678 0.09716973 -0.09579858 0.025969842 -0.11180533
-0.046793774 -0.10751158 -0.059662033 -0.11793591 -0.0410861 -0.083128214 0.009436398 -0.060655925
0.055619534 -0.109477095 0.0009411894 0.021594292 -0.030065982 -0.034153607 -0.0938238 0.08652265
0.057223257 -0.08830078 -0.013455821 -0.037326843 0.07200304 -0.051068876 -0.06018709 0.061406646
-0.12427348 -0.051121086 -0.008280523 0.014706968 -0.08674124 0.06334169 0.07808694 -0.074565925
-0.017646292 -0.06499366 0.08256607 -0.08755781 -0.060083844 0.05246726 -0.038632106 -0.0628062
-0.07092818 -0.10043923 0.07567616 -0.0088036535 -0.082686126 0.049240008 -0.09111339 0.05433107
0.08682565 0.0009306818 0.057247248 0.024370922 -0.056788832 0.048446678 -0.10837276 0.09851524
0.10454456 0.028537938 0.10674664 -0.09094465 -0.08417212 0.026697794 0.050358653 0.04773785
-0.051194344 0.084212564 0.025500882 0.0074052582 0.0035949205 -0.063902706 0.008050796 -0.009189708
-0.012986018 0.041313082 -0.11875154 -0.037451267 -0.06309795 -0.042078704 -0.011020363 0.06608226
0.051882666 -0.122039005 -0.028496843 -0.11446287 0.09104547 -0.071450464 -0.08608743 -0.05948121
-0.09352886 -0.06734045 0.060303334 0.094189174 0.06561763 -0.044066805 -0.04471224 -0.110761106
0.060038686 0.053470656 0.07907891 -0.057118017 -0.08272626 -0.03016983 -0.106644094 0.05319492
-0.12739196 0.04650623 0.07654372 0.09253783 -0.047970995 -0.079397626 0.08846423 -0.062993646
-0.09993045 -0.009643469 0.078919284 0.06573733 -0.031692084 0.011335881 0.07247911 0.0018563828
-0.014731767 0.075665 -0.021254767 -0.09042599 -0.12192341 0.09061368 0.06488601 0.041447237
0.051613405 0.05158686 0.09668504 -0.10311268 0.07060252 -0.028412547 0.08494382 -0.020987336
-0.0741904 -0.12656195 -0.09696379 -0.06620603 0.031269163 -0.11430128 -0.032219537 0.067123964
-0.050616987 -0.029714756 -0.0026273024 -0.042106688 -0.054709967 -0.0025925494 -0.064527415 0.079586536
-0.093099706 -0.08373578 0.019912016 -0.023807388 -0.057598744 0.061931398 0.09534072 -0.12462462
0.01636879 -0.117640294 0.0145140495 -0.014992042 0.01959463 0.07078524 0.068885386 0.04947109

fc2.bias f4 [10]
00000000: e8ac 81bc 0e19 eabc 8057 c3bd e7ae dabd
00000010: d75e ad3c 1ebd 69bc 7219 41bd ad1d a5bd
00000020: 7ec2 393c 0e2d b5bd
-0.015829518 -0.0285764 -0.09538174 -0.10677891 0.021163387 -0.01426628 -0.047143407 -0.08062301
0.011337874 -0.08846484
