classify-ckpt/model_epoch_5.pth (torch, 517696 bytes, 4 tensors)

fc1.weight f4 [80, 1600]
000000 5f b9 a0 3c 2d df 5d bc 3d a3 57 bc 6b a0 b0 bc
       0.019619642 -0.013541979 -0.013161478 -0.021560868
000010 f9 da 3b 3b 8b 81 aa 3c d0 1c 59 3c da 73 9b bc
       0.0028664453 0.020813724 0.013251498 -0.01897614
000020 e7 18 ff bb ed 42 55 3c 3d 6a 57 bc 70 91 9d 3c
       -0.007784951 0.013016445 -0.013147888 0.019234389
000030 32 a2 d4 bb 5b 4a bd 3c 83 5f a0 3c 0f e5 bd bc
       -0.0064890618 0.023106745 0.019576794 -0.023180513
000040 af a5 99 bc cb e9 a2 3c 6a 54 87 3c 63 ee 85 3c
       -0.018755762 0.019886872 0.016519744 0.016349023
000050 1f a2 1b bc 9f 76 92 3c df f1 94 bc 28 bc b6 3c
       -0.009499102 0.017878829 -0.01818174 0.022306517
000060 bb 40 4c bb f5 f8 c6 3c a7 2c 83 bc 04 38 84 bc
       -0.0031166512 0.024288634 -0.016012503 -0.016139992
000070 0d 94 24 bc b2 bb b8 bb c1 9d 8e bc e2 21 93 3c
       -0.010045064 -0.0056376094 -0.017409207 0.017960493
000080 5d f2 67 3c 6d 5d 04 3c ae 23 a9 bb 9a 45 07 ba
       0.014156905 0.008078915 -0.005161724 -0.0005160213
000090 e0 e6 37 3c 8d 09 8a 3c 9a b8 e4 3b 37 38 00 bc
       0.0112244785 0.016850257 0.006980014 -0.007825903
0000a0 90 3a ca bc 0d f6 c1 3b 47 4e 83 bb 07 c5 40 3c
       -0.024686128 0.005919224 -0.004007134 0.011765725
0000b0 ce 79 f3 b9 bb 1f bf bc 48 37 91 3c e7 95 60 3b
       -0.00046439323 -0.02333056 0.017726555 0.0034269036
0000c0 2a a5 b4 3c 92 27 a7 bc 01 83 45 3c fa de 62 3c
       0.022051413 -0.02040461 0.01205516 0.013847107
0000d0 24 d7 ba bc 05 75 b6 3c 33 6b e8 3c c0 8f 0d bb
       -0.022807665 0.022272596 0.02837143 -0.0021600574
0000e0 63 f9 98 bc cd 36 ef b9 2d 5a e0 3b 8b 36 b1 3c
       -0.018673604 -0.00045626462 0.0068466873 0.021632453
0000f0 08 4c 32 3b b8 be 9d bc ca 92 9f bc a3 e6 af 3c
       0.0027205963 -0.01925598 -0.019479174 0.02147228
000100 09 6c 46 bb a7 e4 7d bc 13 8a 9a 3b 2c 22 8e 3c
       -0.0030276796 -0.0154964095 0.0047161668 0.017350279
000110 33 87 11 39 a9 ee 88 3c 37 b0 aa 3c 80 89 c7 3b
       0.00013878643 0.016715365 0.020835979 0.0060893893
000120 0d 5a 43 bc c0 53 a4 3b ba f6 c5 3b 02 da a8 3c
       -0.011923325 0.0050148666 0.006041375 0.020611767
000130 e7 3d 8e 3b 0d dc 5b 3c 1a 9f 3d 3b b3 30 73 3c
       0.0043408754 0.013419163 0.0028933943 0.014843154
000140 90 1e c5 bc 9a ea 6a bb 69 fb db bc e0 ff 85 bb
       -0.024062425 -0.00358454 -0.02685328 -0.0040893406
000150 c6 e3 62 bc e6 9a 45 3b d0 ff 3a 3c a9 72 98 bc
       -0.013848251 0.003015214 0.0114135295 -0.018609362
000160 ed b6 87 bb 2d f7 1a 3c c7 e3 7a 3c b3 c4 bc bc
       -0.0041416795 0.009458345 0.015313095 -0.023043012
000170 12 5f ad bc 14 51 e1 3b e3 ea ae 3c 0e 76 e3 bc
       -0.021163497 0.0068761203 0.021352237 -0.027766254
000180 6a 2d 28 bc b5 cd 91 3c 83 ba df 3a dc 99 4a 3c
       -0.010264734 0.017798284 0.0017069135 0.0123657845
000190 59 d6 2e bb 60 84 c5 bc 81 48 db bc 8c f1 d9 3b
       -0.0026678054 -0.024110973 -0.026767971 0.006651109
0001a0 28 49 32 bc aa f1 50 bc a7 a2 73 bb 91 da 94 bc
       -0.0108817 -0.01275293 -0.0037175806 -0.018170627
0001b0 a3 72 a9 bc 4a d3 25 bc 97 6c 90 3c e7 f2 be bb
       -0.020684546 -0.010121176 0.017629905 -0.005827296
0001c0 89 4a 85 3c 36 35 0e bc 0b a1 b9 3c f3 56 04 bc
       0.016270893 -0.008679679 0.0226598 -0.008077371
0001d0 d0 4e 07 bc 8d e3 73 bc 27 17 e0 bb cd 2d 1e bb
       -0.008258536 -0.014885795 -0.0068386975 -0.0024136186
0001e0 9a b6 17 ba cd f4 47 bc 75 ae c9 3c 83 c3 56 bc
       -0.00057874026 -0.012204361 0.02461932 -0.013108137
0001f0 e4 d1 c4 3c d7 2f c4 3c db 9c b2 bc 3a 11 c0 bb
       0.024025865 0.023948593 -0.02180331 -0.0058614286
000200 9d 3d bd 3c a0 77 76 bc 14 4f f9 bb ca 8b b5 bc
       0.023100669 -0.015043169 -0.007608304 -0.022161383
000210 60 0b 3a 3c ed 0b e9 3c 3a a1 b5 3c 7e ad 0b 3b
       0.011355251 0.02844807 0.022171605 0.0021313126
000220 73 15 ae 3c c3 d4 3f 3c 40 42 10 3c b2 cd 31 bc
       0.021250462 0.011708441 0.008804858 -0.010852264
000230 40 f2 0f 3c c1 9c ea 3c bb a5 86 3c 42 1e 94 3b
       0.008785784 0.0286392 0.016436448 0.0045202086
000240 39 03 89 3c 91 ea 1b 3c 95 3e c2 3c 16 e4 c4 bc
       0.01672517 0.009516374 0.023711482 -0.024034541
000250 2d 46 2b bc 8d d7 46 3c e0 79 30 3c a7 88 86 3c
       -0.010453743 0.012136352 0.010771245 0.016422583
000260 5a c7 58 3b 23 d7 38 3c ca f4 48 bc e0 61 a6 bc
       0.0033077807 0.011281761 -0.0122653935 -0.020310342
000270 40 d6 55 3b 9a f3 5a 3c 33 b7 75 3b 73 b5 11 bb
       0.0032628924 0.013363743 0.0037493228 -0.0022233396
000280 33 21 93 39 bd 9f 4b 3c a0 fd 26 bc ba 0d 08 bc
       0.0002806276 0.012428221 -0.010192305 -0.008304054
000290 b0 63 d0 3b cd 07 c4 3c 72 c5 97 bc 8a 8b 3b 3c
       0.00635954 0.023929501 -0.018526766 0.011446843
0002a0 0f f3 9a bc 53 0c a8 bb e6 ad bb ba eb b9 b6 3c
       -0.018914727 -0.0051284223 -0.0014318794 0.02230545
0002b0 07 98 5a bc 90 b3 0e 3c d9 0e 60 bc 6d af de 3b
       -0.01334191 0.008709803 -0.013675415 0.0067958147
0002c0 87 4a 92 39 20 6e b5 3b 9a 43 a0 3c 42 bc 49 bc
       0.00027902817 0.0055368096 0.019563485 -0.012312951
0002d0 5a 6a 3a 3b 27 4d 4d 3c 07 47 e3 3c 80 3f cc bb
       0.0028444738 0.012530602 0.02774383 -0.0062331557
0002e0 33 17 87 3c 4d 73 c5 3b 9b 82 67 3c 3f f1 ca bc
       0.016490554 0.006025708 0.01413026 -0.024773238
0002f0 1a 7b c9 3c 75 8a 34 39 e5 e1 ca bc cd 6c eb 3a
       0.024594832 0.00017217717 -0.024765918 0.0017961502
000300 67 7d a1 bc 33 66 db 3b db 70 87 3c 92 d3 ad 3c
       -0.019713117 0.0066955327 0.016533306 0.021219049
000310 8b 7b 91 3c af 59 ab 3c 10 69 70 bc 9a 55 50 3a
       0.017759105 0.020916788 -0.014673486 0.0007947326
000320 22 26 c4 3c cd 3c c9 3c c7 df 80 bc f8 7f 9a 3c
       0.023943964 0.024565125 -0.015731705 0.018859848
000330 49 0d 92 bc 68 ed a2 bc 80 0b 8e ba 63 aa 2b bc
       -0.0178286 -0.019888595 -0.0010837168 -0.010477635
000340 cb b6 80 3c 4b 3b aa bc 92 59 a7 3c 91 55 06 bc
       0.015712162 -0.020780226 0.020428453 -0.008199112
000350 e5 90 f7 ba a7 10 4b 3c 43 9f cb 3c cd 0c 78 b8
       -0.0018887786 0.012394107 0.024856215 -5.913973e-05
000360 3f f1 1f 3c b3 47 0c 3c 97 84 68 3c 8b 0a 88 3c
       0.009762107 0.008562016 0.014191768 0.01660659
000370 90 12 9b 3c 03 ea a1 3b d8 02 b6 3b c3 25 10 3c
       0.01892975 0.0049412264 0.005554538 0.008798066
000380 5d 38 c9 3c 8d bf ba bb 9a 39 15 ba 3e 76 a4 3c
       0.024563009 -0.005699104 -0.0005692482 0.020075914
000390 dd b8 a4 3c 52 0e 80 bb 46 c0 69 3c 83 8d 90 bc
       0.020107681 -0.003907957 0.014267033 -0.017645603
0003a0 33 66 47 bb a7 a3 13 bb 12 93 ae 3c 95 00 b0 3c
       -0.0030425906 -0.0022527964 0.021310363 0.021484653
0003b0 7d b4 69 3c e7 96 60 bc 80 5d 88 bb c0 00 08 3b
       0.014264223 -0.013707853 -0.0041615367 0.00207524
0003c0 00 e6 1d bb 97 00 96 3c e7 ee 85 bb bd af 13 bc
       -0.002409339 0.018310828 -0.0040873173 -0.009014067
0003d0 d8 76 7f 3c 13 f4 76 bc f2 93 b6 bc 43 62 39 3c
       0.015592299 -0.01507284 -0.022287343 0.011314931
0003e0 40 c7 4c 3c 43 7e 82 bc ab a2 9e 3c 4c bf 4f 3b
       0.012498677 -0.015929347 0.019364676 0.0031699715
0003f0 ce 54 b1 3c 30 71 16 bc 1e f7 9e 3c fe 3e 2e bc
       0.021646883 -0.009182259 0.019404944 -0.010635136

fc1.bias f4 [80]
000000 a3 54 b7 bb 13 f1 a1 bc 05 ea 94 3c ff ed 0a bc
       -0.0055948063 -0.019768273 0.018177995 -0.008479594
000010 e5 e0 ce 3b 47 22 55 bc 78 e8 12 3c 49 fb 69 3b
       0.0063134306 -0.013008661 0.008966558 0.0035702756
000020 b4 ba 95 bb ad c1 08 bc 3c 70 a9 3b fc bc 9c 3c
       -0.004569376 -0.008346957 0.00517085 0.019133084
000030 eb 4e 82 bb 20 4d 71 bc 11 1d 97 3c f0 4e 7c bc
       -0.003976693 -0.014727861 0.018446477 -0.01539968
000040 9a 36 3d 3c 6b f4 4b 3c 3e c7 ec 3c 46 52 c3 ba
       0.011548663 0.0124484105 0.0289036 -0.0014901839
000050 87 91 90 3c 26 49 01 bc 00 55 cd ba 35 43 24 3b
       0.017647518 -0.007890975 -0.0015665591 0.0025064473
000060 21 7e 66 bc 76 86 b0 bb df c9 7a bc 53 10 a9 bb
       -0.014068157 -0.0053871227 -0.015306919 -0.0051594167
000070 54 20 e8 bb 19 ef 8b 3c ac d9 d1 3c 1c df 95 3c
       -0.007083932 0.017081784 0.02561649 0.018294863
000080 2f 2f 0f bc fd 34 59 bb 95 cc 11 3c a8 a1 12 bc
       -0.008739277 -0.0033143156 0.008898874 -0.008949675
000090 7a 53 3d 3c bb cb 0e 3b 12 6c a6 3c 59 96 48 bc
       0.011555547 0.0021788913 0.020315204 -0.012242877
0000a0 3b 19 cf 3a f6 10 b1 bc 32 ae c2 3b e6 c2 16 bb
       0.0015800366 -0.021614533 0.005941176 -0.0023004352
0000b0 82 d4 c2 bc 96 9f 21 bb 4e 4f 35 3b 75 d0 83 3c
       -0.023782972 -0.002466177 0.0027665677 0.016090611
0000c0 da 3a 8a bb a6 15 da 3c 97 9f ab bb 3e 4a 89 3b
       -0.0042184414 0.02662165 -0.0052375305 0.0041897586
0000d0 7d e8 0c bc 18 c5 af 3c 2a df 6a bc 76 08 8d 3c
       -0.008600351 0.021456286 -0.014335433 0.017215949
0000e0 4b 4e 81 3c 94 30 05 bc 35 ed af bc 8d a6 7f 3b
       0.015784403 -0.008129258 -0.021475414 0.0039009184
0000f0 df b1 42 bb 80 b1 d0 bc 7c 63 a2 bc a2 fe a7 ba
       -0.002970807 -0.025475264 -0.019822828 -0.0012816975
000100 3c 66 90 bc 6f 50 ac 3c 1e c1 ca 3b 9c e4 84 bb
       -0.017626874 0.021034447 0.006187572 -0.0040555727
000110 04 11 8c bc 14 72 36 bc 5c 24 7f bc 10 5a 6c 3c
       -0.017097957 -0.011135597 -0.015572634 0.014425769
000120 65 d3 39 ba 20 04 ad 3c 25 80 b0 bc ad af 93 3c
       -0.000708869 0.021120131 -0.02154548 0.018028105
000130 5d 2d 87 bc 33 ca 9e bb 9f 9e bd bc 89 80 e8 39
       -0.016501123 -0.0048458814 -0.023146925 0.00044346254

fc2.weight f4 [10, 80]
000000 6c f3 90 bc f0 2d a7 39 b4 6b 7d 3d 47 15 46 3d
       -0.017694198 0.00031886948 0.06187029 0.048360135
000010 0c 17 bb 3c a3 68 7c 3d f0 3f 7b 3d be 1d a6 bc
       0.022838138 0.061623227 0.061340272 -0.020277854
000020 1b c9 0f bc 7b 83 a5 3c 93 f6 6c bd 89 74 be bd
       -0.008775975 0.020204296 -0.05785234 -0.09299571
000030 d3 d4 87 bd 73 d3 a9 bc a7 8f da bd 98 c5 a7 bd
       -0.0663239 -0.02073071 -0.10671931 -0.08191985
000040 ab 8b ab 3d ce 5c d0 3d 49 fd de bd 37 5e 81 3d
       0.08376249 0.10173951 -0.10888154 0.06316798
000050 63 40 5d 3c 52 78 bf bd aa 7e c1 3c 6a 6f 68 bd
       0.0135041205 -0.09349121 0.023619968 -0.056746878
000060 5a fd c1 3d e1 ae 2f 3d 29 3f c9 3c 81 17 91 bd
       0.09472151 0.042891387 0.02456625 -0.07084561
000070 68 44 99 3d 75 4d 5b bd 57 55 ca bd f2 e7 c1 3d
       0.074837506 -0.053540666 -0.098795585 0.09468068
000080 fa 52 47 bd 93 d6 5a bd f3 9e 7c bd 6e 8e 7d 3d
       -0.048663117 -0.05342729 -0.061675023 0.06190341
000090 c5 af ce 3d 2b 84 cb 3d d8 90 91 3d 25 53 cc bd
       0.10092119 0.099373184 0.07107705 -0.09976796
0000a0 1e 74 46 3c 30 c1 c5 3d 5e b2 62 bd 68 5f ce bd
       0.012112645 0.09655988 -0.055345885 -0.10076791
0000b0 ed e8 92 3c dc 79 09 bd 3c 37 4e 3d 64 34 94 bc
       0.017933333 -0.03356348 0.050345644 -0.018091388
0000c0 5b ce 36 3d 08 bb cf bc aa 9e a7 bb c9 80 c6 bc
       0.04463039 -0.025357738 -0.00511535 -0.024231331
0000d0 0f 93 a5 bd f4 71 d9 bc c8 1d 6d bd 25 1e 15 bc
       -0.0808469 -0.026543595 -0.05788973 -0.009101425
0000e0 46 34 0e bd ce bb f1 bc 77 61 c2 3d ef ad c8 bd
       -0.03471782 -0.029508498 0.09491246 -0.097988
0000f0 3f fa a1 3d 93 95 81 3a fd 22 66 bd 1e be e6 bd
       0.07909059 0.0009886496 -0.05618571 -0.11266731
000100 1e ed 42 3d a0 de 41 3d 75 07 92 3d d5 37 db 3d
       0.047589414 0.047331452 0.071303286 0.107040085
000110 a2 15 cb bd 29 44 42 bd fb ee c6 3d 6a 1e 89 bd
       -0.099162355 -0.047428284 0.09713551 -0.06695254
000120 c8 6d a1 3d 88 a3 4b 3d 07 e6 cb 3d af 4c bd 3d
       0.07882267 0.049716502 0.099559836 0.09243142
000130 71 7c cd 3d 70 52 a1 bc 06 5c aa bc 29 c3 a8 3c
       0.10033501 -0.01969263 -0.020795833 0.020600872
000140 1e ff 7a 3d e3 2c 24 3c 7b d3 14 3d 61 cc 99 bd
       0.061278455 0.010020467 0.036334496 -0.07509685
000150 d3 5b cb 3d 70 3a af bd 40 fa dc 3c 0b 1c ce bd
       0.099296235 -0.08556068 0.026974797 -0.100639425
000160 f7 2f 0b bd d2 00 c2 bd e1 18 76 bd 30 48 ed bd
       -0.03398129 -0.09472813 -0.06008232 -0.11586034
000170 88 ef 25 bd 20 3f aa bd 41 da 1e 3c 96 1d 7c bd
       -0.040511638 -0.083128214 0.0096955905 -0.061551653
000180 10 26 60 3d 85 d9 c5 bd 94 c6 9d 3b 29 50 cc 3c
       0.0547238 -0.09660629 0.004814932 0.024940567
000190 67 a3 fd bc fe 50 bb bc b1 26 c0 bd 2e 5d af 3d
       -0.030961705 -0.022865769 -0.0938238 0.085626945
0001a0 c4 16 75 3d 30 52 b4 bd bf 22 6b bc d2 34 fa bc
       0.059836164 -0.088047385 -0.014351546 -0.030542765
0001b0 b8 a0 91 3d 42 75 4b bd c7 d7 6d bd 2c 97 7e 3d
       0.07110733 -0.049672373 -0.05806711 0.062155887
0001c0 e3 1d e4 bd 58 64 51 bd 85 57 16 bc 7f f5 70 3c
       -0.11138513 -0.051121086 -0.00917614 0.014706968
0001d0 31 ee 99 bd 78 95 84 3d fe 70 9d 3d 6b 8f 96 bd
       -0.075161345 0.064738214 0.07687567 -0.073515736
0001e0 f8 a5 61 bc 74 71 55 bd 48 5c ad 3d ad 2f af bd
       -0.01377248 -0.05211015 0.08464867 -0.08554015
0001f0 7a 1a 76 bd c8 f1 51 3d 6d e2 1b bd 92 ad 4c bd
       -0.060083844 0.05125597 -0.038057733 -0.049970217
000200 38 da 8c bd 36 64 b8 bd 7c 26 99 3d 39 71 85 3b
       -0.068775594 -0.09003489 0.074780434 0.004072335
000210 5b af 92 bd c3 b9 44 3d bb 2f b9 bd 82 49 69 3d
       -0.07162353 0.04802872 -0.09042307 0.05695487
000220 65 59 b2 3d 9d b0 12 38 d9 d0 66 3d 87 a5 c7 3c
       0.08708457 3.4973596e-05 0.056351516 0.024370922
000230 a5 e6 33 bd 94 27 7b 3d 6c 1a c5 bd 5c c2 c9 3d
       -0.04392113 0.06131704 -0.0962418 0.09851524
000240 d7 45 d4 3d 57 67 29 3d ec 22 d8 3d 30 41 ba bd
       0.103648834 0.04135832 0.10553536 -0.09094465
000250 7c 78 aa bd 0a 96 f1 3c 6d 64 81 3d c3 66 53 3d
       -0.08323762 0.02949049 0.06317983 0.051611673
000260 48 22 2f bd 06 a2 aa 3d e0 9b 12 3d 45 e4 a5 3c
       -0.042757303 0.08331685 0.035793185 0.020250449
000270 7a 93 bb 3b b1 b6 7d bd af 9d c8 3b 7c 53 e6 bb
       0.0057243677 -0.061941806 0.006122313 -0.007028995
000280 7c d1 a9 b8 94 0d 5e 3d 80 c6 d8 bd 32 11 ca bc
       -8.0975675e-05 0.054212168 -0.10584736 -0.024666402
000290 a2 d3 68 bd 62 57 ef bc 09 52 f5 3a e5 b7 9e 3d
       -0.056842454 -0.029216472 0.0018716465 0.07749919
0002a0 fa a8 84 3d dd 88 df bd 28 7f 7f bc 70 d0 dd bd
       0.06477542 -0.109147765 -0.015594281 -0.10830772
0002b0 cc e1 d4 3d 9f 54 92 bd f1 e0 95 bd 37 c9 3e bd
       0.1039463 -0.071450464 -0.07318295 -0.046578612
0002c0 f8 1d a5 bd a5 2d 5f bd a7 ec 95 3d ba 4a db 3d
       -0.08062357 -0.05448689 0.073205285 0.10707612
0002d0 2b cc 9d 3d 34 69 ff bc 2f 24 37 bd 07 69 c8 bd
       0.077049576 -0.031178094 -0.04471224 -0.097856574
0002e0 0b ec 8c 3d 21 eb 87 3d 7d 60 bc 3d f4 1f 35 bd
       0.06880959 0.06636644 0.09198091 -0.044219926
0002f0 3f fe 8e bd b6 72 8d bc d9 82 cd bd 3a 5a 87 3d
       -0.06982087 -0.017266612 -0.10034723 0.06609006
000300 9e 7d ea bd 51 7d 3e 3d 6e 30 b7 3d 79 84 bd 3d
       -0.11449741 0.04650623 0.08944784 0.09253783
000310 76 7b 11 bd eb 2e 88 bd 94 99 cf 3d 31 30 4d bd
       -0.035518132 -0.06649574 0.101367146 -0.050094787
000320 75 3c b2 bd 50 23 1b 3b 87 43 ae 3d aa b2 92 3d
       -0.087029375 0.002367217 0.085089736 0.07162984
000330 8f cf 01 bd a1 8c c6 3c c9 db ae 3d 77 a7 71 3c
       -0.031692084 0.024236979 0.085380144 0.014749399
000340 04 5a 09 bc 4d 5e b5 3d 2b d4 08 bc d7 ca 9e bd
       -0.008383278 0.08855877 -0.008351366 -0.077535324
000350 0f 5d df bd 03 fe d3 3d 4a 48 9f 3d c7 6c 59 3d
       -0.109064214 0.10351183 0.0777746 0.053082254
000360 4f 94 81 3d 52 13 84 3d 94 fd da 3d be 2c d3 bd
       0.06327116 0.064489976 0.106928974 -0.10311268
000370 14 ff aa 3d 5e 2e 7f bc 10 5f c8 3d a2 ed ab bc
       0.083494335 -0.01557502 0.09783757 -0.020987336
000380 e8 07 7b bd 3f 1a e9 bd 33 28 ac bd 07 97 87 bd
       -0.061286837 -0.11381959 -0.08406105 -0.06620603
000390 31 9f 26 3d 0e af cf bd 3d 5a 9e bc d7 6d 9b 3d
       0.04067916 -0.10140811 -0.019330138 0.0758931
0003a0 f6 80 1a bd ad b6 89 bc cf a9 12 3c 8a ce ef bc
       -0.037720643 -0.01681074 0.008951618 -0.02927329
0003b0 3c 2e 46 bd db 67 b0 3b 20 78 53 bd c2 5b bd 3d
       -0.048383936 0.0053834743 -0.051628232 0.09246017
0003c0 bf 90 a6 bd 3f 0f 91 bd 7d 12 ef 3c 73 bd 32 bc
       -0.08133077 -0.07082986 0.02918362 -0.010909426
0003d0 f4 c9 65 bd 1b ea 8a 3d c5 ca c2 3d 82 35 e7 bd
       -0.0561008 0.06782933 0.095113315 -0.11289503
0003e0 27 b7 ef 3c 2b 8e d6 bd 37 4e d7 3c 7c b0 5d bc
       0.029262139 -0.10476335 0.026282413 -0.013530847
0003f0 50 78 bd 3c da f7 90 3d c9 2d a5 3d f4 ff 6c 3d
       0.023128659 0.07078524 0.080653735 0.057861283

fc2.bias f4 [10]
000000 d9 97 3f bb 5a 64 e5 bc 2c ef a8 bd 19 96 c2 bd
       -0.0029234795 -0.028001953 -0.082487434 -0.09501285
000010 4b b5 b4 3c f6 6c d9 bb 59 3e 0c bd 67 b4 9f bd
       0.022059103 -0.0066353036 -0.034239147 -0.07798081
000020 4a 13 3c 3c 62 c2 b5 bd
       0.011479208 -0.08874966
