classify-ckpt/model_epoch_90.pth (torch, 517704 bytes, 4 tensors)

fc1.weight f4 [80, 1600]
000000 5f b9 a0 3c 2d df 5d bc 3d a3 57 bc 6b a0 b0 bc
       0.019619642 -0.013541979 -0.013161478 -0.021560868
000010 eb 36 d8 3b 8b 81 aa 3c d0 1c 59 3c da 73 9b bc
       0.0065983436 0.020813724 0.013251498 -0.01897614
000020 e7 18 ff bb 38 73 ce 3b 31 14 8e bc 70 91 9d 3c
       -0.007784951 0.0063003562 -0.017343612 0.019234389
000030 21 85 21 bc 5b 4a bd 3c 91 62 94 3c 0f e5 bd bc
       -0.009858401 0.023106745 0.018113406 -0.023180513
000040 af a5 99 bc cb e9 a2 3c 6a 54 87 3c bc 34 f0 3c
       -0.018755762 0.019886872 0.016519744 0.02932202
000050 e7 fb 98 3b 9f 76 92 3c df f1 94 bc 28 bc b6 3c
       0.004668701 0.017878829 -0.01818174 0.022306517
000060 90 48 21 3a f5 f8 c6 3c a7 2c 83 bc 78 d7 9b bc
       0.0006152475 0.024288634 -0.016012503 -0.019023642
000070 0d 94 24 bc 00 0d 97 bc d4 fc b0 bc e2 21 93 3c
       -0.010045064 -0.018438816 -0.021604933 0.017960493
000080 5d f2 67 3c 6d 5d 04 3c 7d 17 d9 bb 9a 45 07 ba
       0.014156905 0.008078915 -0.0066251145 -0.0005160213
000090 e0 e6 37 3c 8d 09 8a 3c 9a b8 e4 3b 37 38 00 bc
       0.0112244785 0.016850257 0.006980014 -0.007825903
0000a0 90 3a ca bc 0d f6 c1 3b 47 4e 83 bb 07 c5 40 3c
       -0.024686128 0.005919224 -0.004007134 0.011765725
0000b0 a8 23 56 3b bb 1f bf bc 48 37 91 3c e7 95 60 3b
       0.0032675061 -0.02333056 0.017726555 0.0034269036
0000c0 2a a5 b4 3c 3a 2c de bc de c4 00 3c fa de 62 3c
       0.022051413 -0.027120698 0.007859437 0.013847107
0000d0 26 71 d6 bc 05 75 b6 3c 41 6e dc 3c c0 8f 0d bb
       -0.026177 0.022272596 0.026908042 -0.0021600574
0000e0 63 f9 98 bc cd 36 ef b9 2d ed ad 3c 0e c4 03 3d
       -0.018673604 -0.00045626462 0.021231258 0.032169394
0000f0 8b 59 8a 3c b8 be 9d bc ca 92 9f bc a3 e6 af 3c
       0.0168884 -0.01925598 -0.019479174 0.02147228
000100 59 9b 38 3a a7 e4 7d bc 13 8a 9a 3b 72 05 6d 3c
       0.00070421916 -0.0154964095 0.0047161668 0.01446663
000110 33 87 11 39 54 42 80 3b 24 51 88 3c 80 89 c7 3b
       0.00013878643 0.003914157 0.016640253 0.0060893893
000120 0d 5a 43 bc c0 53 a4 3b eb 02 96 3b 02 da a8 3c
       -0.011923325 0.0050148666 0.0045779846 0.020611767
000130 e7 3d 8e 3b 0d dc 5b 3c 1a 9f 3d 3b b3 30 73 3c
       0.0043408754 0.013419163 0.0028933943 0.014843154
000140 a3 7d e7 bc 96 f1 fe bb 7c 5a fe bc 14 be 07 bc
       -0.02825815 -0.007780264 -0.031049006 -0.008285064
000150 d3 cf 77 bc 55 bb 9a ba 5a 83 ec 3b bc d1 ba bc
       -0.015125233 -0.0011805097 0.0072178068 -0.022805087
000160 9b 99 08 bc 22 47 0b 3b a4 25 36 3c c6 23 df bc
       -0.008337404 0.0021252115 0.011117373 -0.027238738
000170 2b 6b d3 bc 97 a9 2f 3b bb 5e 91 3c 90 ea 02 bd
       -0.025807938 0.0026803964 0.017745366 -0.031961977
000180 8d eb 6c bc ae 36 f1 3c 4f 1b 23 bb 7c 9e bb 3c
       -0.014460457 0.029445019 -0.0024888103 0.02290272
000190 75 e7 e0 bb ff 07 76 bc 94 a7 fd bc 87 ea 20 3b
       -0.0068635293 -0.015016555 -0.030963697 0.0024553852
0001a0 3f 61 6d bc e7 d7 8a bc ce a6 01 bc bd d3 b7 bc
       -0.014488517 -0.016948653 -0.0079133045 -0.022439832
0001b0 b6 d1 cb bc 9d cf c0 bc 0b 1b 5c 3c 97 37 24 bc
       -0.024880271 -0.023536498 0.013434182 -0.010023019
0001c0 ef d6 45 3c 59 f3 52 bc 59 80 99 3c 16 15 49 bc
       0.01207517 -0.012875401 0.018737959 -0.012273094
0001d0 f3 0c 4c bc da 50 9c bc b7 c9 34 bc 30 93 d8 bb
       -0.012454259 -0.019081522 -0.011034421 -0.006609343
0001e0 9a b6 17 ba cd f4 47 bc 75 ae c9 3c 83 c3 56 bc
       -0.00057874026 -0.012204361 0.02461932 -0.013108137
0001f0 41 64 e3 3c d7 2f c4 3c db 9c b2 bc 3a 11 c0 bb
       0.027757766 0.023948593 -0.02180331 -0.0058614286
000200 9d 3d bd 3c 78 40 b2 bc ad 65 41 bc ca 8b b5 bc
       0.023100669 -0.021759257 -0.011804027 -0.022161383
000210 59 d7 02 3c 0e cf 03 3d 48 a4 a9 3c 8c 1f c0 3b
       0.007985913 0.032179885 0.020708218 0.0058631357
000220 73 15 ae 3c 03 c1 d5 3c 40 42 10 3c 7e 52 a5 b9
       0.021250462 0.026093012 0.008804858 -0.00031532714
000230 40 f2 0f 3c 64 56 2f 3d bb a5 86 3c c0 5e 48 3b
       0.008785784 0.042806998 0.016436448 0.0030574054
000240 96 95 a7 3c 21 f3 03 3c 95 3e c2 3c 8a 83 dc bc
       0.02045707 0.008053572 0.023711482 -0.026918191
000250 2d 46 2b bc a0 49 2e ba 79 77 d7 3b a7 88 86 3c
       -0.010453743 -0.0006648544 0.0065755215 0.016422583
000260 5a c7 58 3b 23 d7 38 3c b3 ee 60 bc e0 61 a6 bc
       0.0033077807 0.011281761 -0.013728785 -0.020310342
000270 40 d6 55 3b 9a f3 5a 3c 33 b7 75 3b 73 b5 11 bb
       0.0032628924 0.013363743 0.0037493228 -0.0022233396
000280 33 21 93 39 bd 9f 4b 3c a0 fd 26 bc ba 0d 08 bc
       0.0002806276 0.012428221 -0.010192305 -0.008304054
000290 8f 56 25 3c cd 07 c4 3c 72 c5 97 bc 8a 8b 3b 3c
       0.010091438 0.023929501 -0.018526766 0.011446843
0002a0 0f f3 9a bc 7b 0f 42 bc c2 67 b8 bb eb b9 b6 3c
       -0.018914727 -0.011844511 -0.0056276033 0.02230545
0002b0 a9 73 1d bc 90 b3 0e 3c c2 08 78 bc 6d af de 3b
       -0.009610095 0.008709803 -0.015138807 0.0067958147
0002c0 51 11 09 3c 20 6e b5 3b 9a 43 a0 3c 27 c9 e8 ba
       0.008365945 0.0055368096 0.019563485 -0.0017760143
0002d0 5a 6a 3a 3b 27 4d 4d 3c 70 a3 04 3d 80 3f cc bb
       0.0028444738 0.012530602 0.03238243 -0.0062331557
0002e0 90 a9 a5 3c 4d 73 c5 3b 2b 8b 4f 3c b3 90 e2 bc
       0.020222455 0.006025708 0.012667458 -0.027656889
0002f0 1a 7b c9 3c fd e9 4e bc f8 40 ed bc cd 6c eb 3a
       0.024594832 -0.012629029 -0.028961644 0.0017961502
000300 67 7d a1 bc 33 66 db 3b d0 e7 76 3c 92 d3 ad 3c
       -0.019713117 0.0066955327 0.015069917 0.021219049
000310 8b 7b 91 3c af 59 ab 3c 10 69 70 bc 9a 55 50 3a
       0.017759105 0.020916788 -0.014673486 0.0007947326
000320 22 26 c4 3c cd 3c c9 3c c7 df 80 bc f8 7f 9a 3c
       0.023943964 0.024565125 -0.015731705 0.018859848
000330 d9 f5 66 bc 68 ed a2 bc 80 0b 8e ba 63 aa 2b bc
       -0.014096701 -0.019888595 -0.0010837168 -0.010477635
000340 cb b6 80 3c f3 3f e1 bc 7f fa 84 3c 56 62 92 bb
       0.015712162 -0.027496314 0.016232727 -0.004467289
000350 4a 4c ac bb a7 10 4b 3c 51 a2 bf 3c cd 0c 78 b8
       -0.005258118 0.012394107 0.023392828 -5.913973e-05
000360 42 cf c5 3c 17 6c 49 3c 97 84 68 3c 17 5c de 3c
       0.02414668 0.012293837 0.014191768 0.027143521
000370 90 12 9b 3c 44 f6 63 3b c0 90 a1 3c c3 25 10 3c
       0.01892975 0.0034784237 0.019722342 0.008798066
000380 ba ca e7 3c 8d bf ba bb 9a 39 15 ba 67 7a 98 3c
       0.02829491 -0.005699104 -0.0005692482 0.018613053
000390 dd b8 a4 3c a7 e1 88 bc 23 02 25 3c 83 8d 90 bc
       0.020107681 -0.016709162 0.01007131 -0.017645603
0003a0 33 66 47 bb a7 a3 13 bb 20 96 a2 3c 95 00 b0 3c
       -0.0030425906 -0.0022527964 0.019846976 0.021484653
0003b0 7d b4 69 3c e7 96 60 bc 80 5d 88 bb c0 00 08 3b
       0.014264223 -0.013707853 -0.0041615367 0.00207524
0003c0 00 e6 1d bb 97 00 96 3c e7 ee 85 bb bd af 13 bc
       -0.002409339 0.018310828 -0.0040873173 -0.009014067
0003d0 c9 4d 9e 3c 13 f4 76 bc f2 93 b6 bc 43 62 39 3c
       0.0193242 -0.01507284 -0.022287343 0.011314931
0003e0 40 c7 4c 3c eb 82 b9 bc e0 34 bd 3c 89 72 86 ba
       0.012498677 -0.022645434 0.023096502 -0.0010257523
0003f0 cc ba 95 3c 30 71 16 bc 2c fa 92 3c 2c b9 75 3b
       0.018277548 -0.009182259 0.017941557 0.0037494404

fc1.bias f4 [80]
000000 76 c5 09 bb 4e 22 81 bc bb 94 95 3c 91 98 ca bb
       -0.0021022237 -0.015763428 0.018259397 -0.006182738
000010 1b 3f 02 3c 5c 21 25 bc 5c bd 15 3c 32 37 53 3c
       0.007949616 -0.010078754 0.009139385 0.012891578
000020 c3 56 0d 3c 40 cd 44 3b 26 31 a7 3b aa 5d ad 3c
       0.008626643 0.0030029565 0.0051022945 0.021162827
000030 61 51 54 bb 20 4d 71 bc df 24 c0 3c 53 9d 4d bc
       -0.0032397138 -0.014727861 0.023455082 -0.012549716
000040 a8 2f 7e 3c 03 4d 72 3c 2d 06 02 3d 46 5b 8e 3a
       0.015514292 0.014788869 0.03174417 0.0010860942
000050 f5 70 9b 3c 77 89 e8 b8 00 55 cd ba ac 8f ae 3b
       0.01897476 -0.00011088227 -0.0015665591 0.0053271856
000060 58 10 41 bc 74 6d 87 bb b2 d2 63 bc d2 c5 63 3b
       -0.011783682 -0.004132921 -0.013905214 0.0034755361
000070 9b 8d d1 39 e8 59 b4 3c 44 33 e4 3c c9 35 a3 3c
       0.0003996909 0.022015527 0.027856477 0.019923108
000080 35 2e 32 3b fd 34 59 bb 27 f1 3d 3c a8 a1 12 bc
       0.0027188186 -0.0033143156 0.01159314 -0.008949675
000090 71 b3 50 3c 85 10 e9 3b f0 d6 b9 3c 65 68 33 bc
       0.012738095 0.007112565 0.022685498 -0.010950183
0000a0 a5 30 91 3b 9b 11 ae bc 1d 9c 01 3c ba c3 c1 ba
       0.0044308477 -0.02124863 0.007910755 -0.0014783063
0000b0 82 d4 c2 bc 0c 10 f1 39 ed 98 75 3b 69 b4 d9 3c
       -0.023782972 0.00045979058 0.0037475184 0.026575284
0000c0 f4 9a 17 bb 58 16 e4 3c 2b 4b ac bb 15 6c 7e 3c
       -0.002313313 0.027842686 -0.005257984 0.015528698
0000d0 4d 9d fa bb 48 5f a6 3c 42 df 5a bc 93 fd 98 3c
       -0.0076481462 0.020309106 -0.013358893 0.018675601
0000e0 2a 50 88 3c 5e 07 03 bc f1 43 b9 bc 8d a6 7f 3b
       0.016639788 -0.007997362 -0.022615405 0.0039009184
0000f0 52 df 1c 3c 13 0c af bc 92 20 e9 bb a2 fe a7 ba
       0.009574728 -0.021368062 -0.0071144784 -0.0012816975
000100 ec 29 78 bc 2b d3 d1 3c 49 0d 0d 3c 9c e4 84 bb
       -0.015146714 0.025613388 0.008609124 -0.0040555727
000110 11 ee 89 bc 37 45 0d bc 23 ac 95 bb 90 fd 8c 3c
       -0.016837152 -0.008622459 -0.0045676394 0.017210752
000120 24 5f 06 3c f0 f1 cb 3c 4d ea ad bc 69 e9 a4 3c
       0.008201394 0.024895638 -0.021229887 0.02013083
000130 c8 9c 69 bc dc d5 c8 bb 74 47 b8 bc 2b c2 02 3b
       -0.014258571 -0.0061290096 -0.022495009 0.001995216

fc2.weight f4 [10, 80]
000000 8a ec 03 bd 34 91 68 bc f1 f8 41 3d af d8 0a 3d
       -0.032208003 -0.014194775 0.04735655 0.03389805
000010 fa 45 76 3c 2f 0c 41 3d db cd 3f 3d a2 22 0e bd
       0.015031332 0.04713076 0.04682718 -0.034700997
000020 02 4d be bc 74 ef bd 3b 96 34 94 bd 21 37 ce bd
       -0.02323008 0.0057963673 -0.072365925 -0.10069109
000030 aa 8d a5 bd 73 d3 a9 bc f8 48 f8 bd b3 7e c5 bd
       -0.08083661 -0.02073071 -0.12123293 -0.096433066
000040 44 d2 8d 3d 30 b6 b2 3d e9 b5 fc bd 8d 4b 47 3d
       0.069248706 0.08726156 -0.12339384 0.048656035
000050 01 4b 84 ba a6 23 dd bd aa 7e c1 3c 11 f1 91 bd
       -0.0010093154 -0.10797815 0.023619968 -0.07126058
000060 9e 44 a4 3d 6b 7a e8 3c 5f b4 24 3c 50 d0 ae bd
       0.080209 0.028378686 0.010052769 -0.08535826
000070 01 16 77 3d fe 5f 8b bd c1 73 da bd 9f 2f a4 3d
       0.06032372 -0.068054184 -0.106666096 0.080168955
000080 32 56 81 bd 93 d6 5a bd db 08 9c bd 6e 8e 7d 3d
       -0.063152686 -0.05342729 -0.076188765 0.06190341
000090 13 63 b6 3d ef ca ad 3d f3 ae 67 3d 46 0c ea bd
       0.08905616 0.08485972 0.05656333 -0.11428122
0000a0 e4 48 1d bb b6 54 a8 3d 2c 24 81 bd 9a 68 dd bd
       -0.0023999745 0.08219282 -0.06305727 -0.10810967
0000b0 ed e8 92 3c cc eb 44 bd 4f c5 12 3d ec 4a 05 bd
       0.017933333 -0.048076436 0.0358327 -0.032542154
0000c0 47 55 16 3d ee 4d 23 bd 18 cd a0 bc 85 9b 1e bd
       0.03670242 -0.03986924 -0.019629046 -0.038722534
0000d0 48 48 c3 bd 1e 2a 28 bd f5 47 94 bd 17 6f c1 bc
       -0.09535271 -0.04105579 -0.07240287 -0.023612542
0000e0 2a a6 49 bd 49 50 34 bd 23 a8 a4 3d ef ad c8 bd
       -0.049230732 -0.04402188 0.08039882 -0.097988
0000f0 f8 61 84 3d bd cd 5c bc 3c bf 90 bd 1e be e6 bd
       0.064639986 -0.013476786 -0.07067725 -0.11266731
000100 6d 7a 07 3d a5 ec 06 3d 47 9c 68 3d d5 37 db 3d
       0.03307574 0.032940526 0.056789663 0.107040085
000110 a5 ce e8 bd 4c b6 7d bd 4d 6b a9 3d df d6 a6 bd
       -0.11367539 -0.06194143 0.08272419 -0.08146452
000120 22 b8 83 3d b8 30 10 3d f9 15 b4 3d c0 a9 9f 3d
       0.06431605 0.03520271 0.087932535 0.07796049
000130 bf 4c bd 3d 94 1a 0c bd 95 9f 10 bd b7 81 c7 3b
       0.09243154 -0.034205034 -0.03530844 0.0060884613
000140 ee b3 7f 3d 44 74 2d 3c 4f 88 19 3d 62 60 b6 bd
       0.062427454 0.010586802 0.03748351 -0.08905102
000150 98 f6 c6 3d 3a 05 c6 bd 27 27 da 3c 11 f5 e6 bd
       0.09715003 -0.09668966 0.026629997 -0.112772115
000160 91 a0 45 bd 43 1a df bd 48 e0 73 bd 89 92 f1 bd
       -0.04824883 -0.10893681 -0.059540063 -0.117955275
000170 01 ca 27 bd 20 3f aa bd e5 2a 23 3c 74 f2 77 bd
       -0.04096413 -0.083128214 0.009958957 -0.060533956
000180 34 8a 65 3d b7 62 e3 bd 9b 45 b7 3a f3 cb b5 3c
       0.056040004 -0.11102813 0.0013982536 0.022191977
000190 27 4d f5 bc b4 c0 09 bd b1 26 c0 bd 3c 0f b2 3d
       -0.029944016 -0.03363104 -0.0938238 0.08694312
0001a0 d5 1b 6c 3d e7 df b4 bd 67 10 5a bc 22 64 18 bd
       0.05764373 -0.088317685 -0.013309575 -0.03720487
0001b0 20 fb 93 3d a6 09 4f bd 4f 9c 76 bd 31 a4 7d 3d
       0.07225633 -0.05054631 -0.06020766 0.061924163
0001c0 a7 de 00 be 58 64 51 bd 76 c7 00 bc 7f f5 70 3c
       -0.12584935 -0.051121086 -0.007860055 0.014706968
0001d0 a8 67 b2 bd 41 cb 82 3d 03 fe a0 3d 12 76 98 bd
       -0.08711177 0.06386424 0.07860949 -0.07444395
0001e0 6e d0 8c bc 55 53 88 bd 3f 0e a9 3d 1b 5a b3 bd
       -0.01718923 -0.06656519 0.0825467 -0.08757421
0001f0 7a 1a 76 bd 31 40 58 3d ce bc 1d bd 53 c8 83 bd
       -0.060083844 0.052795593 -0.038510136 -0.06434693
000200 b3 4d 91 bd c0 c7 cf bd 8c d8 9b 3d 6d bf 29 bc
       -0.07094898 -0.10145521 0.076096624 -0.010360581
000210 51 60 a9 bd 79 b9 4a 3d b5 59 ba bd 94 d4 60 3d
       -0.08270324 0.049493287 -0.090991415 0.05489023
000220 c8 7d b2 3d fa f8 89 3a 72 15 6b 3d 87 a5 c7 3c
       0.08715397 0.0010526471 0.0573935 0.024370922
000230 41 ee 6e bd 5e 1c 40 3d fd 60 df bd 5c c2 c9 3d
       -0.058332685 0.046902053 -0.10907171 0.09851524
000240 e7 f7 d6 3d 7e a7 dd 3c 6c 7a db 3d 30 41 ba bd
       0.10496502 0.027057406 0.107167095 -0.09094465
000250 4d 6b ac bd 39 fd de 3c 2b 2b 48 3d 0c e1 44 3d
       -0.084189035 0.027220355 0.048869293 0.048066184
000260 be c8 4e bd 15 54 ad 3d 74 a0 c6 3c 1e 23 c1 3b
       -0.05048441 0.08463303 0.024246432 0.005894079
000270 c2 3d 6a 3b 3c 65 83 bd 45 0e 0e 3c 61 1b 15 bc
       0.0035742377 -0.06415793 0.008670394 -0.009100766
000280 27 13 6f bc e5 a4 22 3d e7 7d f6 bd 6b c8 1e bd
       -0.014591969 0.039708037 -0.12035733 -0.038765352
000290 a6 aa 81 bd c0 a9 32 bd 02 c3 4e bc 1e 1b 84 3d
       -0.06331377 -0.043618917 -0.012619736 0.06450485
0002a0 eb 00 4e 3d e9 2f fd bd 24 96 f6 bc f1 da ea bd
       0.050293844 -0.12362654 -0.03010089 -0.11467541
0002b0 9f 2d b7 3d 9f 54 92 bd 2c 98 b3 bd df 34 7a bd
       0.089442484 -0.071450464 -0.08769259 -0.061085578
0002c0 28 d6 c2 bd ff eb 8c bd f0 6f 70 3d d1 a5 bd 3d
       -0.09513503 -0.0688095 0.058700502 0.092601426
0002d0 5f 19 83 3d 54 04 3b bd 2f 24 37 bd d0 20 e6 bd
       0.064013235 -0.045658424 -0.04471224 -0.11236727
0002e0 a8 5b 6f 3d a5 77 54 3d 2f ab 9e 3d 0e 80 70 bd
       0.05843702 0.051871914 0.077474944 -0.058715872
0002f0 98 b6 ac bd 4c 25 02 bd 84 dd da bd f8 55 53 3d
       -0.084332645 -0.03177385 -0.10686782 0.051595658
000300 cb 12 04 be 51 7d 3e 3d 47 79 99 3d 79 84 bd 3d
       -0.12897794 0.04650623 0.07493835 0.09253783
000310 37 f7 47 bd 91 e3 a5 bd 48 e3 b1 3d b9 49 84 bd
       -0.048819747 -0.081000455 0.086859286 -0.06459374
000320 73 f0 cf bd 08 15 1c bc f9 30 a1 3d 13 41 86 3d
       -0.10153284 -0.009526499 0.07870669 0.06555381
000330 8f cf 01 bd e8 71 1f 3c 66 27 91 3d fb 74 8b 39
       -0.031692084 0.009731747 0.07087593 0.00026599303
000340 56 11 75 bc 58 f2 97 3d 0e 45 bb bc 8c 6d bc bd
       -0.0149577465 0.0741927 -0.022860076 -0.09200582
000350 4d ea fc bd d8 4a b6 3d 3a 9f 81 3d 94 36 23 3d
       -0.12349377 0.08900994 0.06329198 0.03984697
000360 ab d6 4c 3d 28 ba 4c 3d 55 b9 c2 3d be 2c d3 bd
       0.05000941 0.04998222 0.095080055 -0.10311268
000370 2b 58 8d 3d cd 78 f4 bc 11 b7 aa 3d a2 ed ab bc
       0.06901582 -0.029842759 0.083356984 -0.020987336
000380 cf 3a 9b bd 2d e7 02 be 60 de c9 bd 07 97 87 bd
       -0.07579576 -0.12783499 -0.09856868 -0.06620603
000390 70 0e f3 3c 82 5b ed bd e8 76 0a bd 9b 31 86 3d
       0.02966997 -0.11589719 -0.033804804 0.0655243
0003a0 1e dc 55 bd f1 49 00 bd 78 77 6f bb 68 43 32 bd
       -0.052211873 -0.031320516 -0.0036539715 -0.043521315
0003b0 57 03 61 bd 79 53 89 bb 97 6f 87 bd 13 ca 9f 3d
       -0.054934826 -0.004190859 -0.06613081 0.078022145
0003c0 7d f5 c1 bd 18 c8 ae bd d2 f4 95 3c 8e 07 d0 bc
       -0.09470651 -0.085342586 0.018305216 -0.025394227
0003d0 66 ef 6b bd 21 69 78 3d ff f7 bf 3d d3 2e 01 be
       -0.057601355 0.060647134 0.093734734 -0.12615518
0003e0 9d 54 72 3c 41 1b f4 bd 12 7a 53 3c eb ab 75 bc
       0.014790681 -0.11919261 0.012907522 -0.014994602
0003f0 4d 5d 93 3c da f7 90 3d 73 c9 89 3d f7 0d 44 3d
       0.017988825 0.07078524 0.067278765 0.04786488

fc2.bias f4 [10]
000000 5f d6 8e bc 7b 68 e7 bc 92 9d c6 bd 9a f8 dd bd
       -0.017436204 -0.028248062 -0.09698023 -0.108384326
000010 a3 4b ab 3c 5e 07 82 bc 87 ad 47 bd ad 66 a8 bd
       0.02091009 -0.015872654 -0.048749473 -0.08222709
000020 35 73 1f 3c c1 74 b8 bd
       0.009732057 -0.09006644
