classify-ckpt/model_epoch_89.pth (torch, 517704 bytes, 4 tensors)

fc1.weight f4 [80, 1600]
00000000: 5fb9 a03c 2ddf 5dbc 3da3 57bc 6ba0 b0bc
00000010: f8e3 d73b 8b81 aa3c d01c 593c da73 9bbc
00000020: e718 ffbb 3873 ce3b 3114 8ebc 7091 9d3c
00000030: 2185 21bc 5b4a bd3c d44d 943c 0fe5 bdbc
00000040: afa5 99bc cbe9 a23c 6a54 873c 1f21 f03c
00000050: 10c3 983b 9f76 923c dff1 94bc 28bc b63c
00000060: f8b0 1e3a f5f8 c63c a72c 83bc 78d7 9bbc
00000070: 0d94 24bc c403 97bc d4fc b0bc e221 933c
00000080: 5df2 673c 6d5d 043c 706a d9bb 9a45 07ba
00000090: e0e6 373c 8d09 8a3c 9ab8 e43b 3738 00bc
000000a0: 903a cabc 0df6 c13b 474e 83bb 07c5 403c
000000b0: c27d 553b bb1f bfbc 4837 913c e795 603b
000000c0: 2aa5 b43c 3a2c debc dec4 003c fade 623c
000000d0: 2671 d6bc 0575 b63c 8459 dc3c c08f 0dbb
000000e0: 63f9 98bc cd36 efb9 4fdb ad3c 89ba 033d
000000f0: 554b 8a3c b8be 9dbc ca92 9fbc a3e6 af3c
00000100: c103 363a a7e4 7dbc 138a 9a3b 7205 6d3c
00000110: 3387 1139 4567 803b 2451 883c 8089 c73b
00000120: 0d5a 43bc c053 a43b f8af 953b 02da a83c
00000130: e73d 8e3b 0ddc 5b3c 1a9f 3d3b b330 733c
00000140: a37d e7bc 96f1 febb 7c5a febc 14be 07bc
00000150: 4cf9 77bc 55bb 9aba 5a83 ec3b bcd1 babc
00000160: 9b99 08bc 2247 0b3b a425 363c c623 dfbc
00000170: 2b6b d3bc 97a9 2f3b fe49 913c 90ea 02bd
00000180: 8deb 6cbc d024 f13c 4f1b 23bb 738b bb3c
00000190: 75e7 e0bb 6a24 76bc 94a7 fdbc 87ea 203b
000001a0: b98a 6dbc e7d7 8abc cea6 01bc bdd3 b7bc
000001b0: b6d1 cbbc 61c6 c0bc 0b1b 5c3c 9737 24bc
000001c0: efd6 453c 59f3 52bc 9c6b 993c 1615 49bc
000001d0: f30c 4cbc da50 9cbc b7c9 34bc 3093 d8bb
000001e0: 9ab6 17ba cdf4 47bc 75ae c93c 83c3 56bc
000001f0: 844f e33c d72f c43c db9c b2bc 3a11 c0bb
00000200: 9d3d bd3c 7840 b2bc ad65 41bc ca8b b5bc
00000210: 59d7 023c b0c4 033d 8b8f a93c 99cc bf3b
00000220: 7315 ae3c 25af d53c 4042 103c d414 aab9
00000230: 40f2 0f3c 494f 2f3d bba5 863c dab8 473b
00000240: d980 a73c a8c9 033c 953e c23c 8a83 dcbc
00000250: 2d46 2bbc 1822 2dba 7977 d73b a788 863c
00000260: 5ac7 583b 23d7 383c 2c18 61bc e061 a6bc
00000270: 40d6 553b 9af3 5a3c 33b7 753b 73b5 11bb
00000280: 3321 9339 bd9f 4b3c a0fd 26bc ba0d 08bc
00000290: 162d 253c cd07 c43c 72c5 97bc 8a8b 3b3c
000002a0: 0ff3 9abc 7b0f 42bc c267 b8bb ebb9 b63c
000002b0: 229d 1dbc 90b3 0e3c 3b32 78bc 6daf de3b
000002c0: d8e7 083c 206e b53b 9a43 a03c bdf9 e9ba
000002d0: 5a6a 3a3b 274d 4d3c 1299 043d 803f ccbb
000002e0: d394 a53c 4d73 c53b b261 4f3c b390 e2bc
000002f0: 1a7b c93c 85d7 4ebc f840 edbc cd6c eb3a
00000300: 677d a1bc 3366 db3b 57be 763c 92d3 ad3c
00000310: 8b7b 913c af59 ab3c 1069 70bc 9a55 503a
00000320: 2226 c43c cd3c c93c c7df 80bc f87f 9a3c
00000330: 521f 67bc 68ed a2bc 800b 8eba 63aa 2bbc
00000340: cbb6 803c f33f e1bc 7ffa 843c 49b5 92bb
00000350: 4a4c acbb a710 4b3c 948d bf3c cd0c 78b8
00000360: 64bd c53c 9e42 493c 9784 683c 0e49 de3c
00000370: 9012 9b3c 5e50 633b 8a82 a13c c325 103c
00000380: fdb5 e73c 8dbf babb 9a39 15ba aa65 983c
00000390: ddb8 a43c 6bd8 88bc 2302 253c 838d 90bc
000003a0: 3366 47bb a7a3 13bb 6381 a23c 9500 b03c
000003b0: 7db4 693c e796 60bc 805d 88bb c000 083b
000003c0: 00e6 1dbb 9700 963c e7ee 85bb bdaf 13bc
000003d0: 0c39 9e3c 13f4 76bc f293 b6bc 4362 393c
000003e0: 40c7 4c3c eb82 b9bc 2320 bd3c 8972 86ba
000003f0: ccba 953c 3071 16bc 6fe5 923c 392a 753b
0.019619642 -0.013541979 -0.013161478 -0.021560868 0.0065884553 0.020813724 0.013251498 -0.01897614
-0.007784951 0.0063003562 -0.017343612 0.019234389 -0.009858401 0.023106745 0.018103518 -0.023180513
-0.018755762 0.019886872 0.016519744 0.029312668 0.004661925 0.017878829 -0.01818174 0.022306517
0.0006053592 0.024288634 -0.016012503 -0.019023642 -0.010045064 -0.018434413 -0.021604933 0.017960493
0.014156905 0.008078915 -0.006635003 -0.0005160213 0.0112244785 0.016850257 0.006980014 -0.007825903
-0.024686128 0.005919224 -0.004007134 0.011765725 0.0032576178 -0.02333056 0.017726555 0.0034269036
0.022051413 -0.027120698 0.007859437 0.013847107 -0.026177 0.022272596 0.026898153 -0.0021600574
-0.018673604 -0.00045626462 0.021222739 0.032160316 0.016881624 -0.01925598 -0.019479174 0.02147228
0.00069433084 -0.0154964095 0.0047161668 0.01446663 0.00013878643 0.0039185607 0.016640253 0.0060893893
-0.011923325 0.0050148666 0.0045680963 0.020611767 0.0043408754 0.013419163 0.0028933943 0.014843154
-0.02825815 -0.007780264 -0.031049006 -0.008285064 -0.015135121 -0.0011805097 0.0072178068 -0.022805087
-0.008337404 0.0021252115 0.011117373 -0.027238738 -0.025807938 0.0026803964 0.017735478 -0.031961977
-0.014460457 0.029436499 -0.0024888103 0.022893643 -0.0068635293 -0.01502333 -0.030963697 0.0024553852
-0.014498406 -0.016948653 -0.0079133045 -0.022439832 -0.024880271 -0.023532094 0.013434182 -0.010023019
0.01207517 -0.012875401 0.01872807 -0.012273094 -0.012454259 -0.019081522 -0.011034421 -0.006609343
-0.00057874026 -0.012204361 0.02461932 -0.013108137 0.027747877 0.023948593 -0.02180331 -0.0058614286
0.023100669 -0.021759257 -0.011804027 -0.022161383 0.007985913 0.032169998 0.02069833 0.0058532474
0.021250462 0.026084492 0.008804858 -0.00032440445 0.008785784 0.04280022 0.016436448 0.003047517
0.020447182 0.008043684 0.023711482 -0.026918191 -0.010453743 -0.00066045066 0.0065755215 0.016422583
0.0033077807 0.011281761 -0.013738673 -0.020310342 0.0032628924 0.013363743 0.0037493228 -0.0022233396
0.0002806276 0.012428221 -0.010192305 -0.008304054 0.01008155 0.023929501 -0.018526766 0.011446843
-0.018914727 -0.011844511 -0.0056276033 0.02230545 -0.009619983 0.008709803 -0.015148695 0.0067958147
0.008356057 0.0055368096 0.019563485 -0.0017850917 0.0028444738 0.012530602 0.03237254 -0.0062331557
0.020212566 0.006025708 0.01265757 -0.027656889 0.024594832 -0.012624626 -0.028961644 0.0017961502
-0.019713117 0.0066955327 0.015060029 0.021219049 0.017759105 0.020916788 -0.014673486 0.0007947326
0.023943964 0.024565125 -0.015731705 0.018859848 -0.014106588 -0.019888595 -0.0010837168 -0.010477635
0.015712162 -0.027496314 0.016232727 -0.0044771773 -0.005258118 0.012394107 0.02338294 -5.913973e-05
0.02413816 0.012283949 0.014191768 0.027134445 0.01892975 0.0034685354 0.019715566 0.008798066
0.028285021 -0.005699104 -0.0005692482 0.018603165 0.020107681 -0.016704759 0.01007131 -0.017645603
-0.0030425906 -0.0022527964 0.019837087 0.021484653 0.014264223 -0.013707853 -0.0041615367 0.00207524
-0.002409339 0.018310828 -0.0040873173 -0.009014067 0.019314311 -0.01507284 -0.022287343 0.011314931
0.012498677 -0.022645434 0.023086613 -0.0010257523 0.018277548 -0.009182259 0.017931668 0.00374092

fc1.bias f4 [80]
00000000: 5b6b 0abb 0a37 81bc ff7f 953c 9550 cabb
00000010: 703f 023c d44a 25bc d5e6 153c 5514 533c
00000020: 0731 0d3c 1931 443b 33de a63b 6b5d ad3c
00000030: 47f7 54bb 204d 71bc 9c39 c03c ccc6 4dbc
00000040: 2159 7e3c ed6c 723c 8b10 023d 11a7 8f3a
00000050: 385c 9b3c d4cc d3b8 0055 cdba 9ee2 ae3b
00000060: dfe6 40bc 67c0 87bb 2bfc 63bc fd1f 633b
00000070: b25e cc39 a56e b43c 2d33 e43c 864a a33c
00000080: c63e 323b fd34 59bb a01a 3e3c a8a1 12bc
00000090: 1cd4 503c 7863 e93b adeb b93c de91 33bc
000000a0: 9883 913b 2901 aebc d49b 013c 3fc1 c1ba
000000b0: 82d4 c2bc 353f f639 07f3 743b ad9f d93c
000000c0: 6e9a 17bb 9c01 e43c 38f8 abbb d162 7e3c
000000d0: 3cf0 fabb 8c4a a63c bb08 5bbc 5012 993c
000000e0: e664 883c d730 03bc ae58 b9bc 8da6 7f3b
000000f0: 8cbb 1c3c 40fd aebc a0cd e8bb a2fe a7ba
00000100: 7300 78bc 79e4 d13c c236 0d3c 9ce4 84bb
00000110: ce02 8abc be1b 0dbc 54f6 95bb 4d12 8d3c
00000120: 9b88 063c ac06 cc3c 9eed adbc 42fc a43c
00000130: ac9c 69bc cf28 c9bb b732 b8bc 461c 023b
-0.0021121118 -0.015773315 0.01824951 -0.006174157 0.007949695 -0.010088641 0.009149273 0.0128832655
0.008617646 0.002993649 0.005092406 0.02116271 -0.0032496022 -0.014727861 0.02346497 -0.012559604
0.01552418 0.014796478 0.031754058 0.0010959824 0.018964872 -0.00010099416 -0.0015665591 0.0053370735
-0.011773794 -0.004142809 -0.013915102 0.0034656518 0.00038980466 0.022025416 0.027856434 0.019932996
0.002719806 -0.0033143156 0.011603028 -0.008949675 0.012745883 0.0071224533 0.022695387 -0.01096007
0.004440736 -0.021240788 0.0079106875 -0.0014782323 -0.023782972 0.0004696787 0.00373763 0.026565397
-0.0023132819 0.027832799 -0.005248096 0.015526489 -0.0076580327 0.020299219 -0.013368781 0.01868549
0.016649675 -0.00800725 -0.022625294 0.0039009184 0.009566199 -0.021360993 -0.0071045905 -0.0012816975
-0.015136826 0.02562164 0.008619012 -0.0040555727 -0.01684704 -0.008612571 -0.0045764837 0.01722064
0.00821128 0.024905525 -0.021231469 0.020139817 -0.014258545 -0.006138898 -0.02248512 0.0019853278

fc2.weight f4 [10, 80]
00000000: 2ce2 03bd bb67 68bc 4f03 423d 82e2 0a3d
00000010: cd50 763c 8616 413d 39d8 3f3d dc18 0ebd
00000020: 1a39 bebc d93d be3b 672f 94bd cb35 cebd
00000030: 7b88 a5bd 73d3 a9bc c943 f8bd 8479 c5bd
00000040: 73d7 8d3d 2fbb b23d bab0 fcbd eb55 473d
00000050: 3bff 82ba 771e ddbd aa7e c13c e2eb 91bd
00000060: cd49 a43d 278f e83c d8dd 243c 21cb aebd
00000070: 5f20 773d cf5a 8bbd 5b72 dabd ce34 a43d
00000080: 1f51 81bd 93d6 5abd ac03 9cbd 6e8e 7d3d
00000090: 9663 b63d 1ed0 ad3d 51b9 673d 1707 eabd
000000a0: 09a3 1cbb 4d59 a83d d622 81bd 6d67 ddbd
000000b0: ede8 923c 6ee1 44bd adcf 123d 9340 05bd
000000c0: 1858 163d 9143 23bd 5bb8 a0bc 6191 1ebd
000000d0: 1943 c3bd c01f 28bd c642 94bd 5b5a c1bc
000000e0: cc9b 49bd eb45 34bd 52ad a43d efad c8bd
000000f0: f166 843d 28a6 5cbc 29ba 90bd 1ebe e6bd
00000100: cb84 073d 06f6 063d a5a6 683d d537 db3d
00000110: 76c9 e8bd eeab 7dbd 3370 a93d b0d1 a6bd
00000120: 4fbd 833d 163b 103d 5716 b43d b6ae 9f3d
00000130: 264e bd3d 3610 0cbd 3795 10bd a5d4 c73b
00000140: 4cbe 7f3d be9d 2d3c ad92 193d 705d b6bd
00000150: aaf6 c63d 0b00 c6bd e43b da3c 34f0 e6bd
00000160: 7f97 45bd cc15 dfbd ead5 73bd 7792 f1bd
00000170: a3bf 27bd 203f aabd 5f54 233c 16e8 77bd
00000180: 9294 653d e65d e3bd 6791 b83a b0e0 b53c
00000190: 6a38 f5bc 56b6 09bd b126 c0bd 6b14 b23d
000001a0: 3326 6c3d b8da b4bd ede6 59bc c459 18bd
000001b0: 4f00 943d 48ff 4ebd 289c 76bd 8fae 7d3d
000001c0: 26dc 00be 5864 51bd fc9d 00bc 7ff5 703c
000001d0: df66 b2bd 70d0 823d 3203 a13d e370 98bd
000001e0: b1bb 8cbc 6a4e 88bd 510e a93d 0c5a b3bd
000001f0: 7a1a 76bd 8f4a 583d 70b2 1dbd 24c3 83bd
00000200: a04d 91bd 91c2 cfbd bbdd 9b3d 9299 29bc
00000210: 225b a9bd d7c3 4a3d 8654 babd f2de 603d
00000220: f782 b23d c644 8b3a d01f 6b3d 87a5 c73c
00000230: 83e4 6ebd 0926 403d 1e66 dfbd 5cc2 c93d
00000240: 16fd d63d 98b9 dd3c 9b7f db3d 3041 babd
00000250: 1e66 acbd f611 df3c 7c34 483d 6aeb 443d
00000260: 60be 4ebd 4459 ad3d a4b0 c63c eb6c c13b
00000270: 2d40 6a3b 0d60 83bd bf37 0e3c e7f1 14bc
00000280: b3e9 6ebc 41af 223d b978 f6bd 1dc2 1ebd
00000290: e7a9 81bd a09f 32bd b899 4ebc 3220 843d
000002a0: 280b 4e3d cc2a fdbd 6f81 f6bc 34da eabd
000002b0: cc32 b73d 9f54 92bd fe92 b3bd 842a 7abd
000002c0: f9d0 c2bd dee7 8cbd 487a 703d f1aa bd3d
000002d0: 8d1e 833d 10fa 3abd 2f24 37bd a11b e6bd
000002e0: ff65 6f3d fa81 543d 5cb0 9e3d c075 70bd
000002f0: 69b1 acbd f21a 02bd bedc dabd 4c60 533d
00000300: 3f10 04be 517d 3e3d 757e 993d 7984 bd3d
00000310: 24f3 47bd 65de a5bd 76e8 b13d 9044 84bd
00000320: 47eb cfbd 9a37 1cbc b631 a13d b641 863d
00000330: 8fcf 01bd 529b 1f3c 932c 913d fb99 9039
00000340: 140b 75bc 7df7 973d 5630 bbbc 7b68 bcbd
00000350: 3ce5 fcbd 0550 b63d 61a4 813d e940 233d
00000360: 06e1 4c3d 83c4 4c3d 83be c23d be2c d3bd
00000370: 475d 8d3d 7f68 f4bc 2bbc aa3d a2ed abbc
00000380: a135 9bbd 80e5 02be 32d9 c9bd 0797 87bd
00000390: 1a23 f33c 5b56 edbd b26c 0abd c636 863d
000003a0: d8d1 55bd 943f 00bd fb56 6fbb c53b 32bd
000003b0: c901 61bd cb00 89bb 6a6a 87bd 32cf 9f3d
000003c0: 4ef0 c1bd e9c2 aebd 8e09 963c 7bf3 cfbc
000003d0: 62ef 6bbd 6673 783d 2dfd bf3d 6a2c 01be
000003e0: a57c 723c 5816 f4bd 89a3 533c d9ab 75bc
000003f0: 0772 933c daf7 903d a2ce 893d 5418 443d
-0.032198116 -0.0141848875 0.047366437 0.03390742 0.015033913 0.04714062 0.046837065 -0.034691676
-0.023220588 0.0058057127 -0.07235604 -0.10068854 -0.08082672 -0.02073071 -0.12122304 -0.09642318
0.06925859 0.08727109 -0.123383954 0.048665922 -0.0009994277 -0.10796826 0.023619968 -0.07125069
0.08021889 0.028388573 0.010062657 -0.085348375 0.060333606 -0.0680443 -0.10666343 0.08017884
-0.06314301 -0.05342729 -0.07617888 0.06190341 0.08905713 0.08486961 0.056573216 -0.114271335
-0.0023900887 0.08220158 -0.063054726 -0.108107425 0.017933333 -0.04806655 0.035842586 -0.032532286
0.036705106 -0.03985936 -0.019619158 -0.038712863 -0.09534282 -0.041045904 -0.072392985 -0.023602655
-0.049220845 -0.04401199 0.08040871 -0.097988 0.06464947 -0.013467349 -0.07066757 -0.11266731
0.033085626 0.03294947 0.05679955 0.107040085 -0.113665506 -0.061931543 0.082733534 -0.081454635
0.06432592 0.0352126 0.087933235 0.07796995 0.09243421 -0.034195147 -0.035298552 0.0060983473
0.06243734 0.010596691 0.037493397 -0.089045405 0.09715016 -0.09667977 0.026639886 -0.11276284
-0.04824018 -0.10892829 -0.059530176 -0.11795514 -0.040954243 -0.083128214 0.009968846 -0.06052407
0.05604989 -0.11101894 0.0014081419 0.022201866 -0.029934127 -0.033621155 -0.0938238 0.08695301
0.057653617 -0.0883078 -0.013299686 -0.037194982 0.07226621 -0.050536424 -0.060207516 0.06193405
-0.1258398 -0.051121086 -0.007850166 0.014706968 -0.08711027 0.063874125 0.078619376 -0.074434064
-0.017179342 -0.06655581 0.08254684 -0.087574095 -0.060083844 0.05280548 -0.03850025 -0.064337045
-0.07094884 -0.101445325 0.07610651 -0.010351555 -0.08269335 0.049503174 -0.09098153 0.054900117
0.08716386 0.0010625354 0.057403386 0.024370922 -0.058323395 0.046911273 -0.10908149 0.09851524
0.10497491 0.027066037 0.10717698 -0.09094465 -0.08417915 0.027230244 0.048878178 0.04807607
-0.050474524 0.08464292 0.02425415 0.0059028766 0.0035743818 -0.064148046 0.008680283 -0.009090877
-0.014582085 0.039717916 -0.12034745 -0.03875934 -0.063312344 -0.04360926 -0.012609892 0.06451453
0.05030361 -0.123616785 -0.030091016 -0.114674 0.089452356 -0.071450464 -0.08768271 -0.061075702
-0.095125146 -0.06880163 0.058710366 0.0926112 0.064023115 -0.045648634 -0.04471224 -0.112357385
0.05844688 0.051881768 0.07748482 -0.058706045 -0.08432276 -0.03176398 -0.106866345 0.051605508
-0.12896822 0.04650623 0.07494823 0.09253783 -0.04881586 -0.08099059 0.086869165 -0.0645839
-0.101522975 -0.009534741 0.0787081 0.06555502 -0.031692084 0.009741621 0.0708858 0.00027580545
-0.0149562545 0.074202515 -0.022850197 -0.091996156 -0.123484105 0.08901981 0.06330181 0.039856825
0.050019287 0.049992096 0.095089935 -0.10311268 0.06902557 -0.029834984 0.083366714 -0.020987336
-0.07578588 -0.1278286 -0.0985588 -0.06620603 0.029679824 -0.115887366 -0.033795066 0.06553416
-0.052202076 -0.031310633 -0.003652035 -0.043514032 -0.054933343 -0.0041810027 -0.06612094 0.07803191
-0.094696626 -0.0853327 0.018315103 -0.025384655 -0.05760134 0.060656928 0.09374461 -0.12614599
0.014800225 -0.11918324 0.012917408 -0.014994585 0.017998708 0.07078524 0.06728865 0.047874764

fc2.bias f4 [10]
00000000: a3c1 8ebc be53 e7bc 6998 c6bd 6cf3 ddbd
00000010: e636 ab3c a3f2 81bc 2aa3 47bd 8061 a8bd
00000020: a89c 1f3c 966f b8bd
-0.017426318 -0.028238174 -0.09697039 -0.10837445 0.020900201 -0.015862769 -0.04873959 -0.08221722
0.00974194 -0.09005658
